graph(%support : Float(80, 90, strides=[90, 1], requires_grad=0, device=cuda:0),
      %labels : Int(5, strides=[1], requires_grad=0, device=cuda:0),
      %query : Float(16, 90, strides=[90, 1], requires_grad=0, device=cuda:0),
      %features_extractor.fc1.weight : Float(180, 90, strides=[90, 1], requires_grad=1, device=cuda:0),
      %features_extractor.fc1.bias : Float(180, strides=[1], requires_grad=1, device=cuda:0),
      %features_extractor.fc2.weight : Float(512, 180, strides=[180, 1], requires_grad=1, device=cuda:0),
      %features_extractor.fc2.bias : Float(512, strides=[1], requires_grad=1, device=cuda:0),
      %transformers.0.k_linear.bias : Float(128, strides=[1], requires_grad=1, device=cuda:0),
      %transformers.0.v_linear.bias : Float(128, strides=[1], requires_grad=1, device=cuda:0),
      %transformers.0.norm_k.weight : Float(128, strides=[1], requires_grad=1, device=cuda:0),
      %transformers.0.norm_k.bias : Float(128, strides=[1], requires_grad=1, device=cuda:0),
      %transformers.1.k_linear.bias : Float(128, strides=[1], requires_grad=1, device=cuda:0),
      %transformers.1.v_linear.bias : Float(128, strides=[1], requires_grad=1, device=cuda:0),
      %transformers.1.norm_k.weight : Float(128, strides=[1], requires_grad=1, device=cuda:0),
      %transformers.1.norm_k.bias : Float(128, strides=[1], requires_grad=1, device=cuda:0),
      %7079 : Float(1, 16, 512, strides=[12288, 512, 1], requires_grad=0, device=cuda:0),
      %7080 : Float(1, 16, 512, strides=[12288, 512, 1], requires_grad=0, device=cuda:0),
      %7081 : Float(1024, 128, strides=[1, 1024], requires_grad=0, device=cuda:0),
      %7082 : Float(1024, 128, strides=[1, 1024], requires_grad=0, device=cuda:0),
      %7083 : Float(1024, 128, strides=[1, 1024], requires_grad=0, device=cuda:0),
      %7084 : Float(1024, 128, strides=[1, 1024], requires_grad=0, device=cuda:0),
      %7085 : Long(1, strides=[1], requires_grad=0, device=cpu),
      %7086 : Float(requires_grad=0, device=cpu),
      %7087 : Float(requires_grad=0, device=cpu),
      %7089 : Long(0, strides=[1], requires_grad=0, device=cpu),
      %7090 : Long(1, strides=[1], requires_grad=0, device=cpu),
      %7091 : Float(requires_grad=0, device=cpu),
      %7092 : Float(requires_grad=0, device=cpu),
      %7093 : Long(1, strides=[1], requires_grad=0, device=cpu),
      %7094 : Float(requires_grad=0, device=cpu),
      %7095 : Float(requires_grad=0, device=cpu),
      %7096 : Long(1, strides=[1], requires_grad=0, device=cpu),
      %7097 : Float(requires_grad=0, device=cpu),
      %7098 : Float(requires_grad=0, device=cpu),
      %7099 : Long(1, strides=[1], requires_grad=0, device=cpu),
      %7100 : Float(requires_grad=0, device=cpu),
      %7101 : Float(requires_grad=0, device=cpu),
      %7102 : Float(1, 16, 512, strides=[12288, 512, 1], requires_grad=0, device=cuda:0),
      %7103 : Float(1, 16, 512, strides=[12288, 512, 1], requires_grad=0, device=cuda:0),
      %7104 : Float(1536, 128, strides=[1, 1536], requires_grad=0, device=cuda:0),
      %7105 : Float(1536, 128, strides=[1, 1536], requires_grad=0, device=cuda:0),
      %7106 : Float(1536, 128, strides=[1, 1536], requires_grad=0, device=cuda:0),
      %7107 : Float(1536, 128, strides=[1, 1536], requires_grad=0, device=cuda:0),
      %7108 : Long(1, strides=[1], requires_grad=0, device=cpu),
      %7109 : Float(requires_grad=0, device=cpu),
      %7110 : Float(requires_grad=0, device=cpu),
      %7112 : Long(0, strides=[1], requires_grad=0, device=cpu),
      %7113 : Long(1, strides=[1], requires_grad=0, device=cpu),
      %7114 : Float(requires_grad=0, device=cpu),
      %7115 : Float(requires_grad=0, device=cpu),
      %7116 : Long(1, strides=[1], requires_grad=0, device=cpu),
      %7117 : Float(requires_grad=0, device=cpu),
      %7118 : Float(requires_grad=0, device=cpu),
      %7119 : Long(1, strides=[1], requires_grad=0, device=cpu),
      %7120 : Float(requires_grad=0, device=cpu),
      %7121 : Float(requires_grad=0, device=cpu),
      %7122 : Long(1, strides=[1], requires_grad=0, device=cpu),
      %7123 : Float(requires_grad=0, device=cpu),
      %7124 : Float(requires_grad=0, device=cpu),
      %7128 : Long(3, strides=[1], requires_grad=0, device=cpu)):
  %21 : Float(80, 180, strides=[180, 1], requires_grad=1, device=cuda:0) = onnx::Gemm[alpha=1., beta=1., transB=1](%support, %features_extractor.fc1.weight, %features_extractor.fc1.bias) # C:\Users\sberti\AppData\Local\mambaforge\envs\robotologyenv\lib\site-packages\torch\nn\functional.py:1848:0
  %22 : Float(80, 180, strides=[180, 1], requires_grad=1, device=cuda:0) = onnx::Relu(%21) # C:\Users\sberti\AppData\Local\mambaforge\envs\robotologyenv\lib\site-packages\torch\nn\functional.py:1299:0
  %23 : Float(80, 512, strides=[512, 1], requires_grad=1, device=cuda:0) = onnx::Gemm[alpha=1., beta=1., transB=1](%22, %features_extractor.fc2.weight, %features_extractor.fc2.bias) # C:\Users\sberti\AppData\Local\mambaforge\envs\robotologyenv\lib\site-packages\torch\nn\functional.py:1848:0
  %24 : Float(80, 512, strides=[512, 1], requires_grad=1, device=cuda:0) = onnx::Relu(%23) # C:\Users\sberti\AppData\Local\mambaforge\envs\robotologyenv\lib\site-packages\torch\nn\functional.py:1299:0
  %25 : Float(80, 512, strides=[512, 1], requires_grad=1, device=cuda:0) = onnx::Squeeze(%24) # C:\Users\sberti\PycharmProjects\ISBFSAR\modules\ar\trx\utils\model.py:188:0
  %26 : Float(16, 180, strides=[180, 1], requires_grad=1, device=cuda:0) = onnx::Gemm[alpha=1., beta=1., transB=1](%query, %features_extractor.fc1.weight, %features_extractor.fc1.bias) # C:\Users\sberti\AppData\Local\mambaforge\envs\robotologyenv\lib\site-packages\torch\nn\functional.py:1848:0
  %27 : Float(16, 180, strides=[180, 1], requires_grad=1, device=cuda:0) = onnx::Relu(%26) # C:\Users\sberti\AppData\Local\mambaforge\envs\robotologyenv\lib\site-packages\torch\nn\functional.py:1299:0
  %28 : Float(16, 512, strides=[512, 1], requires_grad=1, device=cuda:0) = onnx::Gemm[alpha=1., beta=1., transB=1](%27, %features_extractor.fc2.weight, %features_extractor.fc2.bias) # C:\Users\sberti\AppData\Local\mambaforge\envs\robotologyenv\lib\site-packages\torch\nn\functional.py:1848:0
  %29 : Float(16, 512, strides=[512, 1], requires_grad=1, device=cuda:0) = onnx::Relu(%28) # C:\Users\sberti\AppData\Local\mambaforge\envs\robotologyenv\lib\site-packages\torch\nn\functional.py:1299:0
  %30 : Float(16, 512, strides=[512, 1], requires_grad=1, device=cuda:0) = onnx::Squeeze(%29) # C:\Users\sberti\PycharmProjects\ISBFSAR\modules\ar\trx\utils\model.py:189:0
  %31 : Long(3, strides=[1], device=cpu) = onnx::Constant[value=  -1   16  512 [ CPULongType{3} ]]()
  %32 : Float(5, 16, 512, strides=[8192, 512, 1], requires_grad=1, device=cuda:0) = onnx::Reshape(%25, %31) # C:\Users\sberti\PycharmProjects\ISBFSAR\modules\ar\trx\utils\model.py:193:0
  %33 : Long(3, strides=[1], device=cpu) = onnx::Constant[value=  -1   16  512 [ CPULongType{3} ]]()
  %34 : Float(1, 16, 512, strides=[8192, 512, 1], requires_grad=1, device=cuda:0) = onnx::Reshape(%30, %33) # C:\Users\sberti\PycharmProjects\ISBFSAR\modules\ar\trx\utils\model.py:194:0
  %40 : Float(5, 16, 512, strides=[8192, 512, 1], requires_grad=1, device=cuda:0) = onnx::Add(%32, %7079) # C:\Users\sberti\AppData\Local\mambaforge\envs\robotologyenv\lib\site-packages\torch\nn\functional.py:1169:0
  %46 : Float(1, 16, 512, strides=[8192, 512, 1], requires_grad=1, device=cuda:0) = onnx::Add(%34, %7080) # C:\Users\sberti\AppData\Local\mambaforge\envs\robotologyenv\lib\site-packages\torch\nn\functional.py:1169:0
  %47 : Long(2, strides=[1], requires_grad=0, device=cuda:0) = onnx::Constant[value= 0  1 [ CUDALongType{2} ]]() # C:\Users\sberti\PycharmProjects\ISBFSAR\modules\ar\trx\utils\model.py:67:0
  %48 : Float(5, 2, 512, strides=[1024, 512, 1], requires_grad=1, device=cuda:0) = onnx::Gather[axis=-2](%40, %47) # C:\Users\sberti\PycharmProjects\ISBFSAR\modules\ar\trx\utils\model.py:67:0
  %49 : Long(2, strides=[1], device=cpu) = onnx::Constant[value= 5 -1 [ CPULongType{2} ]]()
  %50 : Float(5, 1024, strides=[1024, 1], requires_grad=1, device=cuda:0) = onnx::Reshape(%48, %49) # C:\Users\sberti\PycharmProjects\ISBFSAR\modules\ar\trx\utils\model.py:67:0
  %51 : Long(2, strides=[1], requires_grad=0, device=cuda:0) = onnx::Constant[value= 0  2 [ CUDALongType{2} ]]() # C:\Users\sberti\PycharmProjects\ISBFSAR\modules\ar\trx\utils\model.py:67:0
  %52 : Float(5, 2, 512, strides=[1024, 512, 1], requires_grad=1, device=cuda:0) = onnx::Gather[axis=-2](%40, %51) # C:\Users\sberti\PycharmProjects\ISBFSAR\modules\ar\trx\utils\model.py:67:0
  %53 : Long(2, strides=[1], device=cpu) = onnx::Constant[value= 5 -1 [ CPULongType{2} ]]()
  %54 : Float(5, 1024, strides=[1024, 1], requires_grad=1, device=cuda:0) = onnx::Reshape(%52, %53) # C:\Users\sberti\PycharmProjects\ISBFSAR\modules\ar\trx\utils\model.py:67:0
  %55 : Long(2, strides=[1], requires_grad=0, device=cuda:0) = onnx::Constant[value= 0  3 [ CUDALongType{2} ]]() # C:\Users\sberti\PycharmProjects\ISBFSAR\modules\ar\trx\utils\model.py:67:0
  %56 : Float(5, 2, 512, strides=[1024, 512, 1], requires_grad=1, device=cuda:0) = onnx::Gather[axis=-2](%40, %55) # C:\Users\sberti\PycharmProjects\ISBFSAR\modules\ar\trx\utils\model.py:67:0
  %57 : Long(2, strides=[1], device=cpu) = onnx::Constant[value= 5 -1 [ CPULongType{2} ]]()
  %58 : Float(5, 1024, strides=[1024, 1], requires_grad=1, device=cuda:0) = onnx::Reshape(%56, %57) # C:\Users\sberti\PycharmProjects\ISBFSAR\modules\ar\trx\utils\model.py:67:0
  %59 : Long(2, strides=[1], requires_grad=0, device=cuda:0) = onnx::Constant[value= 0  4 [ CUDALongType{2} ]]() # C:\Users\sberti\PycharmProjects\ISBFSAR\modules\ar\trx\utils\model.py:67:0
  %60 : Float(5, 2, 512, strides=[1024, 512, 1], requires_grad=1, device=cuda:0) = onnx::Gather[axis=-2](%40, %59) # C:\Users\sberti\PycharmProjects\ISBFSAR\modules\ar\trx\utils\model.py:67:0
  %61 : Long(2, strides=[1], device=cpu) = onnx::Constant[value= 5 -1 [ CPULongType{2} ]]()
  %62 : Float(5, 1024, strides=[1024, 1], requires_grad=1, device=cuda:0) = onnx::Reshape(%60, %61) # C:\Users\sberti\PycharmProjects\ISBFSAR\modules\ar\trx\utils\model.py:67:0
  %63 : Long(2, strides=[1], requires_grad=0, device=cuda:0) = onnx::Constant[value= 0  5 [ CUDALongType{2} ]]() # C:\Users\sberti\PycharmProjects\ISBFSAR\modules\ar\trx\utils\model.py:67:0
  %64 : Float(5, 2, 512, strides=[1024, 512, 1], requires_grad=1, device=cuda:0) = onnx::Gather[axis=-2](%40, %63) # C:\Users\sberti\PycharmProjects\ISBFSAR\modules\ar\trx\utils\model.py:67:0
  %65 : Long(2, strides=[1], device=cpu) = onnx::Constant[value= 5 -1 [ CPULongType{2} ]]()
  %66 : Float(5, 1024, strides=[1024, 1], requires_grad=1, device=cuda:0) = onnx::Reshape(%64, %65) # C:\Users\sberti\PycharmProjects\ISBFSAR\modules\ar\trx\utils\model.py:67:0
  %67 : Long(2, strides=[1], requires_grad=0, device=cuda:0) = onnx::Constant[value= 0  6 [ CUDALongType{2} ]]() # C:\Users\sberti\PycharmProjects\ISBFSAR\modules\ar\trx\utils\model.py:67:0
  %68 : Float(5, 2, 512, strides=[1024, 512, 1], requires_grad=1, device=cuda:0) = onnx::Gather[axis=-2](%40, %67) # C:\Users\sberti\PycharmProjects\ISBFSAR\modules\ar\trx\utils\model.py:67:0
  %69 : Long(2, strides=[1], device=cpu) = onnx::Constant[value= 5 -1 [ CPULongType{2} ]]()
  %70 : Float(5, 1024, strides=[1024, 1], requires_grad=1, device=cuda:0) = onnx::Reshape(%68, %69) # C:\Users\sberti\PycharmProjects\ISBFSAR\modules\ar\trx\utils\model.py:67:0
  %71 : Long(2, strides=[1], requires_grad=0, device=cuda:0) = onnx::Constant[value= 0  7 [ CUDALongType{2} ]]() # C:\Users\sberti\PycharmProjects\ISBFSAR\modules\ar\trx\utils\model.py:67:0
  %72 : Float(5, 2, 512, strides=[1024, 512, 1], requires_grad=1, device=cuda:0) = onnx::Gather[axis=-2](%40, %71) # C:\Users\sberti\PycharmProjects\ISBFSAR\modules\ar\trx\utils\model.py:67:0
  %73 : Long(2, strides=[1], device=cpu) = onnx::Constant[value= 5 -1 [ CPULongType{2} ]]()
  %74 : Float(5, 1024, strides=[1024, 1], requires_grad=1, device=cuda:0) = onnx::Reshape(%72, %73) # C:\Users\sberti\PycharmProjects\ISBFSAR\modules\ar\trx\utils\model.py:67:0
  %75 : Long(2, strides=[1], requires_grad=0, device=cuda:0) = onnx::Constant[value= 0  8 [ CUDALongType{2} ]]() # C:\Users\sberti\PycharmProjects\ISBFSAR\modules\ar\trx\utils\model.py:67:0
  %76 : Float(5, 2, 512, strides=[1024, 512, 1], requires_grad=1, device=cuda:0) = onnx::Gather[axis=-2](%40, %75) # C:\Users\sberti\PycharmProjects\ISBFSAR\modules\ar\trx\utils\model.py:67:0
  %77 : Long(2, strides=[1], device=cpu) = onnx::Constant[value= 5 -1 [ CPULongType{2} ]]()
  %78 : Float(5, 1024, strides=[1024, 1], requires_grad=1, device=cuda:0) = onnx::Reshape(%76, %77) # C:\Users\sberti\PycharmProjects\ISBFSAR\modules\ar\trx\utils\model.py:67:0
  %79 : Long(2, strides=[1], requires_grad=0, device=cuda:0) = onnx::Constant[value= 0  9 [ CUDALongType{2} ]]() # C:\Users\sberti\PycharmProjects\ISBFSAR\modules\ar\trx\utils\model.py:67:0
  %80 : Float(5, 2, 512, strides=[1024, 512, 1], requires_grad=1, device=cuda:0) = onnx::Gather[axis=-2](%40, %79) # C:\Users\sberti\PycharmProjects\ISBFSAR\modules\ar\trx\utils\model.py:67:0
  %81 : Long(2, strides=[1], device=cpu) = onnx::Constant[value= 5 -1 [ CPULongType{2} ]]()
  %82 : Float(5, 1024, strides=[1024, 1], requires_grad=1, device=cuda:0) = onnx::Reshape(%80, %81) # C:\Users\sberti\PycharmProjects\ISBFSAR\modules\ar\trx\utils\model.py:67:0
  %83 : Long(2, strides=[1], requires_grad=0, device=cuda:0) = onnx::Constant[value=  0  10 [ CUDALongType{2} ]]() # C:\Users\sberti\PycharmProjects\ISBFSAR\modules\ar\trx\utils\model.py:67:0
  %84 : Float(5, 2, 512, strides=[1024, 512, 1], requires_grad=1, device=cuda:0) = onnx::Gather[axis=-2](%40, %83) # C:\Users\sberti\PycharmProjects\ISBFSAR\modules\ar\trx\utils\model.py:67:0
  %85 : Long(2, strides=[1], device=cpu) = onnx::Constant[value= 5 -1 [ CPULongType{2} ]]()
  %86 : Float(5, 1024, strides=[1024, 1], requires_grad=1, device=cuda:0) = onnx::Reshape(%84, %85) # C:\Users\sberti\PycharmProjects\ISBFSAR\modules\ar\trx\utils\model.py:67:0
  %87 : Long(2, strides=[1], requires_grad=0, device=cuda:0) = onnx::Constant[value=  0  11 [ CUDALongType{2} ]]() # C:\Users\sberti\PycharmProjects\ISBFSAR\modules\ar\trx\utils\model.py:67:0
  %88 : Float(5, 2, 512, strides=[1024, 512, 1], requires_grad=1, device=cuda:0) = onnx::Gather[axis=-2](%40, %87) # C:\Users\sberti\PycharmProjects\ISBFSAR\modules\ar\trx\utils\model.py:67:0
  %89 : Long(2, strides=[1], device=cpu) = onnx::Constant[value= 5 -1 [ CPULongType{2} ]]()
  %90 : Float(5, 1024, strides=[1024, 1], requires_grad=1, device=cuda:0) = onnx::Reshape(%88, %89) # C:\Users\sberti\PycharmProjects\ISBFSAR\modules\ar\trx\utils\model.py:67:0
  %91 : Long(2, strides=[1], requires_grad=0, device=cuda:0) = onnx::Constant[value=  0  12 [ CUDALongType{2} ]]() # C:\Users\sberti\PycharmProjects\ISBFSAR\modules\ar\trx\utils\model.py:67:0
  %92 : Float(5, 2, 512, strides=[1024, 512, 1], requires_grad=1, device=cuda:0) = onnx::Gather[axis=-2](%40, %91) # C:\Users\sberti\PycharmProjects\ISBFSAR\modules\ar\trx\utils\model.py:67:0
  %93 : Long(2, strides=[1], device=cpu) = onnx::Constant[value= 5 -1 [ CPULongType{2} ]]()
  %94 : Float(5, 1024, strides=[1024, 1], requires_grad=1, device=cuda:0) = onnx::Reshape(%92, %93) # C:\Users\sberti\PycharmProjects\ISBFSAR\modules\ar\trx\utils\model.py:67:0
  %95 : Long(2, strides=[1], requires_grad=0, device=cuda:0) = onnx::Constant[value=  0  13 [ CUDALongType{2} ]]() # C:\Users\sberti\PycharmProjects\ISBFSAR\modules\ar\trx\utils\model.py:67:0
  %96 : Float(5, 2, 512, strides=[1024, 512, 1], requires_grad=1, device=cuda:0) = onnx::Gather[axis=-2](%40, %95) # C:\Users\sberti\PycharmProjects\ISBFSAR\modules\ar\trx\utils\model.py:67:0
  %97 : Long(2, strides=[1], device=cpu) = onnx::Constant[value= 5 -1 [ CPULongType{2} ]]()
  %98 : Float(5, 1024, strides=[1024, 1], requires_grad=1, device=cuda:0) = onnx::Reshape(%96, %97) # C:\Users\sberti\PycharmProjects\ISBFSAR\modules\ar\trx\utils\model.py:67:0
  %99 : Long(2, strides=[1], requires_grad=0, device=cuda:0) = onnx::Constant[value=  0  14 [ CUDALongType{2} ]]() # C:\Users\sberti\PycharmProjects\ISBFSAR\modules\ar\trx\utils\model.py:67:0
  %100 : Float(5, 2, 512, strides=[1024, 512, 1], requires_grad=1, device=cuda:0) = onnx::Gather[axis=-2](%40, %99) # C:\Users\sberti\PycharmProjects\ISBFSAR\modules\ar\trx\utils\model.py:67:0
  %101 : Long(2, strides=[1], device=cpu) = onnx::Constant[value= 5 -1 [ CPULongType{2} ]]()
  %102 : Float(5, 1024, strides=[1024, 1], requires_grad=1, device=cuda:0) = onnx::Reshape(%100, %101) # C:\Users\sberti\PycharmProjects\ISBFSAR\modules\ar\trx\utils\model.py:67:0
  %103 : Long(2, strides=[1], requires_grad=0, device=cuda:0) = onnx::Constant[value=  0  15 [ CUDALongType{2} ]]() # C:\Users\sberti\PycharmProjects\ISBFSAR\modules\ar\trx\utils\model.py:67:0
  %104 : Float(5, 2, 512, strides=[1024, 512, 1], requires_grad=1, device=cuda:0) = onnx::Gather[axis=-2](%40, %103) # C:\Users\sberti\PycharmProjects\ISBFSAR\modules\ar\trx\utils\model.py:67:0
  %105 : Long(2, strides=[1], device=cpu) = onnx::Constant[value= 5 -1 [ CPULongType{2} ]]()
  %106 : Float(5, 1024, strides=[1024, 1], requires_grad=1, device=cuda:0) = onnx::Reshape(%104, %105) # C:\Users\sberti\PycharmProjects\ISBFSAR\modules\ar\trx\utils\model.py:67:0
  %107 : Long(2, strides=[1], requires_grad=0, device=cuda:0) = onnx::Constant[value= 1  2 [ CUDALongType{2} ]]() # C:\Users\sberti\PycharmProjects\ISBFSAR\modules\ar\trx\utils\model.py:67:0
  %108 : Float(5, 2, 512, strides=[1024, 512, 1], requires_grad=1, device=cuda:0) = onnx::Gather[axis=-2](%40, %107) # C:\Users\sberti\PycharmProjects\ISBFSAR\modules\ar\trx\utils\model.py:67:0
  %109 : Long(2, strides=[1], device=cpu) = onnx::Constant[value= 5 -1 [ CPULongType{2} ]]()
  %110 : Float(5, 1024, strides=[1024, 1], requires_grad=1, device=cuda:0) = onnx::Reshape(%108, %109) # C:\Users\sberti\PycharmProjects\ISBFSAR\modules\ar\trx\utils\model.py:67:0
  %111 : Long(2, strides=[1], requires_grad=0, device=cuda:0) = onnx::Constant[value= 1  3 [ CUDALongType{2} ]]() # C:\Users\sberti\PycharmProjects\ISBFSAR\modules\ar\trx\utils\model.py:67:0
  %112 : Float(5, 2, 512, strides=[1024, 512, 1], requires_grad=1, device=cuda:0) = onnx::Gather[axis=-2](%40, %111) # C:\Users\sberti\PycharmProjects\ISBFSAR\modules\ar\trx\utils\model.py:67:0
  %113 : Long(2, strides=[1], device=cpu) = onnx::Constant[value= 5 -1 [ CPULongType{2} ]]()
  %114 : Float(5, 1024, strides=[1024, 1], requires_grad=1, device=cuda:0) = onnx::Reshape(%112, %113) # C:\Users\sberti\PycharmProjects\ISBFSAR\modules\ar\trx\utils\model.py:67:0
  %115 : Long(2, strides=[1], requires_grad=0, device=cuda:0) = onnx::Constant[value= 1  4 [ CUDALongType{2} ]]() # C:\Users\sberti\PycharmProjects\ISBFSAR\modules\ar\trx\utils\model.py:67:0
  %116 : Float(5, 2, 512, strides=[1024, 512, 1], requires_grad=1, device=cuda:0) = onnx::Gather[axis=-2](%40, %115) # C:\Users\sberti\PycharmProjects\ISBFSAR\modules\ar\trx\utils\model.py:67:0
  %117 : Long(2, strides=[1], device=cpu) = onnx::Constant[value= 5 -1 [ CPULongType{2} ]]()
  %118 : Float(5, 1024, strides=[1024, 1], requires_grad=1, device=cuda:0) = onnx::Reshape(%116, %117) # C:\Users\sberti\PycharmProjects\ISBFSAR\modules\ar\trx\utils\model.py:67:0
  %119 : Long(2, strides=[1], requires_grad=0, device=cuda:0) = onnx::Constant[value= 1  5 [ CUDALongType{2} ]]() # C:\Users\sberti\PycharmProjects\ISBFSAR\modules\ar\trx\utils\model.py:67:0
  %120 : Float(5, 2, 512, strides=[1024, 512, 1], requires_grad=1, device=cuda:0) = onnx::Gather[axis=-2](%40, %119) # C:\Users\sberti\PycharmProjects\ISBFSAR\modules\ar\trx\utils\model.py:67:0
  %121 : Long(2, strides=[1], device=cpu) = onnx::Constant[value= 5 -1 [ CPULongType{2} ]]()
  %122 : Float(5, 1024, strides=[1024, 1], requires_grad=1, device=cuda:0) = onnx::Reshape(%120, %121) # C:\Users\sberti\PycharmProjects\ISBFSAR\modules\ar\trx\utils\model.py:67:0
  %123 : Long(2, strides=[1], requires_grad=0, device=cuda:0) = onnx::Constant[value= 1  6 [ CUDALongType{2} ]]() # C:\Users\sberti\PycharmProjects\ISBFSAR\modules\ar\trx\utils\model.py:67:0
  %124 : Float(5, 2, 512, strides=[1024, 512, 1], requires_grad=1, device=cuda:0) = onnx::Gather[axis=-2](%40, %123) # C:\Users\sberti\PycharmProjects\ISBFSAR\modules\ar\trx\utils\model.py:67:0
  %125 : Long(2, strides=[1], device=cpu) = onnx::Constant[value= 5 -1 [ CPULongType{2} ]]()
  %126 : Float(5, 1024, strides=[1024, 1], requires_grad=1, device=cuda:0) = onnx::Reshape(%124, %125) # C:\Users\sberti\PycharmProjects\ISBFSAR\modules\ar\trx\utils\model.py:67:0
  %127 : Long(2, strides=[1], requires_grad=0, device=cuda:0) = onnx::Constant[value= 1  7 [ CUDALongType{2} ]]() # C:\Users\sberti\PycharmProjects\ISBFSAR\modules\ar\trx\utils\model.py:67:0
  %128 : Float(5, 2, 512, strides=[1024, 512, 1], requires_grad=1, device=cuda:0) = onnx::Gather[axis=-2](%40, %127) # C:\Users\sberti\PycharmProjects\ISBFSAR\modules\ar\trx\utils\model.py:67:0
  %129 : Long(2, strides=[1], device=cpu) = onnx::Constant[value= 5 -1 [ CPULongType{2} ]]()
  %130 : Float(5, 1024, strides=[1024, 1], requires_grad=1, device=cuda:0) = onnx::Reshape(%128, %129) # C:\Users\sberti\PycharmProjects\ISBFSAR\modules\ar\trx\utils\model.py:67:0
  %131 : Long(2, strides=[1], requires_grad=0, device=cuda:0) = onnx::Constant[value= 1  8 [ CUDALongType{2} ]]() # C:\Users\sberti\PycharmProjects\ISBFSAR\modules\ar\trx\utils\model.py:67:0
  %132 : Float(5, 2, 512, strides=[1024, 512, 1], requires_grad=1, device=cuda:0) = onnx::Gather[axis=-2](%40, %131) # C:\Users\sberti\PycharmProjects\ISBFSAR\modules\ar\trx\utils\model.py:67:0
  %133 : Long(2, strides=[1], device=cpu) = onnx::Constant[value= 5 -1 [ CPULongType{2} ]]()
  %134 : Float(5, 1024, strides=[1024, 1], requires_grad=1, device=cuda:0) = onnx::Reshape(%132, %133) # C:\Users\sberti\PycharmProjects\ISBFSAR\modules\ar\trx\utils\model.py:67:0
  %135 : Long(2, strides=[1], requires_grad=0, device=cuda:0) = onnx::Constant[value= 1  9 [ CUDALongType{2} ]]() # C:\Users\sberti\PycharmProjects\ISBFSAR\modules\ar\trx\utils\model.py:67:0
  %136 : Float(5, 2, 512, strides=[1024, 512, 1], requires_grad=1, device=cuda:0) = onnx::Gather[axis=-2](%40, %135) # C:\Users\sberti\PycharmProjects\ISBFSAR\modules\ar\trx\utils\model.py:67:0
  %137 : Long(2, strides=[1], device=cpu) = onnx::Constant[value= 5 -1 [ CPULongType{2} ]]()
  %138 : Float(5, 1024, strides=[1024, 1], requires_grad=1, device=cuda:0) = onnx::Reshape(%136, %137) # C:\Users\sberti\PycharmProjects\ISBFSAR\modules\ar\trx\utils\model.py:67:0
  %139 : Long(2, strides=[1], requires_grad=0, device=cuda:0) = onnx::Constant[value=  1  10 [ CUDALongType{2} ]]() # C:\Users\sberti\PycharmProjects\ISBFSAR\modules\ar\trx\utils\model.py:67:0
  %140 : Float(5, 2, 512, strides=[1024, 512, 1], requires_grad=1, device=cuda:0) = onnx::Gather[axis=-2](%40, %139) # C:\Users\sberti\PycharmProjects\ISBFSAR\modules\ar\trx\utils\model.py:67:0
  %141 : Long(2, strides=[1], device=cpu) = onnx::Constant[value= 5 -1 [ CPULongType{2} ]]()
  %142 : Float(5, 1024, strides=[1024, 1], requires_grad=1, device=cuda:0) = onnx::Reshape(%140, %141) # C:\Users\sberti\PycharmProjects\ISBFSAR\modules\ar\trx\utils\model.py:67:0
  %143 : Long(2, strides=[1], requires_grad=0, device=cuda:0) = onnx::Constant[value=  1  11 [ CUDALongType{2} ]]() # C:\Users\sberti\PycharmProjects\ISBFSAR\modules\ar\trx\utils\model.py:67:0
  %144 : Float(5, 2, 512, strides=[1024, 512, 1], requires_grad=1, device=cuda:0) = onnx::Gather[axis=-2](%40, %143) # C:\Users\sberti\PycharmProjects\ISBFSAR\modules\ar\trx\utils\model.py:67:0
  %145 : Long(2, strides=[1], device=cpu) = onnx::Constant[value= 5 -1 [ CPULongType{2} ]]()
  %146 : Float(5, 1024, strides=[1024, 1], requires_grad=1, device=cuda:0) = onnx::Reshape(%144, %145) # C:\Users\sberti\PycharmProjects\ISBFSAR\modules\ar\trx\utils\model.py:67:0
  %147 : Long(2, strides=[1], requires_grad=0, device=cuda:0) = onnx::Constant[value=  1  12 [ CUDALongType{2} ]]() # C:\Users\sberti\PycharmProjects\ISBFSAR\modules\ar\trx\utils\model.py:67:0
  %148 : Float(5, 2, 512, strides=[1024, 512, 1], requires_grad=1, device=cuda:0) = onnx::Gather[axis=-2](%40, %147) # C:\Users\sberti\PycharmProjects\ISBFSAR\modules\ar\trx\utils\model.py:67:0
  %149 : Long(2, strides=[1], device=cpu) = onnx::Constant[value= 5 -1 [ CPULongType{2} ]]()
  %150 : Float(5, 1024, strides=[1024, 1], requires_grad=1, device=cuda:0) = onnx::Reshape(%148, %149) # C:\Users\sberti\PycharmProjects\ISBFSAR\modules\ar\trx\utils\model.py:67:0
  %151 : Long(2, strides=[1], requires_grad=0, device=cuda:0) = onnx::Constant[value=  1  13 [ CUDALongType{2} ]]() # C:\Users\sberti\PycharmProjects\ISBFSAR\modules\ar\trx\utils\model.py:67:0
  %152 : Float(5, 2, 512, strides=[1024, 512, 1], requires_grad=1, device=cuda:0) = onnx::Gather[axis=-2](%40, %151) # C:\Users\sberti\PycharmProjects\ISBFSAR\modules\ar\trx\utils\model.py:67:0
  %153 : Long(2, strides=[1], device=cpu) = onnx::Constant[value= 5 -1 [ CPULongType{2} ]]()
  %154 : Float(5, 1024, strides=[1024, 1], requires_grad=1, device=cuda:0) = onnx::Reshape(%152, %153) # C:\Users\sberti\PycharmProjects\ISBFSAR\modules\ar\trx\utils\model.py:67:0
  %155 : Long(2, strides=[1], requires_grad=0, device=cuda:0) = onnx::Constant[value=  1  14 [ CUDALongType{2} ]]() # C:\Users\sberti\PycharmProjects\ISBFSAR\modules\ar\trx\utils\model.py:67:0
  %156 : Float(5, 2, 512, strides=[1024, 512, 1], requires_grad=1, device=cuda:0) = onnx::Gather[axis=-2](%40, %155) # C:\Users\sberti\PycharmProjects\ISBFSAR\modules\ar\trx\utils\model.py:67:0
  %157 : Long(2, strides=[1], device=cpu) = onnx::Constant[value= 5 -1 [ CPULongType{2} ]]()
  %158 : Float(5, 1024, strides=[1024, 1], requires_grad=1, device=cuda:0) = onnx::Reshape(%156, %157) # C:\Users\sberti\PycharmProjects\ISBFSAR\modules\ar\trx\utils\model.py:67:0
  %159 : Long(2, strides=[1], requires_grad=0, device=cuda:0) = onnx::Constant[value=  1  15 [ CUDALongType{2} ]]() # C:\Users\sberti\PycharmProjects\ISBFSAR\modules\ar\trx\utils\model.py:67:0
  %160 : Float(5, 2, 512, strides=[1024, 512, 1], requires_grad=1, device=cuda:0) = onnx::Gather[axis=-2](%40, %159) # C:\Users\sberti\PycharmProjects\ISBFSAR\modules\ar\trx\utils\model.py:67:0
  %161 : Long(2, strides=[1], device=cpu) = onnx::Constant[value= 5 -1 [ CPULongType{2} ]]()
  %162 : Float(5, 1024, strides=[1024, 1], requires_grad=1, device=cuda:0) = onnx::Reshape(%160, %161) # C:\Users\sberti\PycharmProjects\ISBFSAR\modules\ar\trx\utils\model.py:67:0
  %163 : Long(2, strides=[1], requires_grad=0, device=cuda:0) = onnx::Constant[value= 2  3 [ CUDALongType{2} ]]() # C:\Users\sberti\PycharmProjects\ISBFSAR\modules\ar\trx\utils\model.py:67:0
  %164 : Float(5, 2, 512, strides=[1024, 512, 1], requires_grad=1, device=cuda:0) = onnx::Gather[axis=-2](%40, %163) # C:\Users\sberti\PycharmProjects\ISBFSAR\modules\ar\trx\utils\model.py:67:0
  %165 : Long(2, strides=[1], device=cpu) = onnx::Constant[value= 5 -1 [ CPULongType{2} ]]()
  %166 : Float(5, 1024, strides=[1024, 1], requires_grad=1, device=cuda:0) = onnx::Reshape(%164, %165) # C:\Users\sberti\PycharmProjects\ISBFSAR\modules\ar\trx\utils\model.py:67:0
  %167 : Long(2, strides=[1], requires_grad=0, device=cuda:0) = onnx::Constant[value= 2  4 [ CUDALongType{2} ]]() # C:\Users\sberti\PycharmProjects\ISBFSAR\modules\ar\trx\utils\model.py:67:0
  %168 : Float(5, 2, 512, strides=[1024, 512, 1], requires_grad=1, device=cuda:0) = onnx::Gather[axis=-2](%40, %167) # C:\Users\sberti\PycharmProjects\ISBFSAR\modules\ar\trx\utils\model.py:67:0
  %169 : Long(2, strides=[1], device=cpu) = onnx::Constant[value= 5 -1 [ CPULongType{2} ]]()
  %170 : Float(5, 1024, strides=[1024, 1], requires_grad=1, device=cuda:0) = onnx::Reshape(%168, %169) # C:\Users\sberti\PycharmProjects\ISBFSAR\modules\ar\trx\utils\model.py:67:0
  %171 : Long(2, strides=[1], requires_grad=0, device=cuda:0) = onnx::Constant[value= 2  5 [ CUDALongType{2} ]]() # C:\Users\sberti\PycharmProjects\ISBFSAR\modules\ar\trx\utils\model.py:67:0
  %172 : Float(5, 2, 512, strides=[1024, 512, 1], requires_grad=1, device=cuda:0) = onnx::Gather[axis=-2](%40, %171) # C:\Users\sberti\PycharmProjects\ISBFSAR\modules\ar\trx\utils\model.py:67:0
  %173 : Long(2, strides=[1], device=cpu) = onnx::Constant[value= 5 -1 [ CPULongType{2} ]]()
  %174 : Float(5, 1024, strides=[1024, 1], requires_grad=1, device=cuda:0) = onnx::Reshape(%172, %173) # C:\Users\sberti\PycharmProjects\ISBFSAR\modules\ar\trx\utils\model.py:67:0
  %175 : Long(2, strides=[1], requires_grad=0, device=cuda:0) = onnx::Constant[value= 2  6 [ CUDALongType{2} ]]() # C:\Users\sberti\PycharmProjects\ISBFSAR\modules\ar\trx\utils\model.py:67:0
  %176 : Float(5, 2, 512, strides=[1024, 512, 1], requires_grad=1, device=cuda:0) = onnx::Gather[axis=-2](%40, %175) # C:\Users\sberti\PycharmProjects\ISBFSAR\modules\ar\trx\utils\model.py:67:0
  %177 : Long(2, strides=[1], device=cpu) = onnx::Constant[value= 5 -1 [ CPULongType{2} ]]()
  %178 : Float(5, 1024, strides=[1024, 1], requires_grad=1, device=cuda:0) = onnx::Reshape(%176, %177) # C:\Users\sberti\PycharmProjects\ISBFSAR\modules\ar\trx\utils\model.py:67:0
  %179 : Long(2, strides=[1], requires_grad=0, device=cuda:0) = onnx::Constant[value= 2  7 [ CUDALongType{2} ]]() # C:\Users\sberti\PycharmProjects\ISBFSAR\modules\ar\trx\utils\model.py:67:0
  %180 : Float(5, 2, 512, strides=[1024, 512, 1], requires_grad=1, device=cuda:0) = onnx::Gather[axis=-2](%40, %179) # C:\Users\sberti\PycharmProjects\ISBFSAR\modules\ar\trx\utils\model.py:67:0
  %181 : Long(2, strides=[1], device=cpu) = onnx::Constant[value= 5 -1 [ CPULongType{2} ]]()
  %182 : Float(5, 1024, strides=[1024, 1], requires_grad=1, device=cuda:0) = onnx::Reshape(%180, %181) # C:\Users\sberti\PycharmProjects\ISBFSAR\modules\ar\trx\utils\model.py:67:0
  %183 : Long(2, strides=[1], requires_grad=0, device=cuda:0) = onnx::Constant[value= 2  8 [ CUDALongType{2} ]]() # C:\Users\sberti\PycharmProjects\ISBFSAR\modules\ar\trx\utils\model.py:67:0
  %184 : Float(5, 2, 512, strides=[1024, 512, 1], requires_grad=1, device=cuda:0) = onnx::Gather[axis=-2](%40, %183) # C:\Users\sberti\PycharmProjects\ISBFSAR\modules\ar\trx\utils\model.py:67:0
  %185 : Long(2, strides=[1], device=cpu) = onnx::Constant[value= 5 -1 [ CPULongType{2} ]]()
  %186 : Float(5, 1024, strides=[1024, 1], requires_grad=1, device=cuda:0) = onnx::Reshape(%184, %185) # C:\Users\sberti\PycharmProjects\ISBFSAR\modules\ar\trx\utils\model.py:67:0
  %187 : Long(2, strides=[1], requires_grad=0, device=cuda:0) = onnx::Constant[value= 2  9 [ CUDALongType{2} ]]() # C:\Users\sberti\PycharmProjects\ISBFSAR\modules\ar\trx\utils\model.py:67:0
  %188 : Float(5, 2, 512, strides=[1024, 512, 1], requires_grad=1, device=cuda:0) = onnx::Gather[axis=-2](%40, %187) # C:\Users\sberti\PycharmProjects\ISBFSAR\modules\ar\trx\utils\model.py:67:0
  %189 : Long(2, strides=[1], device=cpu) = onnx::Constant[value= 5 -1 [ CPULongType{2} ]]()
  %190 : Float(5, 1024, strides=[1024, 1], requires_grad=1, device=cuda:0) = onnx::Reshape(%188, %189) # C:\Users\sberti\PycharmProjects\ISBFSAR\modules\ar\trx\utils\model.py:67:0
  %191 : Long(2, strides=[1], requires_grad=0, device=cuda:0) = onnx::Constant[value=  2  10 [ CUDALongType{2} ]]() # C:\Users\sberti\PycharmProjects\ISBFSAR\modules\ar\trx\utils\model.py:67:0
  %192 : Float(5, 2, 512, strides=[1024, 512, 1], requires_grad=1, device=cuda:0) = onnx::Gather[axis=-2](%40, %191) # C:\Users\sberti\PycharmProjects\ISBFSAR\modules\ar\trx\utils\model.py:67:0
  %193 : Long(2, strides=[1], device=cpu) = onnx::Constant[value= 5 -1 [ CPULongType{2} ]]()
  %194 : Float(5, 1024, strides=[1024, 1], requires_grad=1, device=cuda:0) = onnx::Reshape(%192, %193) # C:\Users\sberti\PycharmProjects\ISBFSAR\modules\ar\trx\utils\model.py:67:0
  %195 : Long(2, strides=[1], requires_grad=0, device=cuda:0) = onnx::Constant[value=  2  11 [ CUDALongType{2} ]]() # C:\Users\sberti\PycharmProjects\ISBFSAR\modules\ar\trx\utils\model.py:67:0
  %196 : Float(5, 2, 512, strides=[1024, 512, 1], requires_grad=1, device=cuda:0) = onnx::Gather[axis=-2](%40, %195) # C:\Users\sberti\PycharmProjects\ISBFSAR\modules\ar\trx\utils\model.py:67:0
  %197 : Long(2, strides=[1], device=cpu) = onnx::Constant[value= 5 -1 [ CPULongType{2} ]]()
  %198 : Float(5, 1024, strides=[1024, 1], requires_grad=1, device=cuda:0) = onnx::Reshape(%196, %197) # C:\Users\sberti\PycharmProjects\ISBFSAR\modules\ar\trx\utils\model.py:67:0
  %199 : Long(2, strides=[1], requires_grad=0, device=cuda:0) = onnx::Constant[value=  2  12 [ CUDALongType{2} ]]() # C:\Users\sberti\PycharmProjects\ISBFSAR\modules\ar\trx\utils\model.py:67:0
  %200 : Float(5, 2, 512, strides=[1024, 512, 1], requires_grad=1, device=cuda:0) = onnx::Gather[axis=-2](%40, %199) # C:\Users\sberti\PycharmProjects\ISBFSAR\modules\ar\trx\utils\model.py:67:0
  %201 : Long(2, strides=[1], device=cpu) = onnx::Constant[value= 5 -1 [ CPULongType{2} ]]()
  %202 : Float(5, 1024, strides=[1024, 1], requires_grad=1, device=cuda:0) = onnx::Reshape(%200, %201) # C:\Users\sberti\PycharmProjects\ISBFSAR\modules\ar\trx\utils\model.py:67:0
  %203 : Long(2, strides=[1], requires_grad=0, device=cuda:0) = onnx::Constant[value=  2  13 [ CUDALongType{2} ]]() # C:\Users\sberti\PycharmProjects\ISBFSAR\modules\ar\trx\utils\model.py:67:0
  %204 : Float(5, 2, 512, strides=[1024, 512, 1], requires_grad=1, device=cuda:0) = onnx::Gather[axis=-2](%40, %203) # C:\Users\sberti\PycharmProjects\ISBFSAR\modules\ar\trx\utils\model.py:67:0
  %205 : Long(2, strides=[1], device=cpu) = onnx::Constant[value= 5 -1 [ CPULongType{2} ]]()
  %206 : Float(5, 1024, strides=[1024, 1], requires_grad=1, device=cuda:0) = onnx::Reshape(%204, %205) # C:\Users\sberti\PycharmProjects\ISBFSAR\modules\ar\trx\utils\model.py:67:0
  %207 : Long(2, strides=[1], requires_grad=0, device=cuda:0) = onnx::Constant[value=  2  14 [ CUDALongType{2} ]]() # C:\Users\sberti\PycharmProjects\ISBFSAR\modules\ar\trx\utils\model.py:67:0
  %208 : Float(5, 2, 512, strides=[1024, 512, 1], requires_grad=1, device=cuda:0) = onnx::Gather[axis=-2](%40, %207) # C:\Users\sberti\PycharmProjects\ISBFSAR\modules\ar\trx\utils\model.py:67:0
  %209 : Long(2, strides=[1], device=cpu) = onnx::Constant[value= 5 -1 [ CPULongType{2} ]]()
  %210 : Float(5, 1024, strides=[1024, 1], requires_grad=1, device=cuda:0) = onnx::Reshape(%208, %209) # C:\Users\sberti\PycharmProjects\ISBFSAR\modules\ar\trx\utils\model.py:67:0
  %211 : Long(2, strides=[1], requires_grad=0, device=cuda:0) = onnx::Constant[value=  2  15 [ CUDALongType{2} ]]() # C:\Users\sberti\PycharmProjects\ISBFSAR\modules\ar\trx\utils\model.py:67:0
  %212 : Float(5, 2, 512, strides=[1024, 512, 1], requires_grad=1, device=cuda:0) = onnx::Gather[axis=-2](%40, %211) # C:\Users\sberti\PycharmProjects\ISBFSAR\modules\ar\trx\utils\model.py:67:0
  %213 : Long(2, strides=[1], device=cpu) = onnx::Constant[value= 5 -1 [ CPULongType{2} ]]()
  %214 : Float(5, 1024, strides=[1024, 1], requires_grad=1, device=cuda:0) = onnx::Reshape(%212, %213) # C:\Users\sberti\PycharmProjects\ISBFSAR\modules\ar\trx\utils\model.py:67:0
  %215 : Long(2, strides=[1], requires_grad=0, device=cuda:0) = onnx::Constant[value= 3  4 [ CUDALongType{2} ]]() # C:\Users\sberti\PycharmProjects\ISBFSAR\modules\ar\trx\utils\model.py:67:0
  %216 : Float(5, 2, 512, strides=[1024, 512, 1], requires_grad=1, device=cuda:0) = onnx::Gather[axis=-2](%40, %215) # C:\Users\sberti\PycharmProjects\ISBFSAR\modules\ar\trx\utils\model.py:67:0
  %217 : Long(2, strides=[1], device=cpu) = onnx::Constant[value= 5 -1 [ CPULongType{2} ]]()
  %218 : Float(5, 1024, strides=[1024, 1], requires_grad=1, device=cuda:0) = onnx::Reshape(%216, %217) # C:\Users\sberti\PycharmProjects\ISBFSAR\modules\ar\trx\utils\model.py:67:0
  %219 : Long(2, strides=[1], requires_grad=0, device=cuda:0) = onnx::Constant[value= 3  5 [ CUDALongType{2} ]]() # C:\Users\sberti\PycharmProjects\ISBFSAR\modules\ar\trx\utils\model.py:67:0
  %220 : Float(5, 2, 512, strides=[1024, 512, 1], requires_grad=1, device=cuda:0) = onnx::Gather[axis=-2](%40, %219) # C:\Users\sberti\PycharmProjects\ISBFSAR\modules\ar\trx\utils\model.py:67:0
  %221 : Long(2, strides=[1], device=cpu) = onnx::Constant[value= 5 -1 [ CPULongType{2} ]]()
  %222 : Float(5, 1024, strides=[1024, 1], requires_grad=1, device=cuda:0) = onnx::Reshape(%220, %221) # C:\Users\sberti\PycharmProjects\ISBFSAR\modules\ar\trx\utils\model.py:67:0
  %223 : Long(2, strides=[1], requires_grad=0, device=cuda:0) = onnx::Constant[value= 3  6 [ CUDALongType{2} ]]() # C:\Users\sberti\PycharmProjects\ISBFSAR\modules\ar\trx\utils\model.py:67:0
  %224 : Float(5, 2, 512, strides=[1024, 512, 1], requires_grad=1, device=cuda:0) = onnx::Gather[axis=-2](%40, %223) # C:\Users\sberti\PycharmProjects\ISBFSAR\modules\ar\trx\utils\model.py:67:0
  %225 : Long(2, strides=[1], device=cpu) = onnx::Constant[value= 5 -1 [ CPULongType{2} ]]()
  %226 : Float(5, 1024, strides=[1024, 1], requires_grad=1, device=cuda:0) = onnx::Reshape(%224, %225) # C:\Users\sberti\PycharmProjects\ISBFSAR\modules\ar\trx\utils\model.py:67:0
  %227 : Long(2, strides=[1], requires_grad=0, device=cuda:0) = onnx::Constant[value= 3  7 [ CUDALongType{2} ]]() # C:\Users\sberti\PycharmProjects\ISBFSAR\modules\ar\trx\utils\model.py:67:0
  %228 : Float(5, 2, 512, strides=[1024, 512, 1], requires_grad=1, device=cuda:0) = onnx::Gather[axis=-2](%40, %227) # C:\Users\sberti\PycharmProjects\ISBFSAR\modules\ar\trx\utils\model.py:67:0
  %229 : Long(2, strides=[1], device=cpu) = onnx::Constant[value= 5 -1 [ CPULongType{2} ]]()
  %230 : Float(5, 1024, strides=[1024, 1], requires_grad=1, device=cuda:0) = onnx::Reshape(%228, %229) # C:\Users\sberti\PycharmProjects\ISBFSAR\modules\ar\trx\utils\model.py:67:0
  %231 : Long(2, strides=[1], requires_grad=0, device=cuda:0) = onnx::Constant[value= 3  8 [ CUDALongType{2} ]]() # C:\Users\sberti\PycharmProjects\ISBFSAR\modules\ar\trx\utils\model.py:67:0
  %232 : Float(5, 2, 512, strides=[1024, 512, 1], requires_grad=1, device=cuda:0) = onnx::Gather[axis=-2](%40, %231) # C:\Users\sberti\PycharmProjects\ISBFSAR\modules\ar\trx\utils\model.py:67:0
  %233 : Long(2, strides=[1], device=cpu) = onnx::Constant[value= 5 -1 [ CPULongType{2} ]]()
  %234 : Float(5, 1024, strides=[1024, 1], requires_grad=1, device=cuda:0) = onnx::Reshape(%232, %233) # C:\Users\sberti\PycharmProjects\ISBFSAR\modules\ar\trx\utils\model.py:67:0
  %235 : Long(2, strides=[1], requires_grad=0, device=cuda:0) = onnx::Constant[value= 3  9 [ CUDALongType{2} ]]() # C:\Users\sberti\PycharmProjects\ISBFSAR\modules\ar\trx\utils\model.py:67:0
  %236 : Float(5, 2, 512, strides=[1024, 512, 1], requires_grad=1, device=cuda:0) = onnx::Gather[axis=-2](%40, %235) # C:\Users\sberti\PycharmProjects\ISBFSAR\modules\ar\trx\utils\model.py:67:0
  %237 : Long(2, strides=[1], device=cpu) = onnx::Constant[value= 5 -1 [ CPULongType{2} ]]()
  %238 : Float(5, 1024, strides=[1024, 1], requires_grad=1, device=cuda:0) = onnx::Reshape(%236, %237) # C:\Users\sberti\PycharmProjects\ISBFSAR\modules\ar\trx\utils\model.py:67:0
  %239 : Long(2, strides=[1], requires_grad=0, device=cuda:0) = onnx::Constant[value=  3  10 [ CUDALongType{2} ]]() # C:\Users\sberti\PycharmProjects\ISBFSAR\modules\ar\trx\utils\model.py:67:0
  %240 : Float(5, 2, 512, strides=[1024, 512, 1], requires_grad=1, device=cuda:0) = onnx::Gather[axis=-2](%40, %239) # C:\Users\sberti\PycharmProjects\ISBFSAR\modules\ar\trx\utils\model.py:67:0
  %241 : Long(2, strides=[1], device=cpu) = onnx::Constant[value= 5 -1 [ CPULongType{2} ]]()
  %242 : Float(5, 1024, strides=[1024, 1], requires_grad=1, device=cuda:0) = onnx::Reshape(%240, %241) # C:\Users\sberti\PycharmProjects\ISBFSAR\modules\ar\trx\utils\model.py:67:0
  %243 : Long(2, strides=[1], requires_grad=0, device=cuda:0) = onnx::Constant[value=  3  11 [ CUDALongType{2} ]]() # C:\Users\sberti\PycharmProjects\ISBFSAR\modules\ar\trx\utils\model.py:67:0
  %244 : Float(5, 2, 512, strides=[1024, 512, 1], requires_grad=1, device=cuda:0) = onnx::Gather[axis=-2](%40, %243) # C:\Users\sberti\PycharmProjects\ISBFSAR\modules\ar\trx\utils\model.py:67:0
  %245 : Long(2, strides=[1], device=cpu) = onnx::Constant[value= 5 -1 [ CPULongType{2} ]]()
  %246 : Float(5, 1024, strides=[1024, 1], requires_grad=1, device=cuda:0) = onnx::Reshape(%244, %245) # C:\Users\sberti\PycharmProjects\ISBFSAR\modules\ar\trx\utils\model.py:67:0
  %247 : Long(2, strides=[1], requires_grad=0, device=cuda:0) = onnx::Constant[value=  3  12 [ CUDALongType{2} ]]() # C:\Users\sberti\PycharmProjects\ISBFSAR\modules\ar\trx\utils\model.py:67:0
  %248 : Float(5, 2, 512, strides=[1024, 512, 1], requires_grad=1, device=cuda:0) = onnx::Gather[axis=-2](%40, %247) # C:\Users\sberti\PycharmProjects\ISBFSAR\modules\ar\trx\utils\model.py:67:0
  %249 : Long(2, strides=[1], device=cpu) = onnx::Constant[value= 5 -1 [ CPULongType{2} ]]()
  %250 : Float(5, 1024, strides=[1024, 1], requires_grad=1, device=cuda:0) = onnx::Reshape(%248, %249) # C:\Users\sberti\PycharmProjects\ISBFSAR\modules\ar\trx\utils\model.py:67:0
  %251 : Long(2, strides=[1], requires_grad=0, device=cuda:0) = onnx::Constant[value=  3  13 [ CUDALongType{2} ]]() # C:\Users\sberti\PycharmProjects\ISBFSAR\modules\ar\trx\utils\model.py:67:0
  %252 : Float(5, 2, 512, strides=[1024, 512, 1], requires_grad=1, device=cuda:0) = onnx::Gather[axis=-2](%40, %251) # C:\Users\sberti\PycharmProjects\ISBFSAR\modules\ar\trx\utils\model.py:67:0
  %253 : Long(2, strides=[1], device=cpu) = onnx::Constant[value= 5 -1 [ CPULongType{2} ]]()
  %254 : Float(5, 1024, strides=[1024, 1], requires_grad=1, device=cuda:0) = onnx::Reshape(%252, %253) # C:\Users\sberti\PycharmProjects\ISBFSAR\modules\ar\trx\utils\model.py:67:0
  %255 : Long(2, strides=[1], requires_grad=0, device=cuda:0) = onnx::Constant[value=  3  14 [ CUDALongType{2} ]]() # C:\Users\sberti\PycharmProjects\ISBFSAR\modules\ar\trx\utils\model.py:67:0
  %256 : Float(5, 2, 512, strides=[1024, 512, 1], requires_grad=1, device=cuda:0) = onnx::Gather[axis=-2](%40, %255) # C:\Users\sberti\PycharmProjects\ISBFSAR\modules\ar\trx\utils\model.py:67:0
  %257 : Long(2, strides=[1], device=cpu) = onnx::Constant[value= 5 -1 [ CPULongType{2} ]]()
  %258 : Float(5, 1024, strides=[1024, 1], requires_grad=1, device=cuda:0) = onnx::Reshape(%256, %257) # C:\Users\sberti\PycharmProjects\ISBFSAR\modules\ar\trx\utils\model.py:67:0
  %259 : Long(2, strides=[1], requires_grad=0, device=cuda:0) = onnx::Constant[value=  3  15 [ CUDALongType{2} ]]() # C:\Users\sberti\PycharmProjects\ISBFSAR\modules\ar\trx\utils\model.py:67:0
  %260 : Float(5, 2, 512, strides=[1024, 512, 1], requires_grad=1, device=cuda:0) = onnx::Gather[axis=-2](%40, %259) # C:\Users\sberti\PycharmProjects\ISBFSAR\modules\ar\trx\utils\model.py:67:0
  %261 : Long(2, strides=[1], device=cpu) = onnx::Constant[value= 5 -1 [ CPULongType{2} ]]()
  %262 : Float(5, 1024, strides=[1024, 1], requires_grad=1, device=cuda:0) = onnx::Reshape(%260, %261) # C:\Users\sberti\PycharmProjects\ISBFSAR\modules\ar\trx\utils\model.py:67:0
  %263 : Long(2, strides=[1], requires_grad=0, device=cuda:0) = onnx::Constant[value= 4  5 [ CUDALongType{2} ]]() # C:\Users\sberti\PycharmProjects\ISBFSAR\modules\ar\trx\utils\model.py:67:0
  %264 : Float(5, 2, 512, strides=[1024, 512, 1], requires_grad=1, device=cuda:0) = onnx::Gather[axis=-2](%40, %263) # C:\Users\sberti\PycharmProjects\ISBFSAR\modules\ar\trx\utils\model.py:67:0
  %265 : Long(2, strides=[1], device=cpu) = onnx::Constant[value= 5 -1 [ CPULongType{2} ]]()
  %266 : Float(5, 1024, strides=[1024, 1], requires_grad=1, device=cuda:0) = onnx::Reshape(%264, %265) # C:\Users\sberti\PycharmProjects\ISBFSAR\modules\ar\trx\utils\model.py:67:0
  %267 : Long(2, strides=[1], requires_grad=0, device=cuda:0) = onnx::Constant[value= 4  6 [ CUDALongType{2} ]]() # C:\Users\sberti\PycharmProjects\ISBFSAR\modules\ar\trx\utils\model.py:67:0
  %268 : Float(5, 2, 512, strides=[1024, 512, 1], requires_grad=1, device=cuda:0) = onnx::Gather[axis=-2](%40, %267) # C:\Users\sberti\PycharmProjects\ISBFSAR\modules\ar\trx\utils\model.py:67:0
  %269 : Long(2, strides=[1], device=cpu) = onnx::Constant[value= 5 -1 [ CPULongType{2} ]]()
  %270 : Float(5, 1024, strides=[1024, 1], requires_grad=1, device=cuda:0) = onnx::Reshape(%268, %269) # C:\Users\sberti\PycharmProjects\ISBFSAR\modules\ar\trx\utils\model.py:67:0
  %271 : Long(2, strides=[1], requires_grad=0, device=cuda:0) = onnx::Constant[value= 4  7 [ CUDALongType{2} ]]() # C:\Users\sberti\PycharmProjects\ISBFSAR\modules\ar\trx\utils\model.py:67:0
  %272 : Float(5, 2, 512, strides=[1024, 512, 1], requires_grad=1, device=cuda:0) = onnx::Gather[axis=-2](%40, %271) # C:\Users\sberti\PycharmProjects\ISBFSAR\modules\ar\trx\utils\model.py:67:0
  %273 : Long(2, strides=[1], device=cpu) = onnx::Constant[value= 5 -1 [ CPULongType{2} ]]()
  %274 : Float(5, 1024, strides=[1024, 1], requires_grad=1, device=cuda:0) = onnx::Reshape(%272, %273) # C:\Users\sberti\PycharmProjects\ISBFSAR\modules\ar\trx\utils\model.py:67:0
  %275 : Long(2, strides=[1], requires_grad=0, device=cuda:0) = onnx::Constant[value= 4  8 [ CUDALongType{2} ]]() # C:\Users\sberti\PycharmProjects\ISBFSAR\modules\ar\trx\utils\model.py:67:0
  %276 : Float(5, 2, 512, strides=[1024, 512, 1], requires_grad=1, device=cuda:0) = onnx::Gather[axis=-2](%40, %275) # C:\Users\sberti\PycharmProjects\ISBFSAR\modules\ar\trx\utils\model.py:67:0
  %277 : Long(2, strides=[1], device=cpu) = onnx::Constant[value= 5 -1 [ CPULongType{2} ]]()
  %278 : Float(5, 1024, strides=[1024, 1], requires_grad=1, device=cuda:0) = onnx::Reshape(%276, %277) # C:\Users\sberti\PycharmProjects\ISBFSAR\modules\ar\trx\utils\model.py:67:0
  %279 : Long(2, strides=[1], requires_grad=0, device=cuda:0) = onnx::Constant[value= 4  9 [ CUDALongType{2} ]]() # C:\Users\sberti\PycharmProjects\ISBFSAR\modules\ar\trx\utils\model.py:67:0
  %280 : Float(5, 2, 512, strides=[1024, 512, 1], requires_grad=1, device=cuda:0) = onnx::Gather[axis=-2](%40, %279) # C:\Users\sberti\PycharmProjects\ISBFSAR\modules\ar\trx\utils\model.py:67:0
  %281 : Long(2, strides=[1], device=cpu) = onnx::Constant[value= 5 -1 [ CPULongType{2} ]]()
  %282 : Float(5, 1024, strides=[1024, 1], requires_grad=1, device=cuda:0) = onnx::Reshape(%280, %281) # C:\Users\sberti\PycharmProjects\ISBFSAR\modules\ar\trx\utils\model.py:67:0
  %283 : Long(2, strides=[1], requires_grad=0, device=cuda:0) = onnx::Constant[value=  4  10 [ CUDALongType{2} ]]() # C:\Users\sberti\PycharmProjects\ISBFSAR\modules\ar\trx\utils\model.py:67:0
  %284 : Float(5, 2, 512, strides=[1024, 512, 1], requires_grad=1, device=cuda:0) = onnx::Gather[axis=-2](%40, %283) # C:\Users\sberti\PycharmProjects\ISBFSAR\modules\ar\trx\utils\model.py:67:0
  %285 : Long(2, strides=[1], device=cpu) = onnx::Constant[value= 5 -1 [ CPULongType{2} ]]()
  %286 : Float(5, 1024, strides=[1024, 1], requires_grad=1, device=cuda:0) = onnx::Reshape(%284, %285) # C:\Users\sberti\PycharmProjects\ISBFSAR\modules\ar\trx\utils\model.py:67:0
  %287 : Long(2, strides=[1], requires_grad=0, device=cuda:0) = onnx::Constant[value=  4  11 [ CUDALongType{2} ]]() # C:\Users\sberti\PycharmProjects\ISBFSAR\modules\ar\trx\utils\model.py:67:0
  %288 : Float(5, 2, 512, strides=[1024, 512, 1], requires_grad=1, device=cuda:0) = onnx::Gather[axis=-2](%40, %287) # C:\Users\sberti\PycharmProjects\ISBFSAR\modules\ar\trx\utils\model.py:67:0
  %289 : Long(2, strides=[1], device=cpu) = onnx::Constant[value= 5 -1 [ CPULongType{2} ]]()
  %290 : Float(5, 1024, strides=[1024, 1], requires_grad=1, device=cuda:0) = onnx::Reshape(%288, %289) # C:\Users\sberti\PycharmProjects\ISBFSAR\modules\ar\trx\utils\model.py:67:0
  %291 : Long(2, strides=[1], requires_grad=0, device=cuda:0) = onnx::Constant[value=  4  12 [ CUDALongType{2} ]]() # C:\Users\sberti\PycharmProjects\ISBFSAR\modules\ar\trx\utils\model.py:67:0
  %292 : Float(5, 2, 512, strides=[1024, 512, 1], requires_grad=1, device=cuda:0) = onnx::Gather[axis=-2](%40, %291) # C:\Users\sberti\PycharmProjects\ISBFSAR\modules\ar\trx\utils\model.py:67:0
  %293 : Long(2, strides=[1], device=cpu) = onnx::Constant[value= 5 -1 [ CPULongType{2} ]]()
  %294 : Float(5, 1024, strides=[1024, 1], requires_grad=1, device=cuda:0) = onnx::Reshape(%292, %293) # C:\Users\sberti\PycharmProjects\ISBFSAR\modules\ar\trx\utils\model.py:67:0
  %295 : Long(2, strides=[1], requires_grad=0, device=cuda:0) = onnx::Constant[value=  4  13 [ CUDALongType{2} ]]() # C:\Users\sberti\PycharmProjects\ISBFSAR\modules\ar\trx\utils\model.py:67:0
  %296 : Float(5, 2, 512, strides=[1024, 512, 1], requires_grad=1, device=cuda:0) = onnx::Gather[axis=-2](%40, %295) # C:\Users\sberti\PycharmProjects\ISBFSAR\modules\ar\trx\utils\model.py:67:0
  %297 : Long(2, strides=[1], device=cpu) = onnx::Constant[value= 5 -1 [ CPULongType{2} ]]()
  %298 : Float(5, 1024, strides=[1024, 1], requires_grad=1, device=cuda:0) = onnx::Reshape(%296, %297) # C:\Users\sberti\PycharmProjects\ISBFSAR\modules\ar\trx\utils\model.py:67:0
  %299 : Long(2, strides=[1], requires_grad=0, device=cuda:0) = onnx::Constant[value=  4  14 [ CUDALongType{2} ]]() # C:\Users\sberti\PycharmProjects\ISBFSAR\modules\ar\trx\utils\model.py:67:0
  %300 : Float(5, 2, 512, strides=[1024, 512, 1], requires_grad=1, device=cuda:0) = onnx::Gather[axis=-2](%40, %299) # C:\Users\sberti\PycharmProjects\ISBFSAR\modules\ar\trx\utils\model.py:67:0
  %301 : Long(2, strides=[1], device=cpu) = onnx::Constant[value= 5 -1 [ CPULongType{2} ]]()
  %302 : Float(5, 1024, strides=[1024, 1], requires_grad=1, device=cuda:0) = onnx::Reshape(%300, %301) # C:\Users\sberti\PycharmProjects\ISBFSAR\modules\ar\trx\utils\model.py:67:0
  %303 : Long(2, strides=[1], requires_grad=0, device=cuda:0) = onnx::Constant[value=  4  15 [ CUDALongType{2} ]]() # C:\Users\sberti\PycharmProjects\ISBFSAR\modules\ar\trx\utils\model.py:67:0
  %304 : Float(5, 2, 512, strides=[1024, 512, 1], requires_grad=1, device=cuda:0) = onnx::Gather[axis=-2](%40, %303) # C:\Users\sberti\PycharmProjects\ISBFSAR\modules\ar\trx\utils\model.py:67:0
  %305 : Long(2, strides=[1], device=cpu) = onnx::Constant[value= 5 -1 [ CPULongType{2} ]]()
  %306 : Float(5, 1024, strides=[1024, 1], requires_grad=1, device=cuda:0) = onnx::Reshape(%304, %305) # C:\Users\sberti\PycharmProjects\ISBFSAR\modules\ar\trx\utils\model.py:67:0
  %307 : Long(2, strides=[1], requires_grad=0, device=cuda:0) = onnx::Constant[value= 5  6 [ CUDALongType{2} ]]() # C:\Users\sberti\PycharmProjects\ISBFSAR\modules\ar\trx\utils\model.py:67:0
  %308 : Float(5, 2, 512, strides=[1024, 512, 1], requires_grad=1, device=cuda:0) = onnx::Gather[axis=-2](%40, %307) # C:\Users\sberti\PycharmProjects\ISBFSAR\modules\ar\trx\utils\model.py:67:0
  %309 : Long(2, strides=[1], device=cpu) = onnx::Constant[value= 5 -1 [ CPULongType{2} ]]()
  %310 : Float(5, 1024, strides=[1024, 1], requires_grad=1, device=cuda:0) = onnx::Reshape(%308, %309) # C:\Users\sberti\PycharmProjects\ISBFSAR\modules\ar\trx\utils\model.py:67:0
  %311 : Long(2, strides=[1], requires_grad=0, device=cuda:0) = onnx::Constant[value= 5  7 [ CUDALongType{2} ]]() # C:\Users\sberti\PycharmProjects\ISBFSAR\modules\ar\trx\utils\model.py:67:0
  %312 : Float(5, 2, 512, strides=[1024, 512, 1], requires_grad=1, device=cuda:0) = onnx::Gather[axis=-2](%40, %311) # C:\Users\sberti\PycharmProjects\ISBFSAR\modules\ar\trx\utils\model.py:67:0
  %313 : Long(2, strides=[1], device=cpu) = onnx::Constant[value= 5 -1 [ CPULongType{2} ]]()
  %314 : Float(5, 1024, strides=[1024, 1], requires_grad=1, device=cuda:0) = onnx::Reshape(%312, %313) # C:\Users\sberti\PycharmProjects\ISBFSAR\modules\ar\trx\utils\model.py:67:0
  %315 : Long(2, strides=[1], requires_grad=0, device=cuda:0) = onnx::Constant[value= 5  8 [ CUDALongType{2} ]]() # C:\Users\sberti\PycharmProjects\ISBFSAR\modules\ar\trx\utils\model.py:67:0
  %316 : Float(5, 2, 512, strides=[1024, 512, 1], requires_grad=1, device=cuda:0) = onnx::Gather[axis=-2](%40, %315) # C:\Users\sberti\PycharmProjects\ISBFSAR\modules\ar\trx\utils\model.py:67:0
  %317 : Long(2, strides=[1], device=cpu) = onnx::Constant[value= 5 -1 [ CPULongType{2} ]]()
  %318 : Float(5, 1024, strides=[1024, 1], requires_grad=1, device=cuda:0) = onnx::Reshape(%316, %317) # C:\Users\sberti\PycharmProjects\ISBFSAR\modules\ar\trx\utils\model.py:67:0
  %319 : Long(2, strides=[1], requires_grad=0, device=cuda:0) = onnx::Constant[value= 5  9 [ CUDALongType{2} ]]() # C:\Users\sberti\PycharmProjects\ISBFSAR\modules\ar\trx\utils\model.py:67:0
  %320 : Float(5, 2, 512, strides=[1024, 512, 1], requires_grad=1, device=cuda:0) = onnx::Gather[axis=-2](%40, %319) # C:\Users\sberti\PycharmProjects\ISBFSAR\modules\ar\trx\utils\model.py:67:0
  %321 : Long(2, strides=[1], device=cpu) = onnx::Constant[value= 5 -1 [ CPULongType{2} ]]()
  %322 : Float(5, 1024, strides=[1024, 1], requires_grad=1, device=cuda:0) = onnx::Reshape(%320, %321) # C:\Users\sberti\PycharmProjects\ISBFSAR\modules\ar\trx\utils\model.py:67:0
  %323 : Long(2, strides=[1], requires_grad=0, device=cuda:0) = onnx::Constant[value=  5  10 [ CUDALongType{2} ]]() # C:\Users\sberti\PycharmProjects\ISBFSAR\modules\ar\trx\utils\model.py:67:0
  %324 : Float(5, 2, 512, strides=[1024, 512, 1], requires_grad=1, device=cuda:0) = onnx::Gather[axis=-2](%40, %323) # C:\Users\sberti\PycharmProjects\ISBFSAR\modules\ar\trx\utils\model.py:67:0
  %325 : Long(2, strides=[1], device=cpu) = onnx::Constant[value= 5 -1 [ CPULongType{2} ]]()
  %326 : Float(5, 1024, strides=[1024, 1], requires_grad=1, device=cuda:0) = onnx::Reshape(%324, %325) # C:\Users\sberti\PycharmProjects\ISBFSAR\modules\ar\trx\utils\model.py:67:0
  %327 : Long(2, strides=[1], requires_grad=0, device=cuda:0) = onnx::Constant[value=  5  11 [ CUDALongType{2} ]]() # C:\Users\sberti\PycharmProjects\ISBFSAR\modules\ar\trx\utils\model.py:67:0
  %328 : Float(5, 2, 512, strides=[1024, 512, 1], requires_grad=1, device=cuda:0) = onnx::Gather[axis=-2](%40, %327) # C:\Users\sberti\PycharmProjects\ISBFSAR\modules\ar\trx\utils\model.py:67:0
  %329 : Long(2, strides=[1], device=cpu) = onnx::Constant[value= 5 -1 [ CPULongType{2} ]]()
  %330 : Float(5, 1024, strides=[1024, 1], requires_grad=1, device=cuda:0) = onnx::Reshape(%328, %329) # C:\Users\sberti\PycharmProjects\ISBFSAR\modules\ar\trx\utils\model.py:67:0
  %331 : Long(2, strides=[1], requires_grad=0, device=cuda:0) = onnx::Constant[value=  5  12 [ CUDALongType{2} ]]() # C:\Users\sberti\PycharmProjects\ISBFSAR\modules\ar\trx\utils\model.py:67:0
  %332 : Float(5, 2, 512, strides=[1024, 512, 1], requires_grad=1, device=cuda:0) = onnx::Gather[axis=-2](%40, %331) # C:\Users\sberti\PycharmProjects\ISBFSAR\modules\ar\trx\utils\model.py:67:0
  %333 : Long(2, strides=[1], device=cpu) = onnx::Constant[value= 5 -1 [ CPULongType{2} ]]()
  %334 : Float(5, 1024, strides=[1024, 1], requires_grad=1, device=cuda:0) = onnx::Reshape(%332, %333) # C:\Users\sberti\PycharmProjects\ISBFSAR\modules\ar\trx\utils\model.py:67:0
  %335 : Long(2, strides=[1], requires_grad=0, device=cuda:0) = onnx::Constant[value=  5  13 [ CUDALongType{2} ]]() # C:\Users\sberti\PycharmProjects\ISBFSAR\modules\ar\trx\utils\model.py:67:0
  %336 : Float(5, 2, 512, strides=[1024, 512, 1], requires_grad=1, device=cuda:0) = onnx::Gather[axis=-2](%40, %335) # C:\Users\sberti\PycharmProjects\ISBFSAR\modules\ar\trx\utils\model.py:67:0
  %337 : Long(2, strides=[1], device=cpu) = onnx::Constant[value= 5 -1 [ CPULongType{2} ]]()
  %338 : Float(5, 1024, strides=[1024, 1], requires_grad=1, device=cuda:0) = onnx::Reshape(%336, %337) # C:\Users\sberti\PycharmProjects\ISBFSAR\modules\ar\trx\utils\model.py:67:0
  %339 : Long(2, strides=[1], requires_grad=0, device=cuda:0) = onnx::Constant[value=  5  14 [ CUDALongType{2} ]]() # C:\Users\sberti\PycharmProjects\ISBFSAR\modules\ar\trx\utils\model.py:67:0
  %340 : Float(5, 2, 512, strides=[1024, 512, 1], requires_grad=1, device=cuda:0) = onnx::Gather[axis=-2](%40, %339) # C:\Users\sberti\PycharmProjects\ISBFSAR\modules\ar\trx\utils\model.py:67:0
  %341 : Long(2, strides=[1], device=cpu) = onnx::Constant[value= 5 -1 [ CPULongType{2} ]]()
  %342 : Float(5, 1024, strides=[1024, 1], requires_grad=1, device=cuda:0) = onnx::Reshape(%340, %341) # C:\Users\sberti\PycharmProjects\ISBFSAR\modules\ar\trx\utils\model.py:67:0
  %343 : Long(2, strides=[1], requires_grad=0, device=cuda:0) = onnx::Constant[value=  5  15 [ CUDALongType{2} ]]() # C:\Users\sberti\PycharmProjects\ISBFSAR\modules\ar\trx\utils\model.py:67:0
  %344 : Float(5, 2, 512, strides=[1024, 512, 1], requires_grad=1, device=cuda:0) = onnx::Gather[axis=-2](%40, %343) # C:\Users\sberti\PycharmProjects\ISBFSAR\modules\ar\trx\utils\model.py:67:0
  %345 : Long(2, strides=[1], device=cpu) = onnx::Constant[value= 5 -1 [ CPULongType{2} ]]()
  %346 : Float(5, 1024, strides=[1024, 1], requires_grad=1, device=cuda:0) = onnx::Reshape(%344, %345) # C:\Users\sberti\PycharmProjects\ISBFSAR\modules\ar\trx\utils\model.py:67:0
  %347 : Long(2, strides=[1], requires_grad=0, device=cuda:0) = onnx::Constant[value= 6  7 [ CUDALongType{2} ]]() # C:\Users\sberti\PycharmProjects\ISBFSAR\modules\ar\trx\utils\model.py:67:0
  %348 : Float(5, 2, 512, strides=[1024, 512, 1], requires_grad=1, device=cuda:0) = onnx::Gather[axis=-2](%40, %347) # C:\Users\sberti\PycharmProjects\ISBFSAR\modules\ar\trx\utils\model.py:67:0
  %349 : Long(2, strides=[1], device=cpu) = onnx::Constant[value= 5 -1 [ CPULongType{2} ]]()
  %350 : Float(5, 1024, strides=[1024, 1], requires_grad=1, device=cuda:0) = onnx::Reshape(%348, %349) # C:\Users\sberti\PycharmProjects\ISBFSAR\modules\ar\trx\utils\model.py:67:0
  %351 : Long(2, strides=[1], requires_grad=0, device=cuda:0) = onnx::Constant[value= 6  8 [ CUDALongType{2} ]]() # C:\Users\sberti\PycharmProjects\ISBFSAR\modules\ar\trx\utils\model.py:67:0
  %352 : Float(5, 2, 512, strides=[1024, 512, 1], requires_grad=1, device=cuda:0) = onnx::Gather[axis=-2](%40, %351) # C:\Users\sberti\PycharmProjects\ISBFSAR\modules\ar\trx\utils\model.py:67:0
  %353 : Long(2, strides=[1], device=cpu) = onnx::Constant[value= 5 -1 [ CPULongType{2} ]]()
  %354 : Float(5, 1024, strides=[1024, 1], requires_grad=1, device=cuda:0) = onnx::Reshape(%352, %353) # C:\Users\sberti\PycharmProjects\ISBFSAR\modules\ar\trx\utils\model.py:67:0
  %355 : Long(2, strides=[1], requires_grad=0, device=cuda:0) = onnx::Constant[value= 6  9 [ CUDALongType{2} ]]() # C:\Users\sberti\PycharmProjects\ISBFSAR\modules\ar\trx\utils\model.py:67:0
  %356 : Float(5, 2, 512, strides=[1024, 512, 1], requires_grad=1, device=cuda:0) = onnx::Gather[axis=-2](%40, %355) # C:\Users\sberti\PycharmProjects\ISBFSAR\modules\ar\trx\utils\model.py:67:0
  %357 : Long(2, strides=[1], device=cpu) = onnx::Constant[value= 5 -1 [ CPULongType{2} ]]()
  %358 : Float(5, 1024, strides=[1024, 1], requires_grad=1, device=cuda:0) = onnx::Reshape(%356, %357) # C:\Users\sberti\PycharmProjects\ISBFSAR\modules\ar\trx\utils\model.py:67:0
  %359 : Long(2, strides=[1], requires_grad=0, device=cuda:0) = onnx::Constant[value=  6  10 [ CUDALongType{2} ]]() # C:\Users\sberti\PycharmProjects\ISBFSAR\modules\ar\trx\utils\model.py:67:0
  %360 : Float(5, 2, 512, strides=[1024, 512, 1], requires_grad=1, device=cuda:0) = onnx::Gather[axis=-2](%40, %359) # C:\Users\sberti\PycharmProjects\ISBFSAR\modules\ar\trx\utils\model.py:67:0
  %361 : Long(2, strides=[1], device=cpu) = onnx::Constant[value= 5 -1 [ CPULongType{2} ]]()
  %362 : Float(5, 1024, strides=[1024, 1], requires_grad=1, device=cuda:0) = onnx::Reshape(%360, %361) # C:\Users\sberti\PycharmProjects\ISBFSAR\modules\ar\trx\utils\model.py:67:0
  %363 : Long(2, strides=[1], requires_grad=0, device=cuda:0) = onnx::Constant[value=  6  11 [ CUDALongType{2} ]]() # C:\Users\sberti\PycharmProjects\ISBFSAR\modules\ar\trx\utils\model.py:67:0
  %364 : Float(5, 2, 512, strides=[1024, 512, 1], requires_grad=1, device=cuda:0) = onnx::Gather[axis=-2](%40, %363) # C:\Users\sberti\PycharmProjects\ISBFSAR\modules\ar\trx\utils\model.py:67:0
  %365 : Long(2, strides=[1], device=cpu) = onnx::Constant[value= 5 -1 [ CPULongType{2} ]]()
  %366 : Float(5, 1024, strides=[1024, 1], requires_grad=1, device=cuda:0) = onnx::Reshape(%364, %365) # C:\Users\sberti\PycharmProjects\ISBFSAR\modules\ar\trx\utils\model.py:67:0
  %367 : Long(2, strides=[1], requires_grad=0, device=cuda:0) = onnx::Constant[value=  6  12 [ CUDALongType{2} ]]() # C:\Users\sberti\PycharmProjects\ISBFSAR\modules\ar\trx\utils\model.py:67:0
  %368 : Float(5, 2, 512, strides=[1024, 512, 1], requires_grad=1, device=cuda:0) = onnx::Gather[axis=-2](%40, %367) # C:\Users\sberti\PycharmProjects\ISBFSAR\modules\ar\trx\utils\model.py:67:0
  %369 : Long(2, strides=[1], device=cpu) = onnx::Constant[value= 5 -1 [ CPULongType{2} ]]()
  %370 : Float(5, 1024, strides=[1024, 1], requires_grad=1, device=cuda:0) = onnx::Reshape(%368, %369) # C:\Users\sberti\PycharmProjects\ISBFSAR\modules\ar\trx\utils\model.py:67:0
  %371 : Long(2, strides=[1], requires_grad=0, device=cuda:0) = onnx::Constant[value=  6  13 [ CUDALongType{2} ]]() # C:\Users\sberti\PycharmProjects\ISBFSAR\modules\ar\trx\utils\model.py:67:0
  %372 : Float(5, 2, 512, strides=[1024, 512, 1], requires_grad=1, device=cuda:0) = onnx::Gather[axis=-2](%40, %371) # C:\Users\sberti\PycharmProjects\ISBFSAR\modules\ar\trx\utils\model.py:67:0
  %373 : Long(2, strides=[1], device=cpu) = onnx::Constant[value= 5 -1 [ CPULongType{2} ]]()
  %374 : Float(5, 1024, strides=[1024, 1], requires_grad=1, device=cuda:0) = onnx::Reshape(%372, %373) # C:\Users\sberti\PycharmProjects\ISBFSAR\modules\ar\trx\utils\model.py:67:0
  %375 : Long(2, strides=[1], requires_grad=0, device=cuda:0) = onnx::Constant[value=  6  14 [ CUDALongType{2} ]]() # C:\Users\sberti\PycharmProjects\ISBFSAR\modules\ar\trx\utils\model.py:67:0
  %376 : Float(5, 2, 512, strides=[1024, 512, 1], requires_grad=1, device=cuda:0) = onnx::Gather[axis=-2](%40, %375) # C:\Users\sberti\PycharmProjects\ISBFSAR\modules\ar\trx\utils\model.py:67:0
  %377 : Long(2, strides=[1], device=cpu) = onnx::Constant[value= 5 -1 [ CPULongType{2} ]]()
  %378 : Float(5, 1024, strides=[1024, 1], requires_grad=1, device=cuda:0) = onnx::Reshape(%376, %377) # C:\Users\sberti\PycharmProjects\ISBFSAR\modules\ar\trx\utils\model.py:67:0
  %379 : Long(2, strides=[1], requires_grad=0, device=cuda:0) = onnx::Constant[value=  6  15 [ CUDALongType{2} ]]() # C:\Users\sberti\PycharmProjects\ISBFSAR\modules\ar\trx\utils\model.py:67:0
  %380 : Float(5, 2, 512, strides=[1024, 512, 1], requires_grad=1, device=cuda:0) = onnx::Gather[axis=-2](%40, %379) # C:\Users\sberti\PycharmProjects\ISBFSAR\modules\ar\trx\utils\model.py:67:0
  %381 : Long(2, strides=[1], device=cpu) = onnx::Constant[value= 5 -1 [ CPULongType{2} ]]()
  %382 : Float(5, 1024, strides=[1024, 1], requires_grad=1, device=cuda:0) = onnx::Reshape(%380, %381) # C:\Users\sberti\PycharmProjects\ISBFSAR\modules\ar\trx\utils\model.py:67:0
  %383 : Long(2, strides=[1], requires_grad=0, device=cuda:0) = onnx::Constant[value= 7  8 [ CUDALongType{2} ]]() # C:\Users\sberti\PycharmProjects\ISBFSAR\modules\ar\trx\utils\model.py:67:0
  %384 : Float(5, 2, 512, strides=[1024, 512, 1], requires_grad=1, device=cuda:0) = onnx::Gather[axis=-2](%40, %383) # C:\Users\sberti\PycharmProjects\ISBFSAR\modules\ar\trx\utils\model.py:67:0
  %385 : Long(2, strides=[1], device=cpu) = onnx::Constant[value= 5 -1 [ CPULongType{2} ]]()
  %386 : Float(5, 1024, strides=[1024, 1], requires_grad=1, device=cuda:0) = onnx::Reshape(%384, %385) # C:\Users\sberti\PycharmProjects\ISBFSAR\modules\ar\trx\utils\model.py:67:0
  %387 : Long(2, strides=[1], requires_grad=0, device=cuda:0) = onnx::Constant[value= 7  9 [ CUDALongType{2} ]]() # C:\Users\sberti\PycharmProjects\ISBFSAR\modules\ar\trx\utils\model.py:67:0
  %388 : Float(5, 2, 512, strides=[1024, 512, 1], requires_grad=1, device=cuda:0) = onnx::Gather[axis=-2](%40, %387) # C:\Users\sberti\PycharmProjects\ISBFSAR\modules\ar\trx\utils\model.py:67:0
  %389 : Long(2, strides=[1], device=cpu) = onnx::Constant[value= 5 -1 [ CPULongType{2} ]]()
  %390 : Float(5, 1024, strides=[1024, 1], requires_grad=1, device=cuda:0) = onnx::Reshape(%388, %389) # C:\Users\sberti\PycharmProjects\ISBFSAR\modules\ar\trx\utils\model.py:67:0
  %391 : Long(2, strides=[1], requires_grad=0, device=cuda:0) = onnx::Constant[value=  7  10 [ CUDALongType{2} ]]() # C:\Users\sberti\PycharmProjects\ISBFSAR\modules\ar\trx\utils\model.py:67:0
  %392 : Float(5, 2, 512, strides=[1024, 512, 1], requires_grad=1, device=cuda:0) = onnx::Gather[axis=-2](%40, %391) # C:\Users\sberti\PycharmProjects\ISBFSAR\modules\ar\trx\utils\model.py:67:0
  %393 : Long(2, strides=[1], device=cpu) = onnx::Constant[value= 5 -1 [ CPULongType{2} ]]()
  %394 : Float(5, 1024, strides=[1024, 1], requires_grad=1, device=cuda:0) = onnx::Reshape(%392, %393) # C:\Users\sberti\PycharmProjects\ISBFSAR\modules\ar\trx\utils\model.py:67:0
  %395 : Long(2, strides=[1], requires_grad=0, device=cuda:0) = onnx::Constant[value=  7  11 [ CUDALongType{2} ]]() # C:\Users\sberti\PycharmProjects\ISBFSAR\modules\ar\trx\utils\model.py:67:0
  %396 : Float(5, 2, 512, strides=[1024, 512, 1], requires_grad=1, device=cuda:0) = onnx::Gather[axis=-2](%40, %395) # C:\Users\sberti\PycharmProjects\ISBFSAR\modules\ar\trx\utils\model.py:67:0
  %397 : Long(2, strides=[1], device=cpu) = onnx::Constant[value= 5 -1 [ CPULongType{2} ]]()
  %398 : Float(5, 1024, strides=[1024, 1], requires_grad=1, device=cuda:0) = onnx::Reshape(%396, %397) # C:\Users\sberti\PycharmProjects\ISBFSAR\modules\ar\trx\utils\model.py:67:0
  %399 : Long(2, strides=[1], requires_grad=0, device=cuda:0) = onnx::Constant[value=  7  12 [ CUDALongType{2} ]]() # C:\Users\sberti\PycharmProjects\ISBFSAR\modules\ar\trx\utils\model.py:67:0
  %400 : Float(5, 2, 512, strides=[1024, 512, 1], requires_grad=1, device=cuda:0) = onnx::Gather[axis=-2](%40, %399) # C:\Users\sberti\PycharmProjects\ISBFSAR\modules\ar\trx\utils\model.py:67:0
  %401 : Long(2, strides=[1], device=cpu) = onnx::Constant[value= 5 -1 [ CPULongType{2} ]]()
  %402 : Float(5, 1024, strides=[1024, 1], requires_grad=1, device=cuda:0) = onnx::Reshape(%400, %401) # C:\Users\sberti\PycharmProjects\ISBFSAR\modules\ar\trx\utils\model.py:67:0
  %403 : Long(2, strides=[1], requires_grad=0, device=cuda:0) = onnx::Constant[value=  7  13 [ CUDALongType{2} ]]() # C:\Users\sberti\PycharmProjects\ISBFSAR\modules\ar\trx\utils\model.py:67:0
  %404 : Float(5, 2, 512, strides=[1024, 512, 1], requires_grad=1, device=cuda:0) = onnx::Gather[axis=-2](%40, %403) # C:\Users\sberti\PycharmProjects\ISBFSAR\modules\ar\trx\utils\model.py:67:0
  %405 : Long(2, strides=[1], device=cpu) = onnx::Constant[value= 5 -1 [ CPULongType{2} ]]()
  %406 : Float(5, 1024, strides=[1024, 1], requires_grad=1, device=cuda:0) = onnx::Reshape(%404, %405) # C:\Users\sberti\PycharmProjects\ISBFSAR\modules\ar\trx\utils\model.py:67:0
  %407 : Long(2, strides=[1], requires_grad=0, device=cuda:0) = onnx::Constant[value=  7  14 [ CUDALongType{2} ]]() # C:\Users\sberti\PycharmProjects\ISBFSAR\modules\ar\trx\utils\model.py:67:0
  %408 : Float(5, 2, 512, strides=[1024, 512, 1], requires_grad=1, device=cuda:0) = onnx::Gather[axis=-2](%40, %407) # C:\Users\sberti\PycharmProjects\ISBFSAR\modules\ar\trx\utils\model.py:67:0
  %409 : Long(2, strides=[1], device=cpu) = onnx::Constant[value= 5 -1 [ CPULongType{2} ]]()
  %410 : Float(5, 1024, strides=[1024, 1], requires_grad=1, device=cuda:0) = onnx::Reshape(%408, %409) # C:\Users\sberti\PycharmProjects\ISBFSAR\modules\ar\trx\utils\model.py:67:0
  %411 : Long(2, strides=[1], requires_grad=0, device=cuda:0) = onnx::Constant[value=  7  15 [ CUDALongType{2} ]]() # C:\Users\sberti\PycharmProjects\ISBFSAR\modules\ar\trx\utils\model.py:67:0
  %412 : Float(5, 2, 512, strides=[1024, 512, 1], requires_grad=1, device=cuda:0) = onnx::Gather[axis=-2](%40, %411) # C:\Users\sberti\PycharmProjects\ISBFSAR\modules\ar\trx\utils\model.py:67:0
  %413 : Long(2, strides=[1], device=cpu) = onnx::Constant[value= 5 -1 [ CPULongType{2} ]]()
  %414 : Float(5, 1024, strides=[1024, 1], requires_grad=1, device=cuda:0) = onnx::Reshape(%412, %413) # C:\Users\sberti\PycharmProjects\ISBFSAR\modules\ar\trx\utils\model.py:67:0
  %415 : Long(2, strides=[1], requires_grad=0, device=cuda:0) = onnx::Constant[value= 8  9 [ CUDALongType{2} ]]() # C:\Users\sberti\PycharmProjects\ISBFSAR\modules\ar\trx\utils\model.py:67:0
  %416 : Float(5, 2, 512, strides=[1024, 512, 1], requires_grad=1, device=cuda:0) = onnx::Gather[axis=-2](%40, %415) # C:\Users\sberti\PycharmProjects\ISBFSAR\modules\ar\trx\utils\model.py:67:0
  %417 : Long(2, strides=[1], device=cpu) = onnx::Constant[value= 5 -1 [ CPULongType{2} ]]()
  %418 : Float(5, 1024, strides=[1024, 1], requires_grad=1, device=cuda:0) = onnx::Reshape(%416, %417) # C:\Users\sberti\PycharmProjects\ISBFSAR\modules\ar\trx\utils\model.py:67:0
  %419 : Long(2, strides=[1], requires_grad=0, device=cuda:0) = onnx::Constant[value=  8  10 [ CUDALongType{2} ]]() # C:\Users\sberti\PycharmProjects\ISBFSAR\modules\ar\trx\utils\model.py:67:0
  %420 : Float(5, 2, 512, strides=[1024, 512, 1], requires_grad=1, device=cuda:0) = onnx::Gather[axis=-2](%40, %419) # C:\Users\sberti\PycharmProjects\ISBFSAR\modules\ar\trx\utils\model.py:67:0
  %421 : Long(2, strides=[1], device=cpu) = onnx::Constant[value= 5 -1 [ CPULongType{2} ]]()
  %422 : Float(5, 1024, strides=[1024, 1], requires_grad=1, device=cuda:0) = onnx::Reshape(%420, %421) # C:\Users\sberti\PycharmProjects\ISBFSAR\modules\ar\trx\utils\model.py:67:0
  %423 : Long(2, strides=[1], requires_grad=0, device=cuda:0) = onnx::Constant[value=  8  11 [ CUDALongType{2} ]]() # C:\Users\sberti\PycharmProjects\ISBFSAR\modules\ar\trx\utils\model.py:67:0
  %424 : Float(5, 2, 512, strides=[1024, 512, 1], requires_grad=1, device=cuda:0) = onnx::Gather[axis=-2](%40, %423) # C:\Users\sberti\PycharmProjects\ISBFSAR\modules\ar\trx\utils\model.py:67:0
  %425 : Long(2, strides=[1], device=cpu) = onnx::Constant[value= 5 -1 [ CPULongType{2} ]]()
  %426 : Float(5, 1024, strides=[1024, 1], requires_grad=1, device=cuda:0) = onnx::Reshape(%424, %425) # C:\Users\sberti\PycharmProjects\ISBFSAR\modules\ar\trx\utils\model.py:67:0
  %427 : Long(2, strides=[1], requires_grad=0, device=cuda:0) = onnx::Constant[value=  8  12 [ CUDALongType{2} ]]() # C:\Users\sberti\PycharmProjects\ISBFSAR\modules\ar\trx\utils\model.py:67:0
  %428 : Float(5, 2, 512, strides=[1024, 512, 1], requires_grad=1, device=cuda:0) = onnx::Gather[axis=-2](%40, %427) # C:\Users\sberti\PycharmProjects\ISBFSAR\modules\ar\trx\utils\model.py:67:0
  %429 : Long(2, strides=[1], device=cpu) = onnx::Constant[value= 5 -1 [ CPULongType{2} ]]()
  %430 : Float(5, 1024, strides=[1024, 1], requires_grad=1, device=cuda:0) = onnx::Reshape(%428, %429) # C:\Users\sberti\PycharmProjects\ISBFSAR\modules\ar\trx\utils\model.py:67:0
  %431 : Long(2, strides=[1], requires_grad=0, device=cuda:0) = onnx::Constant[value=  8  13 [ CUDALongType{2} ]]() # C:\Users\sberti\PycharmProjects\ISBFSAR\modules\ar\trx\utils\model.py:67:0
  %432 : Float(5, 2, 512, strides=[1024, 512, 1], requires_grad=1, device=cuda:0) = onnx::Gather[axis=-2](%40, %431) # C:\Users\sberti\PycharmProjects\ISBFSAR\modules\ar\trx\utils\model.py:67:0
  %433 : Long(2, strides=[1], device=cpu) = onnx::Constant[value= 5 -1 [ CPULongType{2} ]]()
  %434 : Float(5, 1024, strides=[1024, 1], requires_grad=1, device=cuda:0) = onnx::Reshape(%432, %433) # C:\Users\sberti\PycharmProjects\ISBFSAR\modules\ar\trx\utils\model.py:67:0
  %435 : Long(2, strides=[1], requires_grad=0, device=cuda:0) = onnx::Constant[value=  8  14 [ CUDALongType{2} ]]() # C:\Users\sberti\PycharmProjects\ISBFSAR\modules\ar\trx\utils\model.py:67:0
  %436 : Float(5, 2, 512, strides=[1024, 512, 1], requires_grad=1, device=cuda:0) = onnx::Gather[axis=-2](%40, %435) # C:\Users\sberti\PycharmProjects\ISBFSAR\modules\ar\trx\utils\model.py:67:0
  %437 : Long(2, strides=[1], device=cpu) = onnx::Constant[value= 5 -1 [ CPULongType{2} ]]()
  %438 : Float(5, 1024, strides=[1024, 1], requires_grad=1, device=cuda:0) = onnx::Reshape(%436, %437) # C:\Users\sberti\PycharmProjects\ISBFSAR\modules\ar\trx\utils\model.py:67:0
  %439 : Long(2, strides=[1], requires_grad=0, device=cuda:0) = onnx::Constant[value=  8  15 [ CUDALongType{2} ]]() # C:\Users\sberti\PycharmProjects\ISBFSAR\modules\ar\trx\utils\model.py:67:0
  %440 : Float(5, 2, 512, strides=[1024, 512, 1], requires_grad=1, device=cuda:0) = onnx::Gather[axis=-2](%40, %439) # C:\Users\sberti\PycharmProjects\ISBFSAR\modules\ar\trx\utils\model.py:67:0
  %441 : Long(2, strides=[1], device=cpu) = onnx::Constant[value= 5 -1 [ CPULongType{2} ]]()
  %442 : Float(5, 1024, strides=[1024, 1], requires_grad=1, device=cuda:0) = onnx::Reshape(%440, %441) # C:\Users\sberti\PycharmProjects\ISBFSAR\modules\ar\trx\utils\model.py:67:0
  %443 : Long(2, strides=[1], requires_grad=0, device=cuda:0) = onnx::Constant[value=  9  10 [ CUDALongType{2} ]]() # C:\Users\sberti\PycharmProjects\ISBFSAR\modules\ar\trx\utils\model.py:67:0
  %444 : Float(5, 2, 512, strides=[1024, 512, 1], requires_grad=1, device=cuda:0) = onnx::Gather[axis=-2](%40, %443) # C:\Users\sberti\PycharmProjects\ISBFSAR\modules\ar\trx\utils\model.py:67:0
  %445 : Long(2, strides=[1], device=cpu) = onnx::Constant[value= 5 -1 [ CPULongType{2} ]]()
  %446 : Float(5, 1024, strides=[1024, 1], requires_grad=1, device=cuda:0) = onnx::Reshape(%444, %445) # C:\Users\sberti\PycharmProjects\ISBFSAR\modules\ar\trx\utils\model.py:67:0
  %447 : Long(2, strides=[1], requires_grad=0, device=cuda:0) = onnx::Constant[value=  9  11 [ CUDALongType{2} ]]() # C:\Users\sberti\PycharmProjects\ISBFSAR\modules\ar\trx\utils\model.py:67:0
  %448 : Float(5, 2, 512, strides=[1024, 512, 1], requires_grad=1, device=cuda:0) = onnx::Gather[axis=-2](%40, %447) # C:\Users\sberti\PycharmProjects\ISBFSAR\modules\ar\trx\utils\model.py:67:0
  %449 : Long(2, strides=[1], device=cpu) = onnx::Constant[value= 5 -1 [ CPULongType{2} ]]()
  %450 : Float(5, 1024, strides=[1024, 1], requires_grad=1, device=cuda:0) = onnx::Reshape(%448, %449) # C:\Users\sberti\PycharmProjects\ISBFSAR\modules\ar\trx\utils\model.py:67:0
  %451 : Long(2, strides=[1], requires_grad=0, device=cuda:0) = onnx::Constant[value=  9  12 [ CUDALongType{2} ]]() # C:\Users\sberti\PycharmProjects\ISBFSAR\modules\ar\trx\utils\model.py:67:0
  %452 : Float(5, 2, 512, strides=[1024, 512, 1], requires_grad=1, device=cuda:0) = onnx::Gather[axis=-2](%40, %451) # C:\Users\sberti\PycharmProjects\ISBFSAR\modules\ar\trx\utils\model.py:67:0
  %453 : Long(2, strides=[1], device=cpu) = onnx::Constant[value= 5 -1 [ CPULongType{2} ]]()
  %454 : Float(5, 1024, strides=[1024, 1], requires_grad=1, device=cuda:0) = onnx::Reshape(%452, %453) # C:\Users\sberti\PycharmProjects\ISBFSAR\modules\ar\trx\utils\model.py:67:0
  %455 : Long(2, strides=[1], requires_grad=0, device=cuda:0) = onnx::Constant[value=  9  13 [ CUDALongType{2} ]]() # C:\Users\sberti\PycharmProjects\ISBFSAR\modules\ar\trx\utils\model.py:67:0
  %456 : Float(5, 2, 512, strides=[1024, 512, 1], requires_grad=1, device=cuda:0) = onnx::Gather[axis=-2](%40, %455) # C:\Users\sberti\PycharmProjects\ISBFSAR\modules\ar\trx\utils\model.py:67:0
  %457 : Long(2, strides=[1], device=cpu) = onnx::Constant[value= 5 -1 [ CPULongType{2} ]]()
  %458 : Float(5, 1024, strides=[1024, 1], requires_grad=1, device=cuda:0) = onnx::Reshape(%456, %457) # C:\Users\sberti\PycharmProjects\ISBFSAR\modules\ar\trx\utils\model.py:67:0
  %459 : Long(2, strides=[1], requires_grad=0, device=cuda:0) = onnx::Constant[value=  9  14 [ CUDALongType{2} ]]() # C:\Users\sberti\PycharmProjects\ISBFSAR\modules\ar\trx\utils\model.py:67:0
  %460 : Float(5, 2, 512, strides=[1024, 512, 1], requires_grad=1, device=cuda:0) = onnx::Gather[axis=-2](%40, %459) # C:\Users\sberti\PycharmProjects\ISBFSAR\modules\ar\trx\utils\model.py:67:0
  %461 : Long(2, strides=[1], device=cpu) = onnx::Constant[value= 5 -1 [ CPULongType{2} ]]()
  %462 : Float(5, 1024, strides=[1024, 1], requires_grad=1, device=cuda:0) = onnx::Reshape(%460, %461) # C:\Users\sberti\PycharmProjects\ISBFSAR\modules\ar\trx\utils\model.py:67:0
  %463 : Long(2, strides=[1], requires_grad=0, device=cuda:0) = onnx::Constant[value=  9  15 [ CUDALongType{2} ]]() # C:\Users\sberti\PycharmProjects\ISBFSAR\modules\ar\trx\utils\model.py:67:0
  %464 : Float(5, 2, 512, strides=[1024, 512, 1], requires_grad=1, device=cuda:0) = onnx::Gather[axis=-2](%40, %463) # C:\Users\sberti\PycharmProjects\ISBFSAR\modules\ar\trx\utils\model.py:67:0
  %465 : Long(2, strides=[1], device=cpu) = onnx::Constant[value= 5 -1 [ CPULongType{2} ]]()
  %466 : Float(5, 1024, strides=[1024, 1], requires_grad=1, device=cuda:0) = onnx::Reshape(%464, %465) # C:\Users\sberti\PycharmProjects\ISBFSAR\modules\ar\trx\utils\model.py:67:0
  %467 : Long(2, strides=[1], requires_grad=0, device=cuda:0) = onnx::Constant[value= 10  11 [ CUDALongType{2} ]]() # C:\Users\sberti\PycharmProjects\ISBFSAR\modules\ar\trx\utils\model.py:67:0
  %468 : Float(5, 2, 512, strides=[1024, 512, 1], requires_grad=1, device=cuda:0) = onnx::Gather[axis=-2](%40, %467) # C:\Users\sberti\PycharmProjects\ISBFSAR\modules\ar\trx\utils\model.py:67:0
  %469 : Long(2, strides=[1], device=cpu) = onnx::Constant[value= 5 -1 [ CPULongType{2} ]]()
  %470 : Float(5, 1024, strides=[1024, 1], requires_grad=1, device=cuda:0) = onnx::Reshape(%468, %469) # C:\Users\sberti\PycharmProjects\ISBFSAR\modules\ar\trx\utils\model.py:67:0
  %471 : Long(2, strides=[1], requires_grad=0, device=cuda:0) = onnx::Constant[value= 10  12 [ CUDALongType{2} ]]() # C:\Users\sberti\PycharmProjects\ISBFSAR\modules\ar\trx\utils\model.py:67:0
  %472 : Float(5, 2, 512, strides=[1024, 512, 1], requires_grad=1, device=cuda:0) = onnx::Gather[axis=-2](%40, %471) # C:\Users\sberti\PycharmProjects\ISBFSAR\modules\ar\trx\utils\model.py:67:0
  %473 : Long(2, strides=[1], device=cpu) = onnx::Constant[value= 5 -1 [ CPULongType{2} ]]()
  %474 : Float(5, 1024, strides=[1024, 1], requires_grad=1, device=cuda:0) = onnx::Reshape(%472, %473) # C:\Users\sberti\PycharmProjects\ISBFSAR\modules\ar\trx\utils\model.py:67:0
  %475 : Long(2, strides=[1], requires_grad=0, device=cuda:0) = onnx::Constant[value= 10  13 [ CUDALongType{2} ]]() # C:\Users\sberti\PycharmProjects\ISBFSAR\modules\ar\trx\utils\model.py:67:0
  %476 : Float(5, 2, 512, strides=[1024, 512, 1], requires_grad=1, device=cuda:0) = onnx::Gather[axis=-2](%40, %475) # C:\Users\sberti\PycharmProjects\ISBFSAR\modules\ar\trx\utils\model.py:67:0
  %477 : Long(2, strides=[1], device=cpu) = onnx::Constant[value= 5 -1 [ CPULongType{2} ]]()
  %478 : Float(5, 1024, strides=[1024, 1], requires_grad=1, device=cuda:0) = onnx::Reshape(%476, %477) # C:\Users\sberti\PycharmProjects\ISBFSAR\modules\ar\trx\utils\model.py:67:0
  %479 : Long(2, strides=[1], requires_grad=0, device=cuda:0) = onnx::Constant[value= 10  14 [ CUDALongType{2} ]]() # C:\Users\sberti\PycharmProjects\ISBFSAR\modules\ar\trx\utils\model.py:67:0
  %480 : Float(5, 2, 512, strides=[1024, 512, 1], requires_grad=1, device=cuda:0) = onnx::Gather[axis=-2](%40, %479) # C:\Users\sberti\PycharmProjects\ISBFSAR\modules\ar\trx\utils\model.py:67:0
  %481 : Long(2, strides=[1], device=cpu) = onnx::Constant[value= 5 -1 [ CPULongType{2} ]]()
  %482 : Float(5, 1024, strides=[1024, 1], requires_grad=1, device=cuda:0) = onnx::Reshape(%480, %481) # C:\Users\sberti\PycharmProjects\ISBFSAR\modules\ar\trx\utils\model.py:67:0
  %483 : Long(2, strides=[1], requires_grad=0, device=cuda:0) = onnx::Constant[value= 10  15 [ CUDALongType{2} ]]() # C:\Users\sberti\PycharmProjects\ISBFSAR\modules\ar\trx\utils\model.py:67:0
  %484 : Float(5, 2, 512, strides=[1024, 512, 1], requires_grad=1, device=cuda:0) = onnx::Gather[axis=-2](%40, %483) # C:\Users\sberti\PycharmProjects\ISBFSAR\modules\ar\trx\utils\model.py:67:0
  %485 : Long(2, strides=[1], device=cpu) = onnx::Constant[value= 5 -1 [ CPULongType{2} ]]()
  %486 : Float(5, 1024, strides=[1024, 1], requires_grad=1, device=cuda:0) = onnx::Reshape(%484, %485) # C:\Users\sberti\PycharmProjects\ISBFSAR\modules\ar\trx\utils\model.py:67:0
  %487 : Long(2, strides=[1], requires_grad=0, device=cuda:0) = onnx::Constant[value= 11  12 [ CUDALongType{2} ]]() # C:\Users\sberti\PycharmProjects\ISBFSAR\modules\ar\trx\utils\model.py:67:0
  %488 : Float(5, 2, 512, strides=[1024, 512, 1], requires_grad=1, device=cuda:0) = onnx::Gather[axis=-2](%40, %487) # C:\Users\sberti\PycharmProjects\ISBFSAR\modules\ar\trx\utils\model.py:67:0
  %489 : Long(2, strides=[1], device=cpu) = onnx::Constant[value= 5 -1 [ CPULongType{2} ]]()
  %490 : Float(5, 1024, strides=[1024, 1], requires_grad=1, device=cuda:0) = onnx::Reshape(%488, %489) # C:\Users\sberti\PycharmProjects\ISBFSAR\modules\ar\trx\utils\model.py:67:0
  %491 : Long(2, strides=[1], requires_grad=0, device=cuda:0) = onnx::Constant[value= 11  13 [ CUDALongType{2} ]]() # C:\Users\sberti\PycharmProjects\ISBFSAR\modules\ar\trx\utils\model.py:67:0
  %492 : Float(5, 2, 512, strides=[1024, 512, 1], requires_grad=1, device=cuda:0) = onnx::Gather[axis=-2](%40, %491) # C:\Users\sberti\PycharmProjects\ISBFSAR\modules\ar\trx\utils\model.py:67:0
  %493 : Long(2, strides=[1], device=cpu) = onnx::Constant[value= 5 -1 [ CPULongType{2} ]]()
  %494 : Float(5, 1024, strides=[1024, 1], requires_grad=1, device=cuda:0) = onnx::Reshape(%492, %493) # C:\Users\sberti\PycharmProjects\ISBFSAR\modules\ar\trx\utils\model.py:67:0
  %495 : Long(2, strides=[1], requires_grad=0, device=cuda:0) = onnx::Constant[value= 11  14 [ CUDALongType{2} ]]() # C:\Users\sberti\PycharmProjects\ISBFSAR\modules\ar\trx\utils\model.py:67:0
  %496 : Float(5, 2, 512, strides=[1024, 512, 1], requires_grad=1, device=cuda:0) = onnx::Gather[axis=-2](%40, %495) # C:\Users\sberti\PycharmProjects\ISBFSAR\modules\ar\trx\utils\model.py:67:0
  %497 : Long(2, strides=[1], device=cpu) = onnx::Constant[value= 5 -1 [ CPULongType{2} ]]()
  %498 : Float(5, 1024, strides=[1024, 1], requires_grad=1, device=cuda:0) = onnx::Reshape(%496, %497) # C:\Users\sberti\PycharmProjects\ISBFSAR\modules\ar\trx\utils\model.py:67:0
  %499 : Long(2, strides=[1], requires_grad=0, device=cuda:0) = onnx::Constant[value= 11  15 [ CUDALongType{2} ]]() # C:\Users\sberti\PycharmProjects\ISBFSAR\modules\ar\trx\utils\model.py:67:0
  %500 : Float(5, 2, 512, strides=[1024, 512, 1], requires_grad=1, device=cuda:0) = onnx::Gather[axis=-2](%40, %499) # C:\Users\sberti\PycharmProjects\ISBFSAR\modules\ar\trx\utils\model.py:67:0
  %501 : Long(2, strides=[1], device=cpu) = onnx::Constant[value= 5 -1 [ CPULongType{2} ]]()
  %502 : Float(5, 1024, strides=[1024, 1], requires_grad=1, device=cuda:0) = onnx::Reshape(%500, %501) # C:\Users\sberti\PycharmProjects\ISBFSAR\modules\ar\trx\utils\model.py:67:0
  %503 : Long(2, strides=[1], requires_grad=0, device=cuda:0) = onnx::Constant[value= 12  13 [ CUDALongType{2} ]]() # C:\Users\sberti\PycharmProjects\ISBFSAR\modules\ar\trx\utils\model.py:67:0
  %504 : Float(5, 2, 512, strides=[1024, 512, 1], requires_grad=1, device=cuda:0) = onnx::Gather[axis=-2](%40, %503) # C:\Users\sberti\PycharmProjects\ISBFSAR\modules\ar\trx\utils\model.py:67:0
  %505 : Long(2, strides=[1], device=cpu) = onnx::Constant[value= 5 -1 [ CPULongType{2} ]]()
  %506 : Float(5, 1024, strides=[1024, 1], requires_grad=1, device=cuda:0) = onnx::Reshape(%504, %505) # C:\Users\sberti\PycharmProjects\ISBFSAR\modules\ar\trx\utils\model.py:67:0
  %507 : Long(2, strides=[1], requires_grad=0, device=cuda:0) = onnx::Constant[value= 12  14 [ CUDALongType{2} ]]() # C:\Users\sberti\PycharmProjects\ISBFSAR\modules\ar\trx\utils\model.py:67:0
  %508 : Float(5, 2, 512, strides=[1024, 512, 1], requires_grad=1, device=cuda:0) = onnx::Gather[axis=-2](%40, %507) # C:\Users\sberti\PycharmProjects\ISBFSAR\modules\ar\trx\utils\model.py:67:0
  %509 : Long(2, strides=[1], device=cpu) = onnx::Constant[value= 5 -1 [ CPULongType{2} ]]()
  %510 : Float(5, 1024, strides=[1024, 1], requires_grad=1, device=cuda:0) = onnx::Reshape(%508, %509) # C:\Users\sberti\PycharmProjects\ISBFSAR\modules\ar\trx\utils\model.py:67:0
  %511 : Long(2, strides=[1], requires_grad=0, device=cuda:0) = onnx::Constant[value= 12  15 [ CUDALongType{2} ]]() # C:\Users\sberti\PycharmProjects\ISBFSAR\modules\ar\trx\utils\model.py:67:0
  %512 : Float(5, 2, 512, strides=[1024, 512, 1], requires_grad=1, device=cuda:0) = onnx::Gather[axis=-2](%40, %511) # C:\Users\sberti\PycharmProjects\ISBFSAR\modules\ar\trx\utils\model.py:67:0
  %513 : Long(2, strides=[1], device=cpu) = onnx::Constant[value= 5 -1 [ CPULongType{2} ]]()
  %514 : Float(5, 1024, strides=[1024, 1], requires_grad=1, device=cuda:0) = onnx::Reshape(%512, %513) # C:\Users\sberti\PycharmProjects\ISBFSAR\modules\ar\trx\utils\model.py:67:0
  %515 : Long(2, strides=[1], requires_grad=0, device=cuda:0) = onnx::Constant[value= 13  14 [ CUDALongType{2} ]]() # C:\Users\sberti\PycharmProjects\ISBFSAR\modules\ar\trx\utils\model.py:67:0
  %516 : Float(5, 2, 512, strides=[1024, 512, 1], requires_grad=1, device=cuda:0) = onnx::Gather[axis=-2](%40, %515) # C:\Users\sberti\PycharmProjects\ISBFSAR\modules\ar\trx\utils\model.py:67:0
  %517 : Long(2, strides=[1], device=cpu) = onnx::Constant[value= 5 -1 [ CPULongType{2} ]]()
  %518 : Float(5, 1024, strides=[1024, 1], requires_grad=1, device=cuda:0) = onnx::Reshape(%516, %517) # C:\Users\sberti\PycharmProjects\ISBFSAR\modules\ar\trx\utils\model.py:67:0
  %519 : Long(2, strides=[1], requires_grad=0, device=cuda:0) = onnx::Constant[value= 13  15 [ CUDALongType{2} ]]() # C:\Users\sberti\PycharmProjects\ISBFSAR\modules\ar\trx\utils\model.py:67:0
  %520 : Float(5, 2, 512, strides=[1024, 512, 1], requires_grad=1, device=cuda:0) = onnx::Gather[axis=-2](%40, %519) # C:\Users\sberti\PycharmProjects\ISBFSAR\modules\ar\trx\utils\model.py:67:0
  %521 : Long(2, strides=[1], device=cpu) = onnx::Constant[value= 5 -1 [ CPULongType{2} ]]()
  %522 : Float(5, 1024, strides=[1024, 1], requires_grad=1, device=cuda:0) = onnx::Reshape(%520, %521) # C:\Users\sberti\PycharmProjects\ISBFSAR\modules\ar\trx\utils\model.py:67:0
  %523 : Long(2, strides=[1], requires_grad=0, device=cuda:0) = onnx::Constant[value= 14  15 [ CUDALongType{2} ]]() # C:\Users\sberti\PycharmProjects\ISBFSAR\modules\ar\trx\utils\model.py:67:0
  %524 : Float(5, 2, 512, strides=[1024, 512, 1], requires_grad=1, device=cuda:0) = onnx::Gather[axis=-2](%40, %523) # C:\Users\sberti\PycharmProjects\ISBFSAR\modules\ar\trx\utils\model.py:67:0
  %525 : Long(2, strides=[1], device=cpu) = onnx::Constant[value= 5 -1 [ CPULongType{2} ]]()
  %526 : Float(5, 1024, strides=[1024, 1], requires_grad=1, device=cuda:0) = onnx::Reshape(%524, %525) # C:\Users\sberti\PycharmProjects\ISBFSAR\modules\ar\trx\utils\model.py:67:0
  %527 : Float(1, 2, 512, strides=[1024, 512, 1], requires_grad=1, device=cuda:0) = onnx::Gather[axis=-2](%46, %47) # C:\Users\sberti\PycharmProjects\ISBFSAR\modules\ar\trx\utils\model.py:68:0
  %528 : Long(2, strides=[1], device=cpu) = onnx::Constant[value= 1 -1 [ CPULongType{2} ]]()
  %529 : Float(1, 1024, strides=[1024, 1], requires_grad=1, device=cuda:0) = onnx::Reshape(%527, %528) # C:\Users\sberti\PycharmProjects\ISBFSAR\modules\ar\trx\utils\model.py:68:0
  %530 : Float(1, 2, 512, strides=[1024, 512, 1], requires_grad=1, device=cuda:0) = onnx::Gather[axis=-2](%46, %51) # C:\Users\sberti\PycharmProjects\ISBFSAR\modules\ar\trx\utils\model.py:68:0
  %531 : Long(2, strides=[1], device=cpu) = onnx::Constant[value= 1 -1 [ CPULongType{2} ]]()
  %532 : Float(1, 1024, strides=[1024, 1], requires_grad=1, device=cuda:0) = onnx::Reshape(%530, %531) # C:\Users\sberti\PycharmProjects\ISBFSAR\modules\ar\trx\utils\model.py:68:0
  %533 : Float(1, 2, 512, strides=[1024, 512, 1], requires_grad=1, device=cuda:0) = onnx::Gather[axis=-2](%46, %55) # C:\Users\sberti\PycharmProjects\ISBFSAR\modules\ar\trx\utils\model.py:68:0
  %534 : Long(2, strides=[1], device=cpu) = onnx::Constant[value= 1 -1 [ CPULongType{2} ]]()
  %535 : Float(1, 1024, strides=[1024, 1], requires_grad=1, device=cuda:0) = onnx::Reshape(%533, %534) # C:\Users\sberti\PycharmProjects\ISBFSAR\modules\ar\trx\utils\model.py:68:0
  %536 : Float(1, 2, 512, strides=[1024, 512, 1], requires_grad=1, device=cuda:0) = onnx::Gather[axis=-2](%46, %59) # C:\Users\sberti\PycharmProjects\ISBFSAR\modules\ar\trx\utils\model.py:68:0
  %537 : Long(2, strides=[1], device=cpu) = onnx::Constant[value= 1 -1 [ CPULongType{2} ]]()
  %538 : Float(1, 1024, strides=[1024, 1], requires_grad=1, device=cuda:0) = onnx::Reshape(%536, %537) # C:\Users\sberti\PycharmProjects\ISBFSAR\modules\ar\trx\utils\model.py:68:0
  %539 : Float(1, 2, 512, strides=[1024, 512, 1], requires_grad=1, device=cuda:0) = onnx::Gather[axis=-2](%46, %63) # C:\Users\sberti\PycharmProjects\ISBFSAR\modules\ar\trx\utils\model.py:68:0
  %540 : Long(2, strides=[1], device=cpu) = onnx::Constant[value= 1 -1 [ CPULongType{2} ]]()
  %541 : Float(1, 1024, strides=[1024, 1], requires_grad=1, device=cuda:0) = onnx::Reshape(%539, %540) # C:\Users\sberti\PycharmProjects\ISBFSAR\modules\ar\trx\utils\model.py:68:0
  %542 : Float(1, 2, 512, strides=[1024, 512, 1], requires_grad=1, device=cuda:0) = onnx::Gather[axis=-2](%46, %67) # C:\Users\sberti\PycharmProjects\ISBFSAR\modules\ar\trx\utils\model.py:68:0
  %543 : Long(2, strides=[1], device=cpu) = onnx::Constant[value= 1 -1 [ CPULongType{2} ]]()
  %544 : Float(1, 1024, strides=[1024, 1], requires_grad=1, device=cuda:0) = onnx::Reshape(%542, %543) # C:\Users\sberti\PycharmProjects\ISBFSAR\modules\ar\trx\utils\model.py:68:0
  %545 : Float(1, 2, 512, strides=[1024, 512, 1], requires_grad=1, device=cuda:0) = onnx::Gather[axis=-2](%46, %71) # C:\Users\sberti\PycharmProjects\ISBFSAR\modules\ar\trx\utils\model.py:68:0
  %546 : Long(2, strides=[1], device=cpu) = onnx::Constant[value= 1 -1 [ CPULongType{2} ]]()
  %547 : Float(1, 1024, strides=[1024, 1], requires_grad=1, device=cuda:0) = onnx::Reshape(%545, %546) # C:\Users\sberti\PycharmProjects\ISBFSAR\modules\ar\trx\utils\model.py:68:0
  %548 : Float(1, 2, 512, strides=[1024, 512, 1], requires_grad=1, device=cuda:0) = onnx::Gather[axis=-2](%46, %75) # C:\Users\sberti\PycharmProjects\ISBFSAR\modules\ar\trx\utils\model.py:68:0
  %549 : Long(2, strides=[1], device=cpu) = onnx::Constant[value= 1 -1 [ CPULongType{2} ]]()
  %550 : Float(1, 1024, strides=[1024, 1], requires_grad=1, device=cuda:0) = onnx::Reshape(%548, %549) # C:\Users\sberti\PycharmProjects\ISBFSAR\modules\ar\trx\utils\model.py:68:0
  %551 : Float(1, 2, 512, strides=[1024, 512, 1], requires_grad=1, device=cuda:0) = onnx::Gather[axis=-2](%46, %79) # C:\Users\sberti\PycharmProjects\ISBFSAR\modules\ar\trx\utils\model.py:68:0
  %552 : Long(2, strides=[1], device=cpu) = onnx::Constant[value= 1 -1 [ CPULongType{2} ]]()
  %553 : Float(1, 1024, strides=[1024, 1], requires_grad=1, device=cuda:0) = onnx::Reshape(%551, %552) # C:\Users\sberti\PycharmProjects\ISBFSAR\modules\ar\trx\utils\model.py:68:0
  %554 : Float(1, 2, 512, strides=[1024, 512, 1], requires_grad=1, device=cuda:0) = onnx::Gather[axis=-2](%46, %83) # C:\Users\sberti\PycharmProjects\ISBFSAR\modules\ar\trx\utils\model.py:68:0
  %555 : Long(2, strides=[1], device=cpu) = onnx::Constant[value= 1 -1 [ CPULongType{2} ]]()
  %556 : Float(1, 1024, strides=[1024, 1], requires_grad=1, device=cuda:0) = onnx::Reshape(%554, %555) # C:\Users\sberti\PycharmProjects\ISBFSAR\modules\ar\trx\utils\model.py:68:0
  %557 : Float(1, 2, 512, strides=[1024, 512, 1], requires_grad=1, device=cuda:0) = onnx::Gather[axis=-2](%46, %87) # C:\Users\sberti\PycharmProjects\ISBFSAR\modules\ar\trx\utils\model.py:68:0
  %558 : Long(2, strides=[1], device=cpu) = onnx::Constant[value= 1 -1 [ CPULongType{2} ]]()
  %559 : Float(1, 1024, strides=[1024, 1], requires_grad=1, device=cuda:0) = onnx::Reshape(%557, %558) # C:\Users\sberti\PycharmProjects\ISBFSAR\modules\ar\trx\utils\model.py:68:0
  %560 : Float(1, 2, 512, strides=[1024, 512, 1], requires_grad=1, device=cuda:0) = onnx::Gather[axis=-2](%46, %91) # C:\Users\sberti\PycharmProjects\ISBFSAR\modules\ar\trx\utils\model.py:68:0
  %561 : Long(2, strides=[1], device=cpu) = onnx::Constant[value= 1 -1 [ CPULongType{2} ]]()
  %562 : Float(1, 1024, strides=[1024, 1], requires_grad=1, device=cuda:0) = onnx::Reshape(%560, %561) # C:\Users\sberti\PycharmProjects\ISBFSAR\modules\ar\trx\utils\model.py:68:0
  %563 : Float(1, 2, 512, strides=[1024, 512, 1], requires_grad=1, device=cuda:0) = onnx::Gather[axis=-2](%46, %95) # C:\Users\sberti\PycharmProjects\ISBFSAR\modules\ar\trx\utils\model.py:68:0
  %564 : Long(2, strides=[1], device=cpu) = onnx::Constant[value= 1 -1 [ CPULongType{2} ]]()
  %565 : Float(1, 1024, strides=[1024, 1], requires_grad=1, device=cuda:0) = onnx::Reshape(%563, %564) # C:\Users\sberti\PycharmProjects\ISBFSAR\modules\ar\trx\utils\model.py:68:0
  %566 : Float(1, 2, 512, strides=[1024, 512, 1], requires_grad=1, device=cuda:0) = onnx::Gather[axis=-2](%46, %99) # C:\Users\sberti\PycharmProjects\ISBFSAR\modules\ar\trx\utils\model.py:68:0
  %567 : Long(2, strides=[1], device=cpu) = onnx::Constant[value= 1 -1 [ CPULongType{2} ]]()
  %568 : Float(1, 1024, strides=[1024, 1], requires_grad=1, device=cuda:0) = onnx::Reshape(%566, %567) # C:\Users\sberti\PycharmProjects\ISBFSAR\modules\ar\trx\utils\model.py:68:0
  %569 : Float(1, 2, 512, strides=[1024, 512, 1], requires_grad=1, device=cuda:0) = onnx::Gather[axis=-2](%46, %103) # C:\Users\sberti\PycharmProjects\ISBFSAR\modules\ar\trx\utils\model.py:68:0
  %570 : Long(2, strides=[1], device=cpu) = onnx::Constant[value= 1 -1 [ CPULongType{2} ]]()
  %571 : Float(1, 1024, strides=[1024, 1], requires_grad=1, device=cuda:0) = onnx::Reshape(%569, %570) # C:\Users\sberti\PycharmProjects\ISBFSAR\modules\ar\trx\utils\model.py:68:0
  %572 : Float(1, 2, 512, strides=[1024, 512, 1], requires_grad=1, device=cuda:0) = onnx::Gather[axis=-2](%46, %107) # C:\Users\sberti\PycharmProjects\ISBFSAR\modules\ar\trx\utils\model.py:68:0
  %573 : Long(2, strides=[1], device=cpu) = onnx::Constant[value= 1 -1 [ CPULongType{2} ]]()
  %574 : Float(1, 1024, strides=[1024, 1], requires_grad=1, device=cuda:0) = onnx::Reshape(%572, %573) # C:\Users\sberti\PycharmProjects\ISBFSAR\modules\ar\trx\utils\model.py:68:0
  %575 : Float(1, 2, 512, strides=[1024, 512, 1], requires_grad=1, device=cuda:0) = onnx::Gather[axis=-2](%46, %111) # C:\Users\sberti\PycharmProjects\ISBFSAR\modules\ar\trx\utils\model.py:68:0
  %576 : Long(2, strides=[1], device=cpu) = onnx::Constant[value= 1 -1 [ CPULongType{2} ]]()
  %577 : Float(1, 1024, strides=[1024, 1], requires_grad=1, device=cuda:0) = onnx::Reshape(%575, %576) # C:\Users\sberti\PycharmProjects\ISBFSAR\modules\ar\trx\utils\model.py:68:0
  %578 : Float(1, 2, 512, strides=[1024, 512, 1], requires_grad=1, device=cuda:0) = onnx::Gather[axis=-2](%46, %115) # C:\Users\sberti\PycharmProjects\ISBFSAR\modules\ar\trx\utils\model.py:68:0
  %579 : Long(2, strides=[1], device=cpu) = onnx::Constant[value= 1 -1 [ CPULongType{2} ]]()
  %580 : Float(1, 1024, strides=[1024, 1], requires_grad=1, device=cuda:0) = onnx::Reshape(%578, %579) # C:\Users\sberti\PycharmProjects\ISBFSAR\modules\ar\trx\utils\model.py:68:0
  %581 : Float(1, 2, 512, strides=[1024, 512, 1], requires_grad=1, device=cuda:0) = onnx::Gather[axis=-2](%46, %119) # C:\Users\sberti\PycharmProjects\ISBFSAR\modules\ar\trx\utils\model.py:68:0
  %582 : Long(2, strides=[1], device=cpu) = onnx::Constant[value= 1 -1 [ CPULongType{2} ]]()
  %583 : Float(1, 1024, strides=[1024, 1], requires_grad=1, device=cuda:0) = onnx::Reshape(%581, %582) # C:\Users\sberti\PycharmProjects\ISBFSAR\modules\ar\trx\utils\model.py:68:0
  %584 : Float(1, 2, 512, strides=[1024, 512, 1], requires_grad=1, device=cuda:0) = onnx::Gather[axis=-2](%46, %123) # C:\Users\sberti\PycharmProjects\ISBFSAR\modules\ar\trx\utils\model.py:68:0
  %585 : Long(2, strides=[1], device=cpu) = onnx::Constant[value= 1 -1 [ CPULongType{2} ]]()
  %586 : Float(1, 1024, strides=[1024, 1], requires_grad=1, device=cuda:0) = onnx::Reshape(%584, %585) # C:\Users\sberti\PycharmProjects\ISBFSAR\modules\ar\trx\utils\model.py:68:0
  %587 : Float(1, 2, 512, strides=[1024, 512, 1], requires_grad=1, device=cuda:0) = onnx::Gather[axis=-2](%46, %127) # C:\Users\sberti\PycharmProjects\ISBFSAR\modules\ar\trx\utils\model.py:68:0
  %588 : Long(2, strides=[1], device=cpu) = onnx::Constant[value= 1 -1 [ CPULongType{2} ]]()
  %589 : Float(1, 1024, strides=[1024, 1], requires_grad=1, device=cuda:0) = onnx::Reshape(%587, %588) # C:\Users\sberti\PycharmProjects\ISBFSAR\modules\ar\trx\utils\model.py:68:0
  %590 : Float(1, 2, 512, strides=[1024, 512, 1], requires_grad=1, device=cuda:0) = onnx::Gather[axis=-2](%46, %131) # C:\Users\sberti\PycharmProjects\ISBFSAR\modules\ar\trx\utils\model.py:68:0
  %591 : Long(2, strides=[1], device=cpu) = onnx::Constant[value= 1 -1 [ CPULongType{2} ]]()
  %592 : Float(1, 1024, strides=[1024, 1], requires_grad=1, device=cuda:0) = onnx::Reshape(%590, %591) # C:\Users\sberti\PycharmProjects\ISBFSAR\modules\ar\trx\utils\model.py:68:0
  %593 : Float(1, 2, 512, strides=[1024, 512, 1], requires_grad=1, device=cuda:0) = onnx::Gather[axis=-2](%46, %135) # C:\Users\sberti\PycharmProjects\ISBFSAR\modules\ar\trx\utils\model.py:68:0
  %594 : Long(2, strides=[1], device=cpu) = onnx::Constant[value= 1 -1 [ CPULongType{2} ]]()
  %595 : Float(1, 1024, strides=[1024, 1], requires_grad=1, device=cuda:0) = onnx::Reshape(%593, %594) # C:\Users\sberti\PycharmProjects\ISBFSAR\modules\ar\trx\utils\model.py:68:0
  %596 : Float(1, 2, 512, strides=[1024, 512, 1], requires_grad=1, device=cuda:0) = onnx::Gather[axis=-2](%46, %139) # C:\Users\sberti\PycharmProjects\ISBFSAR\modules\ar\trx\utils\model.py:68:0
  %597 : Long(2, strides=[1], device=cpu) = onnx::Constant[value= 1 -1 [ CPULongType{2} ]]()
  %598 : Float(1, 1024, strides=[1024, 1], requires_grad=1, device=cuda:0) = onnx::Reshape(%596, %597) # C:\Users\sberti\PycharmProjects\ISBFSAR\modules\ar\trx\utils\model.py:68:0
  %599 : Float(1, 2, 512, strides=[1024, 512, 1], requires_grad=1, device=cuda:0) = onnx::Gather[axis=-2](%46, %143) # C:\Users\sberti\PycharmProjects\ISBFSAR\modules\ar\trx\utils\model.py:68:0
  %600 : Long(2, strides=[1], device=cpu) = onnx::Constant[value= 1 -1 [ CPULongType{2} ]]()
  %601 : Float(1, 1024, strides=[1024, 1], requires_grad=1, device=cuda:0) = onnx::Reshape(%599, %600) # C:\Users\sberti\PycharmProjects\ISBFSAR\modules\ar\trx\utils\model.py:68:0
  %602 : Float(1, 2, 512, strides=[1024, 512, 1], requires_grad=1, device=cuda:0) = onnx::Gather[axis=-2](%46, %147) # C:\Users\sberti\PycharmProjects\ISBFSAR\modules\ar\trx\utils\model.py:68:0
  %603 : Long(2, strides=[1], device=cpu) = onnx::Constant[value= 1 -1 [ CPULongType{2} ]]()
  %604 : Float(1, 1024, strides=[1024, 1], requires_grad=1, device=cuda:0) = onnx::Reshape(%602, %603) # C:\Users\sberti\PycharmProjects\ISBFSAR\modules\ar\trx\utils\model.py:68:0
  %605 : Float(1, 2, 512, strides=[1024, 512, 1], requires_grad=1, device=cuda:0) = onnx::Gather[axis=-2](%46, %151) # C:\Users\sberti\PycharmProjects\ISBFSAR\modules\ar\trx\utils\model.py:68:0
  %606 : Long(2, strides=[1], device=cpu) = onnx::Constant[value= 1 -1 [ CPULongType{2} ]]()
  %607 : Float(1, 1024, strides=[1024, 1], requires_grad=1, device=cuda:0) = onnx::Reshape(%605, %606) # C:\Users\sberti\PycharmProjects\ISBFSAR\modules\ar\trx\utils\model.py:68:0
  %608 : Float(1, 2, 512, strides=[1024, 512, 1], requires_grad=1, device=cuda:0) = onnx::Gather[axis=-2](%46, %155) # C:\Users\sberti\PycharmProjects\ISBFSAR\modules\ar\trx\utils\model.py:68:0
  %609 : Long(2, strides=[1], device=cpu) = onnx::Constant[value= 1 -1 [ CPULongType{2} ]]()
  %610 : Float(1, 1024, strides=[1024, 1], requires_grad=1, device=cuda:0) = onnx::Reshape(%608, %609) # C:\Users\sberti\PycharmProjects\ISBFSAR\modules\ar\trx\utils\model.py:68:0
  %611 : Float(1, 2, 512, strides=[1024, 512, 1], requires_grad=1, device=cuda:0) = onnx::Gather[axis=-2](%46, %159) # C:\Users\sberti\PycharmProjects\ISBFSAR\modules\ar\trx\utils\model.py:68:0
  %612 : Long(2, strides=[1], device=cpu) = onnx::Constant[value= 1 -1 [ CPULongType{2} ]]()
  %613 : Float(1, 1024, strides=[1024, 1], requires_grad=1, device=cuda:0) = onnx::Reshape(%611, %612) # C:\Users\sberti\PycharmProjects\ISBFSAR\modules\ar\trx\utils\model.py:68:0
  %614 : Float(1, 2, 512, strides=[1024, 512, 1], requires_grad=1, device=cuda:0) = onnx::Gather[axis=-2](%46, %163) # C:\Users\sberti\PycharmProjects\ISBFSAR\modules\ar\trx\utils\model.py:68:0
  %615 : Long(2, strides=[1], device=cpu) = onnx::Constant[value= 1 -1 [ CPULongType{2} ]]()
  %616 : Float(1, 1024, strides=[1024, 1], requires_grad=1, device=cuda:0) = onnx::Reshape(%614, %615) # C:\Users\sberti\PycharmProjects\ISBFSAR\modules\ar\trx\utils\model.py:68:0
  %617 : Float(1, 2, 512, strides=[1024, 512, 1], requires_grad=1, device=cuda:0) = onnx::Gather[axis=-2](%46, %167) # C:\Users\sberti\PycharmProjects\ISBFSAR\modules\ar\trx\utils\model.py:68:0
  %618 : Long(2, strides=[1], device=cpu) = onnx::Constant[value= 1 -1 [ CPULongType{2} ]]()
  %619 : Float(1, 1024, strides=[1024, 1], requires_grad=1, device=cuda:0) = onnx::Reshape(%617, %618) # C:\Users\sberti\PycharmProjects\ISBFSAR\modules\ar\trx\utils\model.py:68:0
  %620 : Float(1, 2, 512, strides=[1024, 512, 1], requires_grad=1, device=cuda:0) = onnx::Gather[axis=-2](%46, %171) # C:\Users\sberti\PycharmProjects\ISBFSAR\modules\ar\trx\utils\model.py:68:0
  %621 : Long(2, strides=[1], device=cpu) = onnx::Constant[value= 1 -1 [ CPULongType{2} ]]()
  %622 : Float(1, 1024, strides=[1024, 1], requires_grad=1, device=cuda:0) = onnx::Reshape(%620, %621) # C:\Users\sberti\PycharmProjects\ISBFSAR\modules\ar\trx\utils\model.py:68:0
  %623 : Float(1, 2, 512, strides=[1024, 512, 1], requires_grad=1, device=cuda:0) = onnx::Gather[axis=-2](%46, %175) # C:\Users\sberti\PycharmProjects\ISBFSAR\modules\ar\trx\utils\model.py:68:0
  %624 : Long(2, strides=[1], device=cpu) = onnx::Constant[value= 1 -1 [ CPULongType{2} ]]()
  %625 : Float(1, 1024, strides=[1024, 1], requires_grad=1, device=cuda:0) = onnx::Reshape(%623, %624) # C:\Users\sberti\PycharmProjects\ISBFSAR\modules\ar\trx\utils\model.py:68:0
  %626 : Float(1, 2, 512, strides=[1024, 512, 1], requires_grad=1, device=cuda:0) = onnx::Gather[axis=-2](%46, %179) # C:\Users\sberti\PycharmProjects\ISBFSAR\modules\ar\trx\utils\model.py:68:0
  %627 : Long(2, strides=[1], device=cpu) = onnx::Constant[value= 1 -1 [ CPULongType{2} ]]()
  %628 : Float(1, 1024, strides=[1024, 1], requires_grad=1, device=cuda:0) = onnx::Reshape(%626, %627) # C:\Users\sberti\PycharmProjects\ISBFSAR\modules\ar\trx\utils\model.py:68:0
  %629 : Float(1, 2, 512, strides=[1024, 512, 1], requires_grad=1, device=cuda:0) = onnx::Gather[axis=-2](%46, %183) # C:\Users\sberti\PycharmProjects\ISBFSAR\modules\ar\trx\utils\model.py:68:0
  %630 : Long(2, strides=[1], device=cpu) = onnx::Constant[value= 1 -1 [ CPULongType{2} ]]()
  %631 : Float(1, 1024, strides=[1024, 1], requires_grad=1, device=cuda:0) = onnx::Reshape(%629, %630) # C:\Users\sberti\PycharmProjects\ISBFSAR\modules\ar\trx\utils\model.py:68:0
  %632 : Float(1, 2, 512, strides=[1024, 512, 1], requires_grad=1, device=cuda:0) = onnx::Gather[axis=-2](%46, %187) # C:\Users\sberti\PycharmProjects\ISBFSAR\modules\ar\trx\utils\model.py:68:0
  %633 : Long(2, strides=[1], device=cpu) = onnx::Constant[value= 1 -1 [ CPULongType{2} ]]()
  %634 : Float(1, 1024, strides=[1024, 1], requires_grad=1, device=cuda:0) = onnx::Reshape(%632, %633) # C:\Users\sberti\PycharmProjects\ISBFSAR\modules\ar\trx\utils\model.py:68:0
  %635 : Float(1, 2, 512, strides=[1024, 512, 1], requires_grad=1, device=cuda:0) = onnx::Gather[axis=-2](%46, %191) # C:\Users\sberti\PycharmProjects\ISBFSAR\modules\ar\trx\utils\model.py:68:0
  %636 : Long(2, strides=[1], device=cpu) = onnx::Constant[value= 1 -1 [ CPULongType{2} ]]()
  %637 : Float(1, 1024, strides=[1024, 1], requires_grad=1, device=cuda:0) = onnx::Reshape(%635, %636) # C:\Users\sberti\PycharmProjects\ISBFSAR\modules\ar\trx\utils\model.py:68:0
  %638 : Float(1, 2, 512, strides=[1024, 512, 1], requires_grad=1, device=cuda:0) = onnx::Gather[axis=-2](%46, %195) # C:\Users\sberti\PycharmProjects\ISBFSAR\modules\ar\trx\utils\model.py:68:0
  %639 : Long(2, strides=[1], device=cpu) = onnx::Constant[value= 1 -1 [ CPULongType{2} ]]()
  %640 : Float(1, 1024, strides=[1024, 1], requires_grad=1, device=cuda:0) = onnx::Reshape(%638, %639) # C:\Users\sberti\PycharmProjects\ISBFSAR\modules\ar\trx\utils\model.py:68:0
  %641 : Float(1, 2, 512, strides=[1024, 512, 1], requires_grad=1, device=cuda:0) = onnx::Gather[axis=-2](%46, %199) # C:\Users\sberti\PycharmProjects\ISBFSAR\modules\ar\trx\utils\model.py:68:0
  %642 : Long(2, strides=[1], device=cpu) = onnx::Constant[value= 1 -1 [ CPULongType{2} ]]()
  %643 : Float(1, 1024, strides=[1024, 1], requires_grad=1, device=cuda:0) = onnx::Reshape(%641, %642) # C:\Users\sberti\PycharmProjects\ISBFSAR\modules\ar\trx\utils\model.py:68:0
  %644 : Float(1, 2, 512, strides=[1024, 512, 1], requires_grad=1, device=cuda:0) = onnx::Gather[axis=-2](%46, %203) # C:\Users\sberti\PycharmProjects\ISBFSAR\modules\ar\trx\utils\model.py:68:0
  %645 : Long(2, strides=[1], device=cpu) = onnx::Constant[value= 1 -1 [ CPULongType{2} ]]()
  %646 : Float(1, 1024, strides=[1024, 1], requires_grad=1, device=cuda:0) = onnx::Reshape(%644, %645) # C:\Users\sberti\PycharmProjects\ISBFSAR\modules\ar\trx\utils\model.py:68:0
  %647 : Float(1, 2, 512, strides=[1024, 512, 1], requires_grad=1, device=cuda:0) = onnx::Gather[axis=-2](%46, %207) # C:\Users\sberti\PycharmProjects\ISBFSAR\modules\ar\trx\utils\model.py:68:0
  %648 : Long(2, strides=[1], device=cpu) = onnx::Constant[value= 1 -1 [ CPULongType{2} ]]()
  %649 : Float(1, 1024, strides=[1024, 1], requires_grad=1, device=cuda:0) = onnx::Reshape(%647, %648) # C:\Users\sberti\PycharmProjects\ISBFSAR\modules\ar\trx\utils\model.py:68:0
  %650 : Float(1, 2, 512, strides=[1024, 512, 1], requires_grad=1, device=cuda:0) = onnx::Gather[axis=-2](%46, %211) # C:\Users\sberti\PycharmProjects\ISBFSAR\modules\ar\trx\utils\model.py:68:0
  %651 : Long(2, strides=[1], device=cpu) = onnx::Constant[value= 1 -1 [ CPULongType{2} ]]()
  %652 : Float(1, 1024, strides=[1024, 1], requires_grad=1, device=cuda:0) = onnx::Reshape(%650, %651) # C:\Users\sberti\PycharmProjects\ISBFSAR\modules\ar\trx\utils\model.py:68:0
  %653 : Float(1, 2, 512, strides=[1024, 512, 1], requires_grad=1, device=cuda:0) = onnx::Gather[axis=-2](%46, %215) # C:\Users\sberti\PycharmProjects\ISBFSAR\modules\ar\trx\utils\model.py:68:0
  %654 : Long(2, strides=[1], device=cpu) = onnx::Constant[value= 1 -1 [ CPULongType{2} ]]()
  %655 : Float(1, 1024, strides=[1024, 1], requires_grad=1, device=cuda:0) = onnx::Reshape(%653, %654) # C:\Users\sberti\PycharmProjects\ISBFSAR\modules\ar\trx\utils\model.py:68:0
  %656 : Float(1, 2, 512, strides=[1024, 512, 1], requires_grad=1, device=cuda:0) = onnx::Gather[axis=-2](%46, %219) # C:\Users\sberti\PycharmProjects\ISBFSAR\modules\ar\trx\utils\model.py:68:0
  %657 : Long(2, strides=[1], device=cpu) = onnx::Constant[value= 1 -1 [ CPULongType{2} ]]()
  %658 : Float(1, 1024, strides=[1024, 1], requires_grad=1, device=cuda:0) = onnx::Reshape(%656, %657) # C:\Users\sberti\PycharmProjects\ISBFSAR\modules\ar\trx\utils\model.py:68:0
  %659 : Float(1, 2, 512, strides=[1024, 512, 1], requires_grad=1, device=cuda:0) = onnx::Gather[axis=-2](%46, %223) # C:\Users\sberti\PycharmProjects\ISBFSAR\modules\ar\trx\utils\model.py:68:0
  %660 : Long(2, strides=[1], device=cpu) = onnx::Constant[value= 1 -1 [ CPULongType{2} ]]()
  %661 : Float(1, 1024, strides=[1024, 1], requires_grad=1, device=cuda:0) = onnx::Reshape(%659, %660) # C:\Users\sberti\PycharmProjects\ISBFSAR\modules\ar\trx\utils\model.py:68:0
  %662 : Float(1, 2, 512, strides=[1024, 512, 1], requires_grad=1, device=cuda:0) = onnx::Gather[axis=-2](%46, %227) # C:\Users\sberti\PycharmProjects\ISBFSAR\modules\ar\trx\utils\model.py:68:0
  %663 : Long(2, strides=[1], device=cpu) = onnx::Constant[value= 1 -1 [ CPULongType{2} ]]()
  %664 : Float(1, 1024, strides=[1024, 1], requires_grad=1, device=cuda:0) = onnx::Reshape(%662, %663) # C:\Users\sberti\PycharmProjects\ISBFSAR\modules\ar\trx\utils\model.py:68:0
  %665 : Float(1, 2, 512, strides=[1024, 512, 1], requires_grad=1, device=cuda:0) = onnx::Gather[axis=-2](%46, %231) # C:\Users\sberti\PycharmProjects\ISBFSAR\modules\ar\trx\utils\model.py:68:0
  %666 : Long(2, strides=[1], device=cpu) = onnx::Constant[value= 1 -1 [ CPULongType{2} ]]()
  %667 : Float(1, 1024, strides=[1024, 1], requires_grad=1, device=cuda:0) = onnx::Reshape(%665, %666) # C:\Users\sberti\PycharmProjects\ISBFSAR\modules\ar\trx\utils\model.py:68:0
  %668 : Float(1, 2, 512, strides=[1024, 512, 1], requires_grad=1, device=cuda:0) = onnx::Gather[axis=-2](%46, %235) # C:\Users\sberti\PycharmProjects\ISBFSAR\modules\ar\trx\utils\model.py:68:0
  %669 : Long(2, strides=[1], device=cpu) = onnx::Constant[value= 1 -1 [ CPULongType{2} ]]()
  %670 : Float(1, 1024, strides=[1024, 1], requires_grad=1, device=cuda:0) = onnx::Reshape(%668, %669) # C:\Users\sberti\PycharmProjects\ISBFSAR\modules\ar\trx\utils\model.py:68:0
  %671 : Float(1, 2, 512, strides=[1024, 512, 1], requires_grad=1, device=cuda:0) = onnx::Gather[axis=-2](%46, %239) # C:\Users\sberti\PycharmProjects\ISBFSAR\modules\ar\trx\utils\model.py:68:0
  %672 : Long(2, strides=[1], device=cpu) = onnx::Constant[value= 1 -1 [ CPULongType{2} ]]()
  %673 : Float(1, 1024, strides=[1024, 1], requires_grad=1, device=cuda:0) = onnx::Reshape(%671, %672) # C:\Users\sberti\PycharmProjects\ISBFSAR\modules\ar\trx\utils\model.py:68:0
  %674 : Float(1, 2, 512, strides=[1024, 512, 1], requires_grad=1, device=cuda:0) = onnx::Gather[axis=-2](%46, %243) # C:\Users\sberti\PycharmProjects\ISBFSAR\modules\ar\trx\utils\model.py:68:0
  %675 : Long(2, strides=[1], device=cpu) = onnx::Constant[value= 1 -1 [ CPULongType{2} ]]()
  %676 : Float(1, 1024, strides=[1024, 1], requires_grad=1, device=cuda:0) = onnx::Reshape(%674, %675) # C:\Users\sberti\PycharmProjects\ISBFSAR\modules\ar\trx\utils\model.py:68:0
  %677 : Float(1, 2, 512, strides=[1024, 512, 1], requires_grad=1, device=cuda:0) = onnx::Gather[axis=-2](%46, %247) # C:\Users\sberti\PycharmProjects\ISBFSAR\modules\ar\trx\utils\model.py:68:0
  %678 : Long(2, strides=[1], device=cpu) = onnx::Constant[value= 1 -1 [ CPULongType{2} ]]()
  %679 : Float(1, 1024, strides=[1024, 1], requires_grad=1, device=cuda:0) = onnx::Reshape(%677, %678) # C:\Users\sberti\PycharmProjects\ISBFSAR\modules\ar\trx\utils\model.py:68:0
  %680 : Float(1, 2, 512, strides=[1024, 512, 1], requires_grad=1, device=cuda:0) = onnx::Gather[axis=-2](%46, %251) # C:\Users\sberti\PycharmProjects\ISBFSAR\modules\ar\trx\utils\model.py:68:0
  %681 : Long(2, strides=[1], device=cpu) = onnx::Constant[value= 1 -1 [ CPULongType{2} ]]()
  %682 : Float(1, 1024, strides=[1024, 1], requires_grad=1, device=cuda:0) = onnx::Reshape(%680, %681) # C:\Users\sberti\PycharmProjects\ISBFSAR\modules\ar\trx\utils\model.py:68:0
  %683 : Float(1, 2, 512, strides=[1024, 512, 1], requires_grad=1, device=cuda:0) = onnx::Gather[axis=-2](%46, %255) # C:\Users\sberti\PycharmProjects\ISBFSAR\modules\ar\trx\utils\model.py:68:0
  %684 : Long(2, strides=[1], device=cpu) = onnx::Constant[value= 1 -1 [ CPULongType{2} ]]()
  %685 : Float(1, 1024, strides=[1024, 1], requires_grad=1, device=cuda:0) = onnx::Reshape(%683, %684) # C:\Users\sberti\PycharmProjects\ISBFSAR\modules\ar\trx\utils\model.py:68:0
  %686 : Float(1, 2, 512, strides=[1024, 512, 1], requires_grad=1, device=cuda:0) = onnx::Gather[axis=-2](%46, %259) # C:\Users\sberti\PycharmProjects\ISBFSAR\modules\ar\trx\utils\model.py:68:0
  %687 : Long(2, strides=[1], device=cpu) = onnx::Constant[value= 1 -1 [ CPULongType{2} ]]()
  %688 : Float(1, 1024, strides=[1024, 1], requires_grad=1, device=cuda:0) = onnx::Reshape(%686, %687) # C:\Users\sberti\PycharmProjects\ISBFSAR\modules\ar\trx\utils\model.py:68:0
  %689 : Float(1, 2, 512, strides=[1024, 512, 1], requires_grad=1, device=cuda:0) = onnx::Gather[axis=-2](%46, %263) # C:\Users\sberti\PycharmProjects\ISBFSAR\modules\ar\trx\utils\model.py:68:0
  %690 : Long(2, strides=[1], device=cpu) = onnx::Constant[value= 1 -1 [ CPULongType{2} ]]()
  %691 : Float(1, 1024, strides=[1024, 1], requires_grad=1, device=cuda:0) = onnx::Reshape(%689, %690) # C:\Users\sberti\PycharmProjects\ISBFSAR\modules\ar\trx\utils\model.py:68:0
  %692 : Float(1, 2, 512, strides=[1024, 512, 1], requires_grad=1, device=cuda:0) = onnx::Gather[axis=-2](%46, %267) # C:\Users\sberti\PycharmProjects\ISBFSAR\modules\ar\trx\utils\model.py:68:0
  %693 : Long(2, strides=[1], device=cpu) = onnx::Constant[value= 1 -1 [ CPULongType{2} ]]()
  %694 : Float(1, 1024, strides=[1024, 1], requires_grad=1, device=cuda:0) = onnx::Reshape(%692, %693) # C:\Users\sberti\PycharmProjects\ISBFSAR\modules\ar\trx\utils\model.py:68:0
  %695 : Float(1, 2, 512, strides=[1024, 512, 1], requires_grad=1, device=cuda:0) = onnx::Gather[axis=-2](%46, %271) # C:\Users\sberti\PycharmProjects\ISBFSAR\modules\ar\trx\utils\model.py:68:0
  %696 : Long(2, strides=[1], device=cpu) = onnx::Constant[value= 1 -1 [ CPULongType{2} ]]()
  %697 : Float(1, 1024, strides=[1024, 1], requires_grad=1, device=cuda:0) = onnx::Reshape(%695, %696) # C:\Users\sberti\PycharmProjects\ISBFSAR\modules\ar\trx\utils\model.py:68:0
  %698 : Float(1, 2, 512, strides=[1024, 512, 1], requires_grad=1, device=cuda:0) = onnx::Gather[axis=-2](%46, %275) # C:\Users\sberti\PycharmProjects\ISBFSAR\modules\ar\trx\utils\model.py:68:0
  %699 : Long(2, strides=[1], device=cpu) = onnx::Constant[value= 1 -1 [ CPULongType{2} ]]()
  %700 : Float(1, 1024, strides=[1024, 1], requires_grad=1, device=cuda:0) = onnx::Reshape(%698, %699) # C:\Users\sberti\PycharmProjects\ISBFSAR\modules\ar\trx\utils\model.py:68:0
  %701 : Float(1, 2, 512, strides=[1024, 512, 1], requires_grad=1, device=cuda:0) = onnx::Gather[axis=-2](%46, %279) # C:\Users\sberti\PycharmProjects\ISBFSAR\modules\ar\trx\utils\model.py:68:0
  %702 : Long(2, strides=[1], device=cpu) = onnx::Constant[value= 1 -1 [ CPULongType{2} ]]()
  %703 : Float(1, 1024, strides=[1024, 1], requires_grad=1, device=cuda:0) = onnx::Reshape(%701, %702) # C:\Users\sberti\PycharmProjects\ISBFSAR\modules\ar\trx\utils\model.py:68:0
  %704 : Float(1, 2, 512, strides=[1024, 512, 1], requires_grad=1, device=cuda:0) = onnx::Gather[axis=-2](%46, %283) # C:\Users\sberti\PycharmProjects\ISBFSAR\modules\ar\trx\utils\model.py:68:0
  %705 : Long(2, strides=[1], device=cpu) = onnx::Constant[value= 1 -1 [ CPULongType{2} ]]()
  %706 : Float(1, 1024, strides=[1024, 1], requires_grad=1, device=cuda:0) = onnx::Reshape(%704, %705) # C:\Users\sberti\PycharmProjects\ISBFSAR\modules\ar\trx\utils\model.py:68:0
  %707 : Float(1, 2, 512, strides=[1024, 512, 1], requires_grad=1, device=cuda:0) = onnx::Gather[axis=-2](%46, %287) # C:\Users\sberti\PycharmProjects\ISBFSAR\modules\ar\trx\utils\model.py:68:0
  %708 : Long(2, strides=[1], device=cpu) = onnx::Constant[value= 1 -1 [ CPULongType{2} ]]()
  %709 : Float(1, 1024, strides=[1024, 1], requires_grad=1, device=cuda:0) = onnx::Reshape(%707, %708) # C:\Users\sberti\PycharmProjects\ISBFSAR\modules\ar\trx\utils\model.py:68:0
  %710 : Float(1, 2, 512, strides=[1024, 512, 1], requires_grad=1, device=cuda:0) = onnx::Gather[axis=-2](%46, %291) # C:\Users\sberti\PycharmProjects\ISBFSAR\modules\ar\trx\utils\model.py:68:0
  %711 : Long(2, strides=[1], device=cpu) = onnx::Constant[value= 1 -1 [ CPULongType{2} ]]()
  %712 : Float(1, 1024, strides=[1024, 1], requires_grad=1, device=cuda:0) = onnx::Reshape(%710, %711) # C:\Users\sberti\PycharmProjects\ISBFSAR\modules\ar\trx\utils\model.py:68:0
  %713 : Float(1, 2, 512, strides=[1024, 512, 1], requires_grad=1, device=cuda:0) = onnx::Gather[axis=-2](%46, %295) # C:\Users\sberti\PycharmProjects\ISBFSAR\modules\ar\trx\utils\model.py:68:0
  %714 : Long(2, strides=[1], device=cpu) = onnx::Constant[value= 1 -1 [ CPULongType{2} ]]()
  %715 : Float(1, 1024, strides=[1024, 1], requires_grad=1, device=cuda:0) = onnx::Reshape(%713, %714) # C:\Users\sberti\PycharmProjects\ISBFSAR\modules\ar\trx\utils\model.py:68:0
  %716 : Float(1, 2, 512, strides=[1024, 512, 1], requires_grad=1, device=cuda:0) = onnx::Gather[axis=-2](%46, %299) # C:\Users\sberti\PycharmProjects\ISBFSAR\modules\ar\trx\utils\model.py:68:0
  %717 : Long(2, strides=[1], device=cpu) = onnx::Constant[value= 1 -1 [ CPULongType{2} ]]()
  %718 : Float(1, 1024, strides=[1024, 1], requires_grad=1, device=cuda:0) = onnx::Reshape(%716, %717) # C:\Users\sberti\PycharmProjects\ISBFSAR\modules\ar\trx\utils\model.py:68:0
  %719 : Float(1, 2, 512, strides=[1024, 512, 1], requires_grad=1, device=cuda:0) = onnx::Gather[axis=-2](%46, %303) # C:\Users\sberti\PycharmProjects\ISBFSAR\modules\ar\trx\utils\model.py:68:0
  %720 : Long(2, strides=[1], device=cpu) = onnx::Constant[value= 1 -1 [ CPULongType{2} ]]()
  %721 : Float(1, 1024, strides=[1024, 1], requires_grad=1, device=cuda:0) = onnx::Reshape(%719, %720) # C:\Users\sberti\PycharmProjects\ISBFSAR\modules\ar\trx\utils\model.py:68:0
  %722 : Float(1, 2, 512, strides=[1024, 512, 1], requires_grad=1, device=cuda:0) = onnx::Gather[axis=-2](%46, %307) # C:\Users\sberti\PycharmProjects\ISBFSAR\modules\ar\trx\utils\model.py:68:0
  %723 : Long(2, strides=[1], device=cpu) = onnx::Constant[value= 1 -1 [ CPULongType{2} ]]()
  %724 : Float(1, 1024, strides=[1024, 1], requires_grad=1, device=cuda:0) = onnx::Reshape(%722, %723) # C:\Users\sberti\PycharmProjects\ISBFSAR\modules\ar\trx\utils\model.py:68:0
  %725 : Float(1, 2, 512, strides=[1024, 512, 1], requires_grad=1, device=cuda:0) = onnx::Gather[axis=-2](%46, %311) # C:\Users\sberti\PycharmProjects\ISBFSAR\modules\ar\trx\utils\model.py:68:0
  %726 : Long(2, strides=[1], device=cpu) = onnx::Constant[value= 1 -1 [ CPULongType{2} ]]()
  %727 : Float(1, 1024, strides=[1024, 1], requires_grad=1, device=cuda:0) = onnx::Reshape(%725, %726) # C:\Users\sberti\PycharmProjects\ISBFSAR\modules\ar\trx\utils\model.py:68:0
  %728 : Float(1, 2, 512, strides=[1024, 512, 1], requires_grad=1, device=cuda:0) = onnx::Gather[axis=-2](%46, %315) # C:\Users\sberti\PycharmProjects\ISBFSAR\modules\ar\trx\utils\model.py:68:0
  %729 : Long(2, strides=[1], device=cpu) = onnx::Constant[value= 1 -1 [ CPULongType{2} ]]()
  %730 : Float(1, 1024, strides=[1024, 1], requires_grad=1, device=cuda:0) = onnx::Reshape(%728, %729) # C:\Users\sberti\PycharmProjects\ISBFSAR\modules\ar\trx\utils\model.py:68:0
  %731 : Float(1, 2, 512, strides=[1024, 512, 1], requires_grad=1, device=cuda:0) = onnx::Gather[axis=-2](%46, %319) # C:\Users\sberti\PycharmProjects\ISBFSAR\modules\ar\trx\utils\model.py:68:0
  %732 : Long(2, strides=[1], device=cpu) = onnx::Constant[value= 1 -1 [ CPULongType{2} ]]()
  %733 : Float(1, 1024, strides=[1024, 1], requires_grad=1, device=cuda:0) = onnx::Reshape(%731, %732) # C:\Users\sberti\PycharmProjects\ISBFSAR\modules\ar\trx\utils\model.py:68:0
  %734 : Float(1, 2, 512, strides=[1024, 512, 1], requires_grad=1, device=cuda:0) = onnx::Gather[axis=-2](%46, %323) # C:\Users\sberti\PycharmProjects\ISBFSAR\modules\ar\trx\utils\model.py:68:0
  %735 : Long(2, strides=[1], device=cpu) = onnx::Constant[value= 1 -1 [ CPULongType{2} ]]()
  %736 : Float(1, 1024, strides=[1024, 1], requires_grad=1, device=cuda:0) = onnx::Reshape(%734, %735) # C:\Users\sberti\PycharmProjects\ISBFSAR\modules\ar\trx\utils\model.py:68:0
  %737 : Float(1, 2, 512, strides=[1024, 512, 1], requires_grad=1, device=cuda:0) = onnx::Gather[axis=-2](%46, %327) # C:\Users\sberti\PycharmProjects\ISBFSAR\modules\ar\trx\utils\model.py:68:0
  %738 : Long(2, strides=[1], device=cpu) = onnx::Constant[value= 1 -1 [ CPULongType{2} ]]()
  %739 : Float(1, 1024, strides=[1024, 1], requires_grad=1, device=cuda:0) = onnx::Reshape(%737, %738) # C:\Users\sberti\PycharmProjects\ISBFSAR\modules\ar\trx\utils\model.py:68:0
  %740 : Float(1, 2, 512, strides=[1024, 512, 1], requires_grad=1, device=cuda:0) = onnx::Gather[axis=-2](%46, %331) # C:\Users\sberti\PycharmProjects\ISBFSAR\modules\ar\trx\utils\model.py:68:0
  %741 : Long(2, strides=[1], device=cpu) = onnx::Constant[value= 1 -1 [ CPULongType{2} ]]()
  %742 : Float(1, 1024, strides=[1024, 1], requires_grad=1, device=cuda:0) = onnx::Reshape(%740, %741) # C:\Users\sberti\PycharmProjects\ISBFSAR\modules\ar\trx\utils\model.py:68:0
  %743 : Float(1, 2, 512, strides=[1024, 512, 1], requires_grad=1, device=cuda:0) = onnx::Gather[axis=-2](%46, %335) # C:\Users\sberti\PycharmProjects\ISBFSAR\modules\ar\trx\utils\model.py:68:0
  %744 : Long(2, strides=[1], device=cpu) = onnx::Constant[value= 1 -1 [ CPULongType{2} ]]()
  %745 : Float(1, 1024, strides=[1024, 1], requires_grad=1, device=cuda:0) = onnx::Reshape(%743, %744) # C:\Users\sberti\PycharmProjects\ISBFSAR\modules\ar\trx\utils\model.py:68:0
  %746 : Float(1, 2, 512, strides=[1024, 512, 1], requires_grad=1, device=cuda:0) = onnx::Gather[axis=-2](%46, %339) # C:\Users\sberti\PycharmProjects\ISBFSAR\modules\ar\trx\utils\model.py:68:0
  %747 : Long(2, strides=[1], device=cpu) = onnx::Constant[value= 1 -1 [ CPULongType{2} ]]()
  %748 : Float(1, 1024, strides=[1024, 1], requires_grad=1, device=cuda:0) = onnx::Reshape(%746, %747) # C:\Users\sberti\PycharmProjects\ISBFSAR\modules\ar\trx\utils\model.py:68:0
  %749 : Float(1, 2, 512, strides=[1024, 512, 1], requires_grad=1, device=cuda:0) = onnx::Gather[axis=-2](%46, %343) # C:\Users\sberti\PycharmProjects\ISBFSAR\modules\ar\trx\utils\model.py:68:0
  %750 : Long(2, strides=[1], device=cpu) = onnx::Constant[value= 1 -1 [ CPULongType{2} ]]()
  %751 : Float(1, 1024, strides=[1024, 1], requires_grad=1, device=cuda:0) = onnx::Reshape(%749, %750) # C:\Users\sberti\PycharmProjects\ISBFSAR\modules\ar\trx\utils\model.py:68:0
  %752 : Float(1, 2, 512, strides=[1024, 512, 1], requires_grad=1, device=cuda:0) = onnx::Gather[axis=-2](%46, %347) # C:\Users\sberti\PycharmProjects\ISBFSAR\modules\ar\trx\utils\model.py:68:0
  %753 : Long(2, strides=[1], device=cpu) = onnx::Constant[value= 1 -1 [ CPULongType{2} ]]()
  %754 : Float(1, 1024, strides=[1024, 1], requires_grad=1, device=cuda:0) = onnx::Reshape(%752, %753) # C:\Users\sberti\PycharmProjects\ISBFSAR\modules\ar\trx\utils\model.py:68:0
  %755 : Float(1, 2, 512, strides=[1024, 512, 1], requires_grad=1, device=cuda:0) = onnx::Gather[axis=-2](%46, %351) # C:\Users\sberti\PycharmProjects\ISBFSAR\modules\ar\trx\utils\model.py:68:0
  %756 : Long(2, strides=[1], device=cpu) = onnx::Constant[value= 1 -1 [ CPULongType{2} ]]()
  %757 : Float(1, 1024, strides=[1024, 1], requires_grad=1, device=cuda:0) = onnx::Reshape(%755, %756) # C:\Users\sberti\PycharmProjects\ISBFSAR\modules\ar\trx\utils\model.py:68:0
  %758 : Float(1, 2, 512, strides=[1024, 512, 1], requires_grad=1, device=cuda:0) = onnx::Gather[axis=-2](%46, %355) # C:\Users\sberti\PycharmProjects\ISBFSAR\modules\ar\trx\utils\model.py:68:0
  %759 : Long(2, strides=[1], device=cpu) = onnx::Constant[value= 1 -1 [ CPULongType{2} ]]()
  %760 : Float(1, 1024, strides=[1024, 1], requires_grad=1, device=cuda:0) = onnx::Reshape(%758, %759) # C:\Users\sberti\PycharmProjects\ISBFSAR\modules\ar\trx\utils\model.py:68:0
  %761 : Float(1, 2, 512, strides=[1024, 512, 1], requires_grad=1, device=cuda:0) = onnx::Gather[axis=-2](%46, %359) # C:\Users\sberti\PycharmProjects\ISBFSAR\modules\ar\trx\utils\model.py:68:0
  %762 : Long(2, strides=[1], device=cpu) = onnx::Constant[value= 1 -1 [ CPULongType{2} ]]()
  %763 : Float(1, 1024, strides=[1024, 1], requires_grad=1, device=cuda:0) = onnx::Reshape(%761, %762) # C:\Users\sberti\PycharmProjects\ISBFSAR\modules\ar\trx\utils\model.py:68:0
  %764 : Float(1, 2, 512, strides=[1024, 512, 1], requires_grad=1, device=cuda:0) = onnx::Gather[axis=-2](%46, %363) # C:\Users\sberti\PycharmProjects\ISBFSAR\modules\ar\trx\utils\model.py:68:0
  %765 : Long(2, strides=[1], device=cpu) = onnx::Constant[value= 1 -1 [ CPULongType{2} ]]()
  %766 : Float(1, 1024, strides=[1024, 1], requires_grad=1, device=cuda:0) = onnx::Reshape(%764, %765) # C:\Users\sberti\PycharmProjects\ISBFSAR\modules\ar\trx\utils\model.py:68:0
  %767 : Float(1, 2, 512, strides=[1024, 512, 1], requires_grad=1, device=cuda:0) = onnx::Gather[axis=-2](%46, %367) # C:\Users\sberti\PycharmProjects\ISBFSAR\modules\ar\trx\utils\model.py:68:0
  %768 : Long(2, strides=[1], device=cpu) = onnx::Constant[value= 1 -1 [ CPULongType{2} ]]()
  %769 : Float(1, 1024, strides=[1024, 1], requires_grad=1, device=cuda:0) = onnx::Reshape(%767, %768) # C:\Users\sberti\PycharmProjects\ISBFSAR\modules\ar\trx\utils\model.py:68:0
  %770 : Float(1, 2, 512, strides=[1024, 512, 1], requires_grad=1, device=cuda:0) = onnx::Gather[axis=-2](%46, %371) # C:\Users\sberti\PycharmProjects\ISBFSAR\modules\ar\trx\utils\model.py:68:0
  %771 : Long(2, strides=[1], device=cpu) = onnx::Constant[value= 1 -1 [ CPULongType{2} ]]()
  %772 : Float(1, 1024, strides=[1024, 1], requires_grad=1, device=cuda:0) = onnx::Reshape(%770, %771) # C:\Users\sberti\PycharmProjects\ISBFSAR\modules\ar\trx\utils\model.py:68:0
  %773 : Float(1, 2, 512, strides=[1024, 512, 1], requires_grad=1, device=cuda:0) = onnx::Gather[axis=-2](%46, %375) # C:\Users\sberti\PycharmProjects\ISBFSAR\modules\ar\trx\utils\model.py:68:0
  %774 : Long(2, strides=[1], device=cpu) = onnx::Constant[value= 1 -1 [ CPULongType{2} ]]()
  %775 : Float(1, 1024, strides=[1024, 1], requires_grad=1, device=cuda:0) = onnx::Reshape(%773, %774) # C:\Users\sberti\PycharmProjects\ISBFSAR\modules\ar\trx\utils\model.py:68:0
  %776 : Float(1, 2, 512, strides=[1024, 512, 1], requires_grad=1, device=cuda:0) = onnx::Gather[axis=-2](%46, %379) # C:\Users\sberti\PycharmProjects\ISBFSAR\modules\ar\trx\utils\model.py:68:0
  %777 : Long(2, strides=[1], device=cpu) = onnx::Constant[value= 1 -1 [ CPULongType{2} ]]()
  %778 : Float(1, 1024, strides=[1024, 1], requires_grad=1, device=cuda:0) = onnx::Reshape(%776, %777) # C:\Users\sberti\PycharmProjects\ISBFSAR\modules\ar\trx\utils\model.py:68:0
  %779 : Float(1, 2, 512, strides=[1024, 512, 1], requires_grad=1, device=cuda:0) = onnx::Gather[axis=-2](%46, %383) # C:\Users\sberti\PycharmProjects\ISBFSAR\modules\ar\trx\utils\model.py:68:0
  %780 : Long(2, strides=[1], device=cpu) = onnx::Constant[value= 1 -1 [ CPULongType{2} ]]()
  %781 : Float(1, 1024, strides=[1024, 1], requires_grad=1, device=cuda:0) = onnx::Reshape(%779, %780) # C:\Users\sberti\PycharmProjects\ISBFSAR\modules\ar\trx\utils\model.py:68:0
  %782 : Float(1, 2, 512, strides=[1024, 512, 1], requires_grad=1, device=cuda:0) = onnx::Gather[axis=-2](%46, %387) # C:\Users\sberti\PycharmProjects\ISBFSAR\modules\ar\trx\utils\model.py:68:0
  %783 : Long(2, strides=[1], device=cpu) = onnx::Constant[value= 1 -1 [ CPULongType{2} ]]()
  %784 : Float(1, 1024, strides=[1024, 1], requires_grad=1, device=cuda:0) = onnx::Reshape(%782, %783) # C:\Users\sberti\PycharmProjects\ISBFSAR\modules\ar\trx\utils\model.py:68:0
  %785 : Float(1, 2, 512, strides=[1024, 512, 1], requires_grad=1, device=cuda:0) = onnx::Gather[axis=-2](%46, %391) # C:\Users\sberti\PycharmProjects\ISBFSAR\modules\ar\trx\utils\model.py:68:0
  %786 : Long(2, strides=[1], device=cpu) = onnx::Constant[value= 1 -1 [ CPULongType{2} ]]()
  %787 : Float(1, 1024, strides=[1024, 1], requires_grad=1, device=cuda:0) = onnx::Reshape(%785, %786) # C:\Users\sberti\PycharmProjects\ISBFSAR\modules\ar\trx\utils\model.py:68:0
  %788 : Float(1, 2, 512, strides=[1024, 512, 1], requires_grad=1, device=cuda:0) = onnx::Gather[axis=-2](%46, %395) # C:\Users\sberti\PycharmProjects\ISBFSAR\modules\ar\trx\utils\model.py:68:0
  %789 : Long(2, strides=[1], device=cpu) = onnx::Constant[value= 1 -1 [ CPULongType{2} ]]()
  %790 : Float(1, 1024, strides=[1024, 1], requires_grad=1, device=cuda:0) = onnx::Reshape(%788, %789) # C:\Users\sberti\PycharmProjects\ISBFSAR\modules\ar\trx\utils\model.py:68:0
  %791 : Float(1, 2, 512, strides=[1024, 512, 1], requires_grad=1, device=cuda:0) = onnx::Gather[axis=-2](%46, %399) # C:\Users\sberti\PycharmProjects\ISBFSAR\modules\ar\trx\utils\model.py:68:0
  %792 : Long(2, strides=[1], device=cpu) = onnx::Constant[value= 1 -1 [ CPULongType{2} ]]()
  %793 : Float(1, 1024, strides=[1024, 1], requires_grad=1, device=cuda:0) = onnx::Reshape(%791, %792) # C:\Users\sberti\PycharmProjects\ISBFSAR\modules\ar\trx\utils\model.py:68:0
  %794 : Float(1, 2, 512, strides=[1024, 512, 1], requires_grad=1, device=cuda:0) = onnx::Gather[axis=-2](%46, %403) # C:\Users\sberti\PycharmProjects\ISBFSAR\modules\ar\trx\utils\model.py:68:0
  %795 : Long(2, strides=[1], device=cpu) = onnx::Constant[value= 1 -1 [ CPULongType{2} ]]()
  %796 : Float(1, 1024, strides=[1024, 1], requires_grad=1, device=cuda:0) = onnx::Reshape(%794, %795) # C:\Users\sberti\PycharmProjects\ISBFSAR\modules\ar\trx\utils\model.py:68:0
  %797 : Float(1, 2, 512, strides=[1024, 512, 1], requires_grad=1, device=cuda:0) = onnx::Gather[axis=-2](%46, %407) # C:\Users\sberti\PycharmProjects\ISBFSAR\modules\ar\trx\utils\model.py:68:0
  %798 : Long(2, strides=[1], device=cpu) = onnx::Constant[value= 1 -1 [ CPULongType{2} ]]()
  %799 : Float(1, 1024, strides=[1024, 1], requires_grad=1, device=cuda:0) = onnx::Reshape(%797, %798) # C:\Users\sberti\PycharmProjects\ISBFSAR\modules\ar\trx\utils\model.py:68:0
  %800 : Float(1, 2, 512, strides=[1024, 512, 1], requires_grad=1, device=cuda:0) = onnx::Gather[axis=-2](%46, %411) # C:\Users\sberti\PycharmProjects\ISBFSAR\modules\ar\trx\utils\model.py:68:0
  %801 : Long(2, strides=[1], device=cpu) = onnx::Constant[value= 1 -1 [ CPULongType{2} ]]()
  %802 : Float(1, 1024, strides=[1024, 1], requires_grad=1, device=cuda:0) = onnx::Reshape(%800, %801) # C:\Users\sberti\PycharmProjects\ISBFSAR\modules\ar\trx\utils\model.py:68:0
  %803 : Float(1, 2, 512, strides=[1024, 512, 1], requires_grad=1, device=cuda:0) = onnx::Gather[axis=-2](%46, %415) # C:\Users\sberti\PycharmProjects\ISBFSAR\modules\ar\trx\utils\model.py:68:0
  %804 : Long(2, strides=[1], device=cpu) = onnx::Constant[value= 1 -1 [ CPULongType{2} ]]()
  %805 : Float(1, 1024, strides=[1024, 1], requires_grad=1, device=cuda:0) = onnx::Reshape(%803, %804) # C:\Users\sberti\PycharmProjects\ISBFSAR\modules\ar\trx\utils\model.py:68:0
  %806 : Float(1, 2, 512, strides=[1024, 512, 1], requires_grad=1, device=cuda:0) = onnx::Gather[axis=-2](%46, %419) # C:\Users\sberti\PycharmProjects\ISBFSAR\modules\ar\trx\utils\model.py:68:0
  %807 : Long(2, strides=[1], device=cpu) = onnx::Constant[value= 1 -1 [ CPULongType{2} ]]()
  %808 : Float(1, 1024, strides=[1024, 1], requires_grad=1, device=cuda:0) = onnx::Reshape(%806, %807) # C:\Users\sberti\PycharmProjects\ISBFSAR\modules\ar\trx\utils\model.py:68:0
  %809 : Float(1, 2, 512, strides=[1024, 512, 1], requires_grad=1, device=cuda:0) = onnx::Gather[axis=-2](%46, %423) # C:\Users\sberti\PycharmProjects\ISBFSAR\modules\ar\trx\utils\model.py:68:0
  %810 : Long(2, strides=[1], device=cpu) = onnx::Constant[value= 1 -1 [ CPULongType{2} ]]()
  %811 : Float(1, 1024, strides=[1024, 1], requires_grad=1, device=cuda:0) = onnx::Reshape(%809, %810) # C:\Users\sberti\PycharmProjects\ISBFSAR\modules\ar\trx\utils\model.py:68:0
  %812 : Float(1, 2, 512, strides=[1024, 512, 1], requires_grad=1, device=cuda:0) = onnx::Gather[axis=-2](%46, %427) # C:\Users\sberti\PycharmProjects\ISBFSAR\modules\ar\trx\utils\model.py:68:0
  %813 : Long(2, strides=[1], device=cpu) = onnx::Constant[value= 1 -1 [ CPULongType{2} ]]()
  %814 : Float(1, 1024, strides=[1024, 1], requires_grad=1, device=cuda:0) = onnx::Reshape(%812, %813) # C:\Users\sberti\PycharmProjects\ISBFSAR\modules\ar\trx\utils\model.py:68:0
  %815 : Float(1, 2, 512, strides=[1024, 512, 1], requires_grad=1, device=cuda:0) = onnx::Gather[axis=-2](%46, %431) # C:\Users\sberti\PycharmProjects\ISBFSAR\modules\ar\trx\utils\model.py:68:0
  %816 : Long(2, strides=[1], device=cpu) = onnx::Constant[value= 1 -1 [ CPULongType{2} ]]()
  %817 : Float(1, 1024, strides=[1024, 1], requires_grad=1, device=cuda:0) = onnx::Reshape(%815, %816) # C:\Users\sberti\PycharmProjects\ISBFSAR\modules\ar\trx\utils\model.py:68:0
  %818 : Float(1, 2, 512, strides=[1024, 512, 1], requires_grad=1, device=cuda:0) = onnx::Gather[axis=-2](%46, %435) # C:\Users\sberti\PycharmProjects\ISBFSAR\modules\ar\trx\utils\model.py:68:0
  %819 : Long(2, strides=[1], device=cpu) = onnx::Constant[value= 1 -1 [ CPULongType{2} ]]()
  %820 : Float(1, 1024, strides=[1024, 1], requires_grad=1, device=cuda:0) = onnx::Reshape(%818, %819) # C:\Users\sberti\PycharmProjects\ISBFSAR\modules\ar\trx\utils\model.py:68:0
  %821 : Float(1, 2, 512, strides=[1024, 512, 1], requires_grad=1, device=cuda:0) = onnx::Gather[axis=-2](%46, %439) # C:\Users\sberti\PycharmProjects\ISBFSAR\modules\ar\trx\utils\model.py:68:0
  %822 : Long(2, strides=[1], device=cpu) = onnx::Constant[value= 1 -1 [ CPULongType{2} ]]()
  %823 : Float(1, 1024, strides=[1024, 1], requires_grad=1, device=cuda:0) = onnx::Reshape(%821, %822) # C:\Users\sberti\PycharmProjects\ISBFSAR\modules\ar\trx\utils\model.py:68:0
  %824 : Float(1, 2, 512, strides=[1024, 512, 1], requires_grad=1, device=cuda:0) = onnx::Gather[axis=-2](%46, %443) # C:\Users\sberti\PycharmProjects\ISBFSAR\modules\ar\trx\utils\model.py:68:0
  %825 : Long(2, strides=[1], device=cpu) = onnx::Constant[value= 1 -1 [ CPULongType{2} ]]()
  %826 : Float(1, 1024, strides=[1024, 1], requires_grad=1, device=cuda:0) = onnx::Reshape(%824, %825) # C:\Users\sberti\PycharmProjects\ISBFSAR\modules\ar\trx\utils\model.py:68:0
  %827 : Float(1, 2, 512, strides=[1024, 512, 1], requires_grad=1, device=cuda:0) = onnx::Gather[axis=-2](%46, %447) # C:\Users\sberti\PycharmProjects\ISBFSAR\modules\ar\trx\utils\model.py:68:0
  %828 : Long(2, strides=[1], device=cpu) = onnx::Constant[value= 1 -1 [ CPULongType{2} ]]()
  %829 : Float(1, 1024, strides=[1024, 1], requires_grad=1, device=cuda:0) = onnx::Reshape(%827, %828) # C:\Users\sberti\PycharmProjects\ISBFSAR\modules\ar\trx\utils\model.py:68:0
  %830 : Float(1, 2, 512, strides=[1024, 512, 1], requires_grad=1, device=cuda:0) = onnx::Gather[axis=-2](%46, %451) # C:\Users\sberti\PycharmProjects\ISBFSAR\modules\ar\trx\utils\model.py:68:0
  %831 : Long(2, strides=[1], device=cpu) = onnx::Constant[value= 1 -1 [ CPULongType{2} ]]()
  %832 : Float(1, 1024, strides=[1024, 1], requires_grad=1, device=cuda:0) = onnx::Reshape(%830, %831) # C:\Users\sberti\PycharmProjects\ISBFSAR\modules\ar\trx\utils\model.py:68:0
  %833 : Float(1, 2, 512, strides=[1024, 512, 1], requires_grad=1, device=cuda:0) = onnx::Gather[axis=-2](%46, %455) # C:\Users\sberti\PycharmProjects\ISBFSAR\modules\ar\trx\utils\model.py:68:0
  %834 : Long(2, strides=[1], device=cpu) = onnx::Constant[value= 1 -1 [ CPULongType{2} ]]()
  %835 : Float(1, 1024, strides=[1024, 1], requires_grad=1, device=cuda:0) = onnx::Reshape(%833, %834) # C:\Users\sberti\PycharmProjects\ISBFSAR\modules\ar\trx\utils\model.py:68:0
  %836 : Float(1, 2, 512, strides=[1024, 512, 1], requires_grad=1, device=cuda:0) = onnx::Gather[axis=-2](%46, %459) # C:\Users\sberti\PycharmProjects\ISBFSAR\modules\ar\trx\utils\model.py:68:0
  %837 : Long(2, strides=[1], device=cpu) = onnx::Constant[value= 1 -1 [ CPULongType{2} ]]()
  %838 : Float(1, 1024, strides=[1024, 1], requires_grad=1, device=cuda:0) = onnx::Reshape(%836, %837) # C:\Users\sberti\PycharmProjects\ISBFSAR\modules\ar\trx\utils\model.py:68:0
  %839 : Float(1, 2, 512, strides=[1024, 512, 1], requires_grad=1, device=cuda:0) = onnx::Gather[axis=-2](%46, %463) # C:\Users\sberti\PycharmProjects\ISBFSAR\modules\ar\trx\utils\model.py:68:0
  %840 : Long(2, strides=[1], device=cpu) = onnx::Constant[value= 1 -1 [ CPULongType{2} ]]()
  %841 : Float(1, 1024, strides=[1024, 1], requires_grad=1, device=cuda:0) = onnx::Reshape(%839, %840) # C:\Users\sberti\PycharmProjects\ISBFSAR\modules\ar\trx\utils\model.py:68:0
  %842 : Float(1, 2, 512, strides=[1024, 512, 1], requires_grad=1, device=cuda:0) = onnx::Gather[axis=-2](%46, %467) # C:\Users\sberti\PycharmProjects\ISBFSAR\modules\ar\trx\utils\model.py:68:0
  %843 : Long(2, strides=[1], device=cpu) = onnx::Constant[value= 1 -1 [ CPULongType{2} ]]()
  %844 : Float(1, 1024, strides=[1024, 1], requires_grad=1, device=cuda:0) = onnx::Reshape(%842, %843) # C:\Users\sberti\PycharmProjects\ISBFSAR\modules\ar\trx\utils\model.py:68:0
  %845 : Float(1, 2, 512, strides=[1024, 512, 1], requires_grad=1, device=cuda:0) = onnx::Gather[axis=-2](%46, %471) # C:\Users\sberti\PycharmProjects\ISBFSAR\modules\ar\trx\utils\model.py:68:0
  %846 : Long(2, strides=[1], device=cpu) = onnx::Constant[value= 1 -1 [ CPULongType{2} ]]()
  %847 : Float(1, 1024, strides=[1024, 1], requires_grad=1, device=cuda:0) = onnx::Reshape(%845, %846) # C:\Users\sberti\PycharmProjects\ISBFSAR\modules\ar\trx\utils\model.py:68:0
  %848 : Float(1, 2, 512, strides=[1024, 512, 1], requires_grad=1, device=cuda:0) = onnx::Gather[axis=-2](%46, %475) # C:\Users\sberti\PycharmProjects\ISBFSAR\modules\ar\trx\utils\model.py:68:0
  %849 : Long(2, strides=[1], device=cpu) = onnx::Constant[value= 1 -1 [ CPULongType{2} ]]()
  %850 : Float(1, 1024, strides=[1024, 1], requires_grad=1, device=cuda:0) = onnx::Reshape(%848, %849) # C:\Users\sberti\PycharmProjects\ISBFSAR\modules\ar\trx\utils\model.py:68:0
  %851 : Float(1, 2, 512, strides=[1024, 512, 1], requires_grad=1, device=cuda:0) = onnx::Gather[axis=-2](%46, %479) # C:\Users\sberti\PycharmProjects\ISBFSAR\modules\ar\trx\utils\model.py:68:0
  %852 : Long(2, strides=[1], device=cpu) = onnx::Constant[value= 1 -1 [ CPULongType{2} ]]()
  %853 : Float(1, 1024, strides=[1024, 1], requires_grad=1, device=cuda:0) = onnx::Reshape(%851, %852) # C:\Users\sberti\PycharmProjects\ISBFSAR\modules\ar\trx\utils\model.py:68:0
  %854 : Float(1, 2, 512, strides=[1024, 512, 1], requires_grad=1, device=cuda:0) = onnx::Gather[axis=-2](%46, %483) # C:\Users\sberti\PycharmProjects\ISBFSAR\modules\ar\trx\utils\model.py:68:0
  %855 : Long(2, strides=[1], device=cpu) = onnx::Constant[value= 1 -1 [ CPULongType{2} ]]()
  %856 : Float(1, 1024, strides=[1024, 1], requires_grad=1, device=cuda:0) = onnx::Reshape(%854, %855) # C:\Users\sberti\PycharmProjects\ISBFSAR\modules\ar\trx\utils\model.py:68:0
  %857 : Float(1, 2, 512, strides=[1024, 512, 1], requires_grad=1, device=cuda:0) = onnx::Gather[axis=-2](%46, %487) # C:\Users\sberti\PycharmProjects\ISBFSAR\modules\ar\trx\utils\model.py:68:0
  %858 : Long(2, strides=[1], device=cpu) = onnx::Constant[value= 1 -1 [ CPULongType{2} ]]()
  %859 : Float(1, 1024, strides=[1024, 1], requires_grad=1, device=cuda:0) = onnx::Reshape(%857, %858) # C:\Users\sberti\PycharmProjects\ISBFSAR\modules\ar\trx\utils\model.py:68:0
  %860 : Float(1, 2, 512, strides=[1024, 512, 1], requires_grad=1, device=cuda:0) = onnx::Gather[axis=-2](%46, %491) # C:\Users\sberti\PycharmProjects\ISBFSAR\modules\ar\trx\utils\model.py:68:0
  %861 : Long(2, strides=[1], device=cpu) = onnx::Constant[value= 1 -1 [ CPULongType{2} ]]()
  %862 : Float(1, 1024, strides=[1024, 1], requires_grad=1, device=cuda:0) = onnx::Reshape(%860, %861) # C:\Users\sberti\PycharmProjects\ISBFSAR\modules\ar\trx\utils\model.py:68:0
  %863 : Float(1, 2, 512, strides=[1024, 512, 1], requires_grad=1, device=cuda:0) = onnx::Gather[axis=-2](%46, %495) # C:\Users\sberti\PycharmProjects\ISBFSAR\modules\ar\trx\utils\model.py:68:0
  %864 : Long(2, strides=[1], device=cpu) = onnx::Constant[value= 1 -1 [ CPULongType{2} ]]()
  %865 : Float(1, 1024, strides=[1024, 1], requires_grad=1, device=cuda:0) = onnx::Reshape(%863, %864) # C:\Users\sberti\PycharmProjects\ISBFSAR\modules\ar\trx\utils\model.py:68:0
  %866 : Float(1, 2, 512, strides=[1024, 512, 1], requires_grad=1, device=cuda:0) = onnx::Gather[axis=-2](%46, %499) # C:\Users\sberti\PycharmProjects\ISBFSAR\modules\ar\trx\utils\model.py:68:0
  %867 : Long(2, strides=[1], device=cpu) = onnx::Constant[value= 1 -1 [ CPULongType{2} ]]()
  %868 : Float(1, 1024, strides=[1024, 1], requires_grad=1, device=cuda:0) = onnx::Reshape(%866, %867) # C:\Users\sberti\PycharmProjects\ISBFSAR\modules\ar\trx\utils\model.py:68:0
  %869 : Float(1, 2, 512, strides=[1024, 512, 1], requires_grad=1, device=cuda:0) = onnx::Gather[axis=-2](%46, %503) # C:\Users\sberti\PycharmProjects\ISBFSAR\modules\ar\trx\utils\model.py:68:0
  %870 : Long(2, strides=[1], device=cpu) = onnx::Constant[value= 1 -1 [ CPULongType{2} ]]()
  %871 : Float(1, 1024, strides=[1024, 1], requires_grad=1, device=cuda:0) = onnx::Reshape(%869, %870) # C:\Users\sberti\PycharmProjects\ISBFSAR\modules\ar\trx\utils\model.py:68:0
  %872 : Float(1, 2, 512, strides=[1024, 512, 1], requires_grad=1, device=cuda:0) = onnx::Gather[axis=-2](%46, %507) # C:\Users\sberti\PycharmProjects\ISBFSAR\modules\ar\trx\utils\model.py:68:0
  %873 : Long(2, strides=[1], device=cpu) = onnx::Constant[value= 1 -1 [ CPULongType{2} ]]()
  %874 : Float(1, 1024, strides=[1024, 1], requires_grad=1, device=cuda:0) = onnx::Reshape(%872, %873) # C:\Users\sberti\PycharmProjects\ISBFSAR\modules\ar\trx\utils\model.py:68:0
  %875 : Float(1, 2, 512, strides=[1024, 512, 1], requires_grad=1, device=cuda:0) = onnx::Gather[axis=-2](%46, %511) # C:\Users\sberti\PycharmProjects\ISBFSAR\modules\ar\trx\utils\model.py:68:0
  %876 : Long(2, strides=[1], device=cpu) = onnx::Constant[value= 1 -1 [ CPULongType{2} ]]()
  %877 : Float(1, 1024, strides=[1024, 1], requires_grad=1, device=cuda:0) = onnx::Reshape(%875, %876) # C:\Users\sberti\PycharmProjects\ISBFSAR\modules\ar\trx\utils\model.py:68:0
  %878 : Float(1, 2, 512, strides=[1024, 512, 1], requires_grad=1, device=cuda:0) = onnx::Gather[axis=-2](%46, %515) # C:\Users\sberti\PycharmProjects\ISBFSAR\modules\ar\trx\utils\model.py:68:0
  %879 : Long(2, strides=[1], device=cpu) = onnx::Constant[value= 1 -1 [ CPULongType{2} ]]()
  %880 : Float(1, 1024, strides=[1024, 1], requires_grad=1, device=cuda:0) = onnx::Reshape(%878, %879) # C:\Users\sberti\PycharmProjects\ISBFSAR\modules\ar\trx\utils\model.py:68:0
  %881 : Float(1, 2, 512, strides=[1024, 512, 1], requires_grad=1, device=cuda:0) = onnx::Gather[axis=-2](%46, %519) # C:\Users\sberti\PycharmProjects\ISBFSAR\modules\ar\trx\utils\model.py:68:0
  %882 : Long(2, strides=[1], device=cpu) = onnx::Constant[value= 1 -1 [ CPULongType{2} ]]()
  %883 : Float(1, 1024, strides=[1024, 1], requires_grad=1, device=cuda:0) = onnx::Reshape(%881, %882) # C:\Users\sberti\PycharmProjects\ISBFSAR\modules\ar\trx\utils\model.py:68:0
  %884 : Float(1, 2, 512, strides=[1024, 512, 1], requires_grad=1, device=cuda:0) = onnx::Gather[axis=-2](%46, %523) # C:\Users\sberti\PycharmProjects\ISBFSAR\modules\ar\trx\utils\model.py:68:0
  %885 : Long(2, strides=[1], device=cpu) = onnx::Constant[value= 1 -1 [ CPULongType{2} ]]()
  %886 : Float(1, 1024, strides=[1024, 1], requires_grad=1, device=cuda:0) = onnx::Reshape(%884, %885) # C:\Users\sberti\PycharmProjects\ISBFSAR\modules\ar\trx\utils\model.py:68:0
  %887 : Float(5, 1, 1024, strides=[1024, 1024, 1], device=cpu) = onnx::Unsqueeze[axes=[-2]](%50)
  %888 : Float(5, 1, 1024, strides=[1024, 1024, 1], device=cpu) = onnx::Unsqueeze[axes=[-2]](%54)
  %889 : Float(5, 1, 1024, strides=[1024, 1024, 1], device=cpu) = onnx::Unsqueeze[axes=[-2]](%58)
  %890 : Float(5, 1, 1024, strides=[1024, 1024, 1], device=cpu) = onnx::Unsqueeze[axes=[-2]](%62)
  %891 : Float(5, 1, 1024, strides=[1024, 1024, 1], device=cpu) = onnx::Unsqueeze[axes=[-2]](%66)
  %892 : Float(5, 1, 1024, strides=[1024, 1024, 1], device=cpu) = onnx::Unsqueeze[axes=[-2]](%70)
  %893 : Float(5, 1, 1024, strides=[1024, 1024, 1], device=cpu) = onnx::Unsqueeze[axes=[-2]](%74)
  %894 : Float(5, 1, 1024, strides=[1024, 1024, 1], device=cpu) = onnx::Unsqueeze[axes=[-2]](%78)
  %895 : Float(5, 1, 1024, strides=[1024, 1024, 1], device=cpu) = onnx::Unsqueeze[axes=[-2]](%82)
  %896 : Float(5, 1, 1024, strides=[1024, 1024, 1], device=cpu) = onnx::Unsqueeze[axes=[-2]](%86)
  %897 : Float(5, 1, 1024, strides=[1024, 1024, 1], device=cpu) = onnx::Unsqueeze[axes=[-2]](%90)
  %898 : Float(5, 1, 1024, strides=[1024, 1024, 1], device=cpu) = onnx::Unsqueeze[axes=[-2]](%94)
  %899 : Float(5, 1, 1024, strides=[1024, 1024, 1], device=cpu) = onnx::Unsqueeze[axes=[-2]](%98)
  %900 : Float(5, 1, 1024, strides=[1024, 1024, 1], device=cpu) = onnx::Unsqueeze[axes=[-2]](%102)
  %901 : Float(5, 1, 1024, strides=[1024, 1024, 1], device=cpu) = onnx::Unsqueeze[axes=[-2]](%106)
  %902 : Float(5, 1, 1024, strides=[1024, 1024, 1], device=cpu) = onnx::Unsqueeze[axes=[-2]](%110)
  %903 : Float(5, 1, 1024, strides=[1024, 1024, 1], device=cpu) = onnx::Unsqueeze[axes=[-2]](%114)
  %904 : Float(5, 1, 1024, strides=[1024, 1024, 1], device=cpu) = onnx::Unsqueeze[axes=[-2]](%118)
  %905 : Float(5, 1, 1024, strides=[1024, 1024, 1], device=cpu) = onnx::Unsqueeze[axes=[-2]](%122)
  %906 : Float(5, 1, 1024, strides=[1024, 1024, 1], device=cpu) = onnx::Unsqueeze[axes=[-2]](%126)
  %907 : Float(5, 1, 1024, strides=[1024, 1024, 1], device=cpu) = onnx::Unsqueeze[axes=[-2]](%130)
  %908 : Float(5, 1, 1024, strides=[1024, 1024, 1], device=cpu) = onnx::Unsqueeze[axes=[-2]](%134)
  %909 : Float(5, 1, 1024, strides=[1024, 1024, 1], device=cpu) = onnx::Unsqueeze[axes=[-2]](%138)
  %910 : Float(5, 1, 1024, strides=[1024, 1024, 1], device=cpu) = onnx::Unsqueeze[axes=[-2]](%142)
  %911 : Float(5, 1, 1024, strides=[1024, 1024, 1], device=cpu) = onnx::Unsqueeze[axes=[-2]](%146)
  %912 : Float(5, 1, 1024, strides=[1024, 1024, 1], device=cpu) = onnx::Unsqueeze[axes=[-2]](%150)
  %913 : Float(5, 1, 1024, strides=[1024, 1024, 1], device=cpu) = onnx::Unsqueeze[axes=[-2]](%154)
  %914 : Float(5, 1, 1024, strides=[1024, 1024, 1], device=cpu) = onnx::Unsqueeze[axes=[-2]](%158)
  %915 : Float(5, 1, 1024, strides=[1024, 1024, 1], device=cpu) = onnx::Unsqueeze[axes=[-2]](%162)
  %916 : Float(5, 1, 1024, strides=[1024, 1024, 1], device=cpu) = onnx::Unsqueeze[axes=[-2]](%166)
  %917 : Float(5, 1, 1024, strides=[1024, 1024, 1], device=cpu) = onnx::Unsqueeze[axes=[-2]](%170)
  %918 : Float(5, 1, 1024, strides=[1024, 1024, 1], device=cpu) = onnx::Unsqueeze[axes=[-2]](%174)
  %919 : Float(5, 1, 1024, strides=[1024, 1024, 1], device=cpu) = onnx::Unsqueeze[axes=[-2]](%178)
  %920 : Float(5, 1, 1024, strides=[1024, 1024, 1], device=cpu) = onnx::Unsqueeze[axes=[-2]](%182)
  %921 : Float(5, 1, 1024, strides=[1024, 1024, 1], device=cpu) = onnx::Unsqueeze[axes=[-2]](%186)
  %922 : Float(5, 1, 1024, strides=[1024, 1024, 1], device=cpu) = onnx::Unsqueeze[axes=[-2]](%190)
  %923 : Float(5, 1, 1024, strides=[1024, 1024, 1], device=cpu) = onnx::Unsqueeze[axes=[-2]](%194)
  %924 : Float(5, 1, 1024, strides=[1024, 1024, 1], device=cpu) = onnx::Unsqueeze[axes=[-2]](%198)
  %925 : Float(5, 1, 1024, strides=[1024, 1024, 1], device=cpu) = onnx::Unsqueeze[axes=[-2]](%202)
  %926 : Float(5, 1, 1024, strides=[1024, 1024, 1], device=cpu) = onnx::Unsqueeze[axes=[-2]](%206)
  %927 : Float(5, 1, 1024, strides=[1024, 1024, 1], device=cpu) = onnx::Unsqueeze[axes=[-2]](%210)
  %928 : Float(5, 1, 1024, strides=[1024, 1024, 1], device=cpu) = onnx::Unsqueeze[axes=[-2]](%214)
  %929 : Float(5, 1, 1024, strides=[1024, 1024, 1], device=cpu) = onnx::Unsqueeze[axes=[-2]](%218)
  %930 : Float(5, 1, 1024, strides=[1024, 1024, 1], device=cpu) = onnx::Unsqueeze[axes=[-2]](%222)
  %931 : Float(5, 1, 1024, strides=[1024, 1024, 1], device=cpu) = onnx::Unsqueeze[axes=[-2]](%226)
  %932 : Float(5, 1, 1024, strides=[1024, 1024, 1], device=cpu) = onnx::Unsqueeze[axes=[-2]](%230)
  %933 : Float(5, 1, 1024, strides=[1024, 1024, 1], device=cpu) = onnx::Unsqueeze[axes=[-2]](%234)
  %934 : Float(5, 1, 1024, strides=[1024, 1024, 1], device=cpu) = onnx::Unsqueeze[axes=[-2]](%238)
  %935 : Float(5, 1, 1024, strides=[1024, 1024, 1], device=cpu) = onnx::Unsqueeze[axes=[-2]](%242)
  %936 : Float(5, 1, 1024, strides=[1024, 1024, 1], device=cpu) = onnx::Unsqueeze[axes=[-2]](%246)
  %937 : Float(5, 1, 1024, strides=[1024, 1024, 1], device=cpu) = onnx::Unsqueeze[axes=[-2]](%250)
  %938 : Float(5, 1, 1024, strides=[1024, 1024, 1], device=cpu) = onnx::Unsqueeze[axes=[-2]](%254)
  %939 : Float(5, 1, 1024, strides=[1024, 1024, 1], device=cpu) = onnx::Unsqueeze[axes=[-2]](%258)
  %940 : Float(5, 1, 1024, strides=[1024, 1024, 1], device=cpu) = onnx::Unsqueeze[axes=[-2]](%262)
  %941 : Float(5, 1, 1024, strides=[1024, 1024, 1], device=cpu) = onnx::Unsqueeze[axes=[-2]](%266)
  %942 : Float(5, 1, 1024, strides=[1024, 1024, 1], device=cpu) = onnx::Unsqueeze[axes=[-2]](%270)
  %943 : Float(5, 1, 1024, strides=[1024, 1024, 1], device=cpu) = onnx::Unsqueeze[axes=[-2]](%274)
  %944 : Float(5, 1, 1024, strides=[1024, 1024, 1], device=cpu) = onnx::Unsqueeze[axes=[-2]](%278)
  %945 : Float(5, 1, 1024, strides=[1024, 1024, 1], device=cpu) = onnx::Unsqueeze[axes=[-2]](%282)
  %946 : Float(5, 1, 1024, strides=[1024, 1024, 1], device=cpu) = onnx::Unsqueeze[axes=[-2]](%286)
  %947 : Float(5, 1, 1024, strides=[1024, 1024, 1], device=cpu) = onnx::Unsqueeze[axes=[-2]](%290)
  %948 : Float(5, 1, 1024, strides=[1024, 1024, 1], device=cpu) = onnx::Unsqueeze[axes=[-2]](%294)
  %949 : Float(5, 1, 1024, strides=[1024, 1024, 1], device=cpu) = onnx::Unsqueeze[axes=[-2]](%298)
  %950 : Float(5, 1, 1024, strides=[1024, 1024, 1], device=cpu) = onnx::Unsqueeze[axes=[-2]](%302)
  %951 : Float(5, 1, 1024, strides=[1024, 1024, 1], device=cpu) = onnx::Unsqueeze[axes=[-2]](%306)
  %952 : Float(5, 1, 1024, strides=[1024, 1024, 1], device=cpu) = onnx::Unsqueeze[axes=[-2]](%310)
  %953 : Float(5, 1, 1024, strides=[1024, 1024, 1], device=cpu) = onnx::Unsqueeze[axes=[-2]](%314)
  %954 : Float(5, 1, 1024, strides=[1024, 1024, 1], device=cpu) = onnx::Unsqueeze[axes=[-2]](%318)
  %955 : Float(5, 1, 1024, strides=[1024, 1024, 1], device=cpu) = onnx::Unsqueeze[axes=[-2]](%322)
  %956 : Float(5, 1, 1024, strides=[1024, 1024, 1], device=cpu) = onnx::Unsqueeze[axes=[-2]](%326)
  %957 : Float(5, 1, 1024, strides=[1024, 1024, 1], device=cpu) = onnx::Unsqueeze[axes=[-2]](%330)
  %958 : Float(5, 1, 1024, strides=[1024, 1024, 1], device=cpu) = onnx::Unsqueeze[axes=[-2]](%334)
  %959 : Float(5, 1, 1024, strides=[1024, 1024, 1], device=cpu) = onnx::Unsqueeze[axes=[-2]](%338)
  %960 : Float(5, 1, 1024, strides=[1024, 1024, 1], device=cpu) = onnx::Unsqueeze[axes=[-2]](%342)
…
  %6627 : Float(5, 560, 128, strides=[71680, 128, 1], requires_grad=1, device=cuda:0) = onnx::Add(%transformers.1.k_linear.bias, %6626) # C:\Users\sberti\AppData\Local\mambaforge\envs\robotologyenv\lib\site-packages\torch\nn\functional.py:1848:0
  %6629 : Float(1, 560, 128, strides=[71680, 128, 1], device=cpu) = onnx::MatMul(%6624, %7105)
  %6630 : Float(1, 560, 128, strides=[71680, 128, 1], requires_grad=1, device=cuda:0) = onnx::Add(%transformers.1.k_linear.bias, %6629) # C:\Users\sberti\AppData\Local\mambaforge\envs\robotologyenv\lib\site-packages\torch\nn\functional.py:1848:0
  %6632 : Float(5, 560, 128, strides=[71680, 128, 1], device=cpu) = onnx::MatMul(%6063, %7106)
  %6633 : Float(5, 560, 128, strides=[71680, 128, 1], requires_grad=1, device=cuda:0) = onnx::Add(%transformers.1.v_linear.bias, %6632) # C:\Users\sberti\AppData\Local\mambaforge\envs\robotologyenv\lib\site-packages\torch\nn\functional.py:1848:0
  %6635 : Float(1, 560, 128, strides=[71680, 128, 1], device=cpu) = onnx::MatMul(%6624, %7107)
  %6636 : Float(1, 560, 128, strides=[71680, 128, 1], requires_grad=1, device=cuda:0) = onnx::Add(%transformers.1.v_linear.bias, %6635) # C:\Users\sberti\AppData\Local\mambaforge\envs\robotologyenv\lib\site-packages\torch\nn\functional.py:1848:0
  %6637 : Float(5, 560, device=cpu) = onnx::ReduceMean[axes=[-1]](%6627)
  %6638 : Float(5, 560, 128) = onnx::Sub(%6627, %6637)
  %6639 : Float(5, 560, 128, strides=[71680, 128, 1], device=cpu) = onnx::Cast[to=1](%6638)
  %6640 : Float(requires_grad=0, device=cpu) = onnx::Constant[value={2}]()
  %6641 : Float(5, 560, 128, strides=[71680, 128, 1], device=cpu) = onnx::Pow(%6639, %6640)
  %6642 : Float(5, 560, device=cpu) = onnx::ReduceMean[axes=[-1]](%6641)
  %6643 : Float(requires_grad=0, device=cpu) = onnx::Constant[value={1e-05}]()
  %6644 : Float(5, 560, 1, device=cpu) = onnx::Add(%6642, %6643)
  %6645 : Float(5, 560, 1, strides=[560, 1, 1], device=cpu) = onnx::Sqrt(%6644)
  %6646 : Float(5, 560, 128, strides=[71680, 128, 1], device=cpu) = onnx::Div(%6638, %6645)
  %6647 : Float(5, 560, 128, strides=[71680, 128, 1], device=cpu) = onnx::Mul(%6646, %transformers.1.norm_k.weight)
  %6648 : Float(5, 560, 128, strides=[71680, 128, 1], requires_grad=1, device=cuda:0) = onnx::Add(%6647, %transformers.1.norm_k.bias) # C:\Users\sberti\AppData\Local\mambaforge\envs\robotologyenv\lib\site-packages\torch\nn\functional.py:2347:0
  %6649 : Float(1, 560, device=cpu) = onnx::ReduceMean[axes=[-1]](%6630)
  %6650 : Float(1, 560, 128) = onnx::Sub(%6630, %6649)
  %6651 : Float(1, 560, 128, strides=[71680, 128, 1], device=cpu) = onnx::Cast[to=1](%6650)
  %6652 : Float(requires_grad=0, device=cpu) = onnx::Constant[value={2}]()
  %6653 : Float(1, 560, 128, strides=[71680, 128, 1], device=cpu) = onnx::Pow(%6651, %6652)
  %6654 : Float(1, 560, device=cpu) = onnx::ReduceMean[axes=[-1]](%6653)
  %6655 : Float(requires_grad=0, device=cpu) = onnx::Constant[value={1e-05}]()
  %6656 : Float(1, 560, 1, device=cpu) = onnx::Add(%6654, %6655)
  %6657 : Float(1, 560, 1, strides=[560, 1, 1], device=cpu) = onnx::Sqrt(%6656)
  %6658 : Float(1, 560, 128, strides=[71680, 128, 1], device=cpu) = onnx::Div(%6650, %6657)
  %6659 : Float(1, 560, 128, strides=[71680, 128, 1], device=cpu) = onnx::Mul(%6658, %transformers.1.norm_k.weight)
  %6660 : Float(1, 560, 128, strides=[71680, 128, 1], requires_grad=1, device=cuda:0) = onnx::Add(%6659, %transformers.1.norm_k.bias) # C:\Users\sberti\AppData\Local\mambaforge\envs\robotologyenv\lib\site-packages\torch\nn\functional.py:2347:0
  %6661 : Float(1, 5, strides=[5, 1], requires_grad=0, device=cuda:0) = onnx::Constant[value= 0  0  0  0  0 [ CPUFloatType{1,5} ]]() # C:\Users\sberti\PycharmProjects\ISBFSAR\modules\ar\trx\utils\model.py:130:0
  %6662 : Int(1, strides=[1], device=cpu), %6663 : Int(1, strides=[1], device=cpu), %6664 : Int(1, strides=[1], device=cpu), %6665 : Int(1, strides=[1], device=cpu), %6666 : Int(1, strides=[1], device=cpu) = onnx::Split[axis=0, split=[1, 1, 1, 1, 1]](%labels)
  %6667 : Int(requires_grad=0, device=cuda:0) = onnx::Squeeze[axes=[0]](%6662) # C:\Users\sberti\AppData\Local\mambaforge\envs\robotologyenv\lib\site-packages\torch\_tensor.py:648:0
  %6668 : Int(requires_grad=0, device=cuda:0) = onnx::Squeeze[axes=[0]](%6663) # C:\Users\sberti\AppData\Local\mambaforge\envs\robotologyenv\lib\site-packages\torch\_tensor.py:648:0
  %6669 : Int(requires_grad=0, device=cuda:0) = onnx::Squeeze[axes=[0]](%6664) # C:\Users\sberti\AppData\Local\mambaforge\envs\robotologyenv\lib\site-packages\torch\_tensor.py:648:0
  %6670 : Int(requires_grad=0, device=cuda:0) = onnx::Squeeze[axes=[0]](%6665) # C:\Users\sberti\AppData\Local\mambaforge\envs\robotologyenv\lib\site-packages\torch\_tensor.py:648:0
  %6671 : Int(requires_grad=0, device=cuda:0) = onnx::Squeeze[axes=[0]](%6666) # C:\Users\sberti\AppData\Local\mambaforge\envs\robotologyenv\lib\site-packages\torch\_tensor.py:648:0
  %6672 : Long(1, strides=[1], device=cpu) = onnx::Constant[value={-1}]()
  %6673 : Int(*, strides=[1], requires_grad=0, device=cuda:0) = onnx::Reshape(%6667, %6672) # C:\Users\sberti\PycharmProjects\ISBFSAR\modules\ar\trx\utils\model.py:144:0
  %6674 : Float(*, *, *, strides=[71680, 128, 1], requires_grad=1, device=cuda:0) = onnx::Gather[axis=0](%6648, %6673) # C:\Users\sberti\PycharmProjects\ISBFSAR\modules\ar\trx\utils\model.py:93:0
  %6675 : Long(1, strides=[1], device=cpu) = onnx::Constant[value={-1}]()
  %6676 : Int(*, strides=[1], requires_grad=0, device=cuda:0) = onnx::Reshape(%6667, %6675) # C:\Users\sberti\PycharmProjects\ISBFSAR\modules\ar\trx\utils\model.py:144:0
  %6677 : Float(*, *, *, strides=[71680, 128, 1], requires_grad=1, device=cuda:0) = onnx::Gather[axis=0](%6633, %6676) # C:\Users\sberti\PycharmProjects\ISBFSAR\modules\ar\trx\utils\model.py:94:0
  %6678 : Float(1, 1, 560, 128, strides=[71680, 71680, 128, 1], requires_grad=1, device=cuda:0) = onnx::Unsqueeze[axes=[1]](%6660) # C:\Users\sberti\PycharmProjects\ISBFSAR\modules\ar\trx\utils\model.py:97:0
  %6679 : Float(*, *, *, strides=[71680, 1, 128], requires_grad=1, device=cuda:0) = onnx::Transpose[perm=[0, 2, 1]](%6674) # C:\Users\sberti\PycharmProjects\ISBFSAR\modules\ar\trx\utils\model.py:97:0
  %6680 : Float(1, 1, 560, *, strides=[313600, 313600, 560, 1], requires_grad=1, device=cuda:0) = onnx::MatMul(%6678, %6679) # C:\Users\sberti\PycharmProjects\ISBFSAR\modules\ar\trx\utils\model.py:97:0
  %6681 : Float(requires_grad=0, device=cpu) = onnx::Constant[value={11.3137}]()
  %6682 : Float(1, 1, 560, *, strides=[313600, 313600, 560, 1], requires_grad=1, device=cuda:0) = onnx::Div(%6680, %6681)
  %6683 : Float(1, 560, 1, *, strides=[313600, 560, 313600, 1], requires_grad=1, device=cuda:0) = onnx::Transpose[perm=[0, 2, 1, 3]](%6682) # C:\Users\sberti\PycharmProjects\ISBFSAR\modules\ar\trx\utils\model.py:101:0
  %6684 : Long(3, strides=[1], device=cpu) = onnx::Constant[value=   1  560  560 [ CPULongType{3} ]]()
  %6685 : Float(1, 560, 560, strides=[313600, 560, 1], requires_grad=1, device=cuda:0) = onnx::Reshape(%6683, %6684) # C:\Users\sberti\PycharmProjects\ISBFSAR\modules\ar\trx\utils\model.py:102:0
  %6686 : Long(requires_grad=0, device=cpu) = onnx::Constant[value={0}]()
  %6687 : Float(560, 560, strides=[560, 1], requires_grad=1, device=cuda:0) = onnx::Gather[axis=0](%6685, %6686) # C:\Users\sberti\PycharmProjects\ISBFSAR\modules\ar\trx\utils\model.py:107:0
  %6688 : Float(560, 1, strides=[1, 1], requires_grad=1, device=cuda:0) = onnx::ReduceMax[axes=[1], keepdims=1](%6687) # C:\Users\sberti\PycharmProjects\ISBFSAR\modules\ar\trx\utils\model.py:107:0
  %6689 : Long(requires_grad=0, device=cpu) = onnx::Constant[value={0}]()
  %6690 : Float(560, 560, strides=[560, 1], requires_grad=1, device=cuda:0) = onnx::Gather[axis=0](%6685, %6689) # C:\Users\sberti\PycharmProjects\ISBFSAR\modules\ar\trx\utils\model.py:108:0
  %6691 : Float(560, 560, strides=[560, 1], requires_grad=1, device=cuda:0) = onnx::Sub(%6690, %6688) # C:\Users\sberti\PycharmProjects\ISBFSAR\modules\ar\trx\utils\model.py:108:0
  %6692 : Float(560, 560, strides=[560, 1], requires_grad=1, device=cuda:0) = onnx::Exp(%6691) # C:\Users\sberti\PycharmProjects\ISBFSAR\modules\ar\trx\utils\model.py:108:0
  %6693 : Float(560, 1, strides=[1, 1], requires_grad=1, device=cuda:0) = onnx::ReduceSum[axes=[1], keepdims=1](%6692) # C:\Users\sberti\PycharmProjects\ISBFSAR\modules\ar\trx\utils\model.py:109:0
  %6694 : Long(2, strides=[1], device=cpu) = onnx::Constant[value=   1  560 [ CPULongType{2} ]]()
  %6696 : Long(2, device=cpu) = onnx::ConstantOfShape[value={1}](%7108)
  %6697 : Float(560, 1, device=cpu) = onnx::Expand(%6693, %6696)
  %6698 : Float(560, 560, strides=[560, 1], requires_grad=1, device=cuda:0) = onnx::Tile(%6697, %6694) # C:\Users\sberti\PycharmProjects\ISBFSAR\modules\ar\trx\utils\model.py:110:0
  %6699 : Float(560, 560, strides=[560, 1], requires_grad=1, device=cuda:0) = onnx::Div(%6692, %6698) # C:\Users\sberti\PycharmProjects\ISBFSAR\modules\ar\trx\utils\model.py:111:0
  %6700 : Long(4, strides=[1], device=cpu) = onnx::Constant[value=   1  560    1  560 [ CPULongType{4} ]]()
  %6701 : Float(1, 560, 1, 560, strides=[313600, 560, 560, 1], requires_grad=1, device=cuda:0) = onnx::Reshape(%6699, %6700) # C:\Users\sberti\PycharmProjects\ISBFSAR\modules\ar\trx\utils\model.py:115:0
  %6702 : Float(1, 1, 560, 560, strides=[313600, 560, 560, 1], requires_grad=1, device=cuda:0) = onnx::Transpose[perm=[0, 2, 1, 3]](%6701) # C:\Users\sberti\PycharmProjects\ISBFSAR\modules\ar\trx\utils\model.py:116:0
  %6703 : Float(1, 1, 560, *, strides=[71680, 71680, 128, 1], requires_grad=1, device=cuda:0) = onnx::MatMul(%6702, %6677) # C:\Users\sberti\PycharmProjects\ISBFSAR\modules\ar\trx\utils\model.py:119:0
  %6704 : Float(1, 560, *, strides=[71680, 128, 1], requires_grad=1, device=cuda:0) = onnx::ReduceSum[axes=[1], keepdims=0](%6703) # C:\Users\sberti\PycharmProjects\ISBFSAR\modules\ar\trx\utils\model.py:120:0
  %6705 : Float(1, 560, *, strides=[71680, 128, 1], requires_grad=1, device=cuda:0) = onnx::Sub(%6636, %6704) # C:\Users\sberti\PycharmProjects\ISBFSAR\modules\ar\trx\utils\model.py:123:0
  %6706 : Float(1, 560, 128, device=cpu) = onnx::Mul(%6705, %6705)
  %6707 : Float(1, strides=[1], device=cpu) = onnx::ReduceSum[axes=[-2, -1], keepdims=0](%6706)
  %6708 : Float(1, strides=[1], requires_grad=1, device=cuda:0) = onnx::Sqrt(%6707) # C:\Users\sberti\AppData\Local\mambaforge\envs\robotologyenv\lib\site-packages\torch\functional.py:1442:0
  %6711 : Float(1, strides=[1], requires_grad=1, device=cuda:0) = onnx::Pow(%6708, %7109) # C:\Users\sberti\AppData\Local\mambaforge\envs\robotologyenv\lib\site-packages\torch\_tensor.py:30:0
  %6714 : Float(1, strides=[1], requires_grad=1, device=cuda:0) = onnx::Div(%6711, %7110)
  %6715 : Float(requires_grad=0, device=cpu) = onnx::Constant[value={-1}]()
  %6716 : Float(1, strides=[1], requires_grad=1, device=cuda:0) = onnx::Mul(%6714, %6715)
  %6717 : Long(requires_grad=0, device=cuda:0) = onnx::Cast[to=7](%6667) # C:\Users\sberti\PycharmProjects\ISBFSAR\modules\ar\trx\utils\model.py:129:0
  %6718 : Float(1, strides=[5], requires_grad=0, device=cuda:0) = onnx::Gather[axis=1](%6661, %6717) # C:\Users\sberti\PycharmProjects\ISBFSAR\modules\ar\trx\utils\model.py:130:0
  %6719 : Long(1, strides=[1], device=cpu) = onnx::Shape(%6718)
  %6720 : Float(1, strides=[1], requires_grad=1, device=cuda:0) = onnx::Expand(%6716, %6719) # C:\Users\sberti\PycharmProjects\ISBFSAR\modules\ar\trx\utils\model.py:130:0
  %6721 : Long(1, strides=[1], device=cpu) = onnx::Unsqueeze[axes=[0]](%6717)
  %6722 : Long(1, 1, strides=[1, 1], requires_grad=0, device=cpu) = onnx::Constant[value={0}]()
  %6723 : Long(1, 1, strides=[1, 1], requires_grad=0, device=cpu) = onnx::Constant[value={0}]()
  %6724 : Long(1, 1, strides=[1, 1], device=cpu) = onnx::Add(%6723, %6721)
  %6725 : Long(2, strides=[1], device=cpu) = onnx::Shape(%6724)
  %6726 : Long(1, strides=[1], device=cpu) = onnx::Shape(%6725)
  %6727 : Long(2, device=cpu) = onnx::ConstantOfShape[value={1}](%6726)
  %6728 : Long(requires_grad=0, device=cpu) = onnx::Constant[value={-1}]()
  %6729 : Long(2, strides=[1], device=cpu) = onnx::Mul(%6727, %6728)
  %6730 : Bool(2, strides=[1], device=cpu) = onnx::Equal(%6725, %6729)
  %6731 : Long(2, strides=[1], device=cpu) = onnx::Where(%6730, %6727, %6725)
  %6732 : Long(1, 1, device=cpu) = onnx::Expand(%6722, %6731)
  %6733 : Long(1, 1, 1, strides=[1, 1, 1], device=cpu) = onnx::Unsqueeze[axes=[-1]](%6732)
  %6734 : Long(1, strides=[1], device=cpu) = onnx::Shape(%6725)
  %6735 : Long(2, device=cpu) = onnx::ConstantOfShape[value={1}](%6734)
  %6736 : Long(requires_grad=0, device=cpu) = onnx::Constant[value={-1}]()
  %6737 : Long(2, strides=[1], device=cpu) = onnx::Mul(%6735, %6736)
  %6738 : Bool(2, strides=[1], device=cpu) = onnx::Equal(%6725, %6737)
  %6739 : Long(2, strides=[1], device=cpu) = onnx::Where(%6738, %6735, %6725)
  %6740 : Long(1, 1, device=cpu) = onnx::Expand(%6721, %6739)
  %6741 : Long(1, 1, 1, strides=[1, 1, 1], device=cpu) = onnx::Unsqueeze[axes=[-1]](%6740)
  %6742 : Long(1, 1, 2, strides=[2, 2, 1], device=cpu) = onnx::Concat[axis=-1](%6733, %6741)
  %6748 : Long(2, strides=[1], device=cpu) = onnx::Concat[axis=0](%6725, %7112)
  %6749 : Float(1, 1, device=cpu) = onnx::Reshape(%6720, %6748)
  %6750 : Float(1, 5, strides=[5, 1], requires_grad=1, device=cuda:0) = onnx::ScatterND(%6661, %6742, %6749) # C:\Users\sberti\PycharmProjects\ISBFSAR\modules\ar\trx\utils\model.py:130:0
  %6751 : Long(1, strides=[1], device=cpu) = onnx::Constant[value={-1}]()
  %6752 : Int(*, strides=[1], requires_grad=0, device=cuda:0) = onnx::Reshape(%6668, %6751) # C:\Users\sberti\PycharmProjects\ISBFSAR\modules\ar\trx\utils\model.py:144:0
  %6753 : Float(*, *, *, strides=[71680, 128, 1], requires_grad=1, device=cuda:0) = onnx::Gather[axis=0](%6648, %6752) # C:\Users\sberti\PycharmProjects\ISBFSAR\modules\ar\trx\utils\model.py:93:0
  %6754 : Long(1, strides=[1], device=cpu) = onnx::Constant[value={-1}]()
  %6755 : Int(*, strides=[1], requires_grad=0, device=cuda:0) = onnx::Reshape(%6668, %6754) # C:\Users\sberti\PycharmProjects\ISBFSAR\modules\ar\trx\utils\model.py:144:0
  %6756 : Float(*, *, *, strides=[71680, 128, 1], requires_grad=1, device=cuda:0) = onnx::Gather[axis=0](%6633, %6755) # C:\Users\sberti\PycharmProjects\ISBFSAR\modules\ar\trx\utils\model.py:94:0
  %6757 : Float(1, 1, 560, 128, strides=[71680, 71680, 128, 1], requires_grad=1, device=cuda:0) = onnx::Unsqueeze[axes=[1]](%6660) # C:\Users\sberti\PycharmProjects\ISBFSAR\modules\ar\trx\utils\model.py:97:0
  %6758 : Float(*, *, *, strides=[71680, 1, 128], requires_grad=1, device=cuda:0) = onnx::Transpose[perm=[0, 2, 1]](%6753) # C:\Users\sberti\PycharmProjects\ISBFSAR\modules\ar\trx\utils\model.py:97:0
  %6759 : Float(1, 1, 560, *, strides=[313600, 313600, 560, 1], requires_grad=1, device=cuda:0) = onnx::MatMul(%6757, %6758) # C:\Users\sberti\PycharmProjects\ISBFSAR\modules\ar\trx\utils\model.py:97:0
  %6760 : Float(requires_grad=0, device=cpu) = onnx::Constant[value={11.3137}]()
  %6761 : Float(1, 1, 560, *, strides=[313600, 313600, 560, 1], requires_grad=1, device=cuda:0) = onnx::Div(%6759, %6760)
  %6762 : Float(1, 560, 1, *, strides=[313600, 560, 313600, 1], requires_grad=1, device=cuda:0) = onnx::Transpose[perm=[0, 2, 1, 3]](%6761) # C:\Users\sberti\PycharmProjects\ISBFSAR\modules\ar\trx\utils\model.py:101:0
  %6763 : Long(3, strides=[1], device=cpu) = onnx::Constant[value=   1  560  560 [ CPULongType{3} ]]()
  %6764 : Float(1, 560, 560, strides=[313600, 560, 1], requires_grad=1, device=cuda:0) = onnx::Reshape(%6762, %6763) # C:\Users\sberti\PycharmProjects\ISBFSAR\modules\ar\trx\utils\model.py:102:0
  %6765 : Long(requires_grad=0, device=cpu) = onnx::Constant[value={0}]()
  %6766 : Float(560, 560, strides=[560, 1], requires_grad=1, device=cuda:0) = onnx::Gather[axis=0](%6764, %6765) # C:\Users\sberti\PycharmProjects\ISBFSAR\modules\ar\trx\utils\model.py:107:0
  %6767 : Float(560, 1, strides=[1, 1], requires_grad=1, device=cuda:0) = onnx::ReduceMax[axes=[1], keepdims=1](%6766) # C:\Users\sberti\PycharmProjects\ISBFSAR\modules\ar\trx\utils\model.py:107:0
  %6768 : Long(requires_grad=0, device=cpu) = onnx::Constant[value={0}]()
  %6769 : Float(560, 560, strides=[560, 1], requires_grad=1, device=cuda:0) = onnx::Gather[axis=0](%6764, %6768) # C:\Users\sberti\PycharmProjects\ISBFSAR\modules\ar\trx\utils\model.py:108:0
  %6770 : Float(560, 560, strides=[560, 1], requires_grad=1, device=cuda:0) = onnx::Sub(%6769, %6767) # C:\Users\sberti\PycharmProjects\ISBFSAR\modules\ar\trx\utils\model.py:108:0
  %6771 : Float(560, 560, strides=[560, 1], requires_grad=1, device=cuda:0) = onnx::Exp(%6770) # C:\Users\sberti\PycharmProjects\ISBFSAR\modules\ar\trx\utils\model.py:108:0
  %6772 : Float(560, 1, strides=[1, 1], requires_grad=1, device=cuda:0) = onnx::ReduceSum[axes=[1], keepdims=1](%6771) # C:\Users\sberti\PycharmProjects\ISBFSAR\modules\ar\trx\utils\model.py:109:0
  %6773 : Long(2, strides=[1], device=cpu) = onnx::Constant[value=   1  560 [ CPULongType{2} ]]()
  %6775 : Long(2, device=cpu) = onnx::ConstantOfShape[value={1}](%7113)
  %6776 : Float(560, 1, device=cpu) = onnx::Expand(%6772, %6775)
  %6777 : Float(560, 560, strides=[560, 1], requires_grad=1, device=cuda:0) = onnx::Tile(%6776, %6773) # C:\Users\sberti\PycharmProjects\ISBFSAR\modules\ar\trx\utils\model.py:110:0
  %6778 : Float(560, 560, strides=[560, 1], requires_grad=1, device=cuda:0) = onnx::Div(%6771, %6777) # C:\Users\sberti\PycharmProjects\ISBFSAR\modules\ar\trx\utils\model.py:111:0
  %6779 : Long(4, strides=[1], device=cpu) = onnx::Constant[value=   1  560    1  560 [ CPULongType{4} ]]()
  %6780 : Float(1, 560, 1, 560, strides=[313600, 560, 560, 1], requires_grad=1, device=cuda:0) = onnx::Reshape(%6778, %6779) # C:\Users\sberti\PycharmProjects\ISBFSAR\modules\ar\trx\utils\model.py:115:0
  %6781 : Float(1, 1, 560, 560, strides=[313600, 560, 560, 1], requires_grad=1, device=cuda:0) = onnx::Transpose[perm=[0, 2, 1, 3]](%6780) # C:\Users\sberti\PycharmProjects\ISBFSAR\modules\ar\trx\utils\model.py:116:0
  %6782 : Float(1, 1, 560, *, strides=[71680, 71680, 128, 1], requires_grad=1, device=cuda:0) = onnx::MatMul(%6781, %6756) # C:\Users\sberti\PycharmProjects\ISBFSAR\modules\ar\trx\utils\model.py:119:0
  %6783 : Float(1, 560, *, strides=[71680, 128, 1], requires_grad=1, device=cuda:0) = onnx::ReduceSum[axes=[1], keepdims=0](%6782) # C:\Users\sberti\PycharmProjects\ISBFSAR\modules\ar\trx\utils\model.py:120:0
  %6784 : Float(1, 560, *, strides=[71680, 128, 1], requires_grad=1, device=cuda:0) = onnx::Sub(%6636, %6783) # C:\Users\sberti\PycharmProjects\ISBFSAR\modules\ar\trx\utils\model.py:123:0
  %6785 : Float(1, 560, 128, device=cpu) = onnx::Mul(%6784, %6784)
  %6786 : Float(1, strides=[1], device=cpu) = onnx::ReduceSum[axes=[-2, -1], keepdims=0](%6785)
  %6787 : Float(1, strides=[1], requires_grad=1, device=cuda:0) = onnx::Sqrt(%6786) # C:\Users\sberti\AppData\Local\mambaforge\envs\robotologyenv\lib\site-packages\torch\functional.py:1442:0
  %6790 : Float(1, strides=[1], requires_grad=1, device=cuda:0) = onnx::Pow(%6787, %7114) # C:\Users\sberti\AppData\Local\mambaforge\envs\robotologyenv\lib\site-packages\torch\_tensor.py:30:0
  %6793 : Float(1, strides=[1], requires_grad=1, device=cuda:0) = onnx::Div(%6790, %7115)
  %6794 : Float(requires_grad=0, device=cpu) = onnx::Constant[value={-1}]()
  %6795 : Float(1, strides=[1], requires_grad=1, device=cuda:0) = onnx::Mul(%6793, %6794)
  %6796 : Long(requires_grad=0, device=cuda:0) = onnx::Cast[to=7](%6668) # C:\Users\sberti\PycharmProjects\ISBFSAR\modules\ar\trx\utils\model.py:129:0
  %6797 : Float(1, strides=[5], requires_grad=1, device=cuda:0) = onnx::Gather[axis=1](%6750, %6796) # C:\Users\sberti\PycharmProjects\ISBFSAR\modules\ar\trx\utils\model.py:130:0
  %6798 : Long(1, strides=[1], device=cpu) = onnx::Shape(%6797)
  %6799 : Float(1, strides=[1], requires_grad=1, device=cuda:0) = onnx::Expand(%6795, %6798) # C:\Users\sberti\PycharmProjects\ISBFSAR\modules\ar\trx\utils\model.py:130:0
  %6800 : Long(1, strides=[1], device=cpu) = onnx::Unsqueeze[axes=[0]](%6796)
  %6801 : Long(1, 1, strides=[1, 1], requires_grad=0, device=cpu) = onnx::Constant[value={0}]()
  %6802 : Long(1, 1, strides=[1, 1], requires_grad=0, device=cpu) = onnx::Constant[value={0}]()
  %6803 : Long(1, 1, strides=[1, 1], device=cpu) = onnx::Add(%6802, %6800)
  %6804 : Long(2, strides=[1], device=cpu) = onnx::Shape(%6803)
  %6805 : Long(1, strides=[1], device=cpu) = onnx::Shape(%6804)
  %6806 : Long(2, device=cpu) = onnx::ConstantOfShape[value={1}](%6805)
  %6807 : Long(requires_grad=0, device=cpu) = onnx::Constant[value={-1}]()
  %6808 : Long(2, strides=[1], device=cpu) = onnx::Mul(%6806, %6807)
  %6809 : Bool(2, strides=[1], device=cpu) = onnx::Equal(%6804, %6808)
  %6810 : Long(2, strides=[1], device=cpu) = onnx::Where(%6809, %6806, %6804)
  %6811 : Long(1, 1, device=cpu) = onnx::Expand(%6801, %6810)
  %6812 : Long(1, 1, 1, strides=[1, 1, 1], device=cpu) = onnx::Unsqueeze[axes=[-1]](%6811)
  %6813 : Long(1, strides=[1], device=cpu) = onnx::Shape(%6804)
  %6814 : Long(2, device=cpu) = onnx::ConstantOfShape[value={1}](%6813)
  %6815 : Long(requires_grad=0, device=cpu) = onnx::Constant[value={-1}]()
  %6816 : Long(2, strides=[1], device=cpu) = onnx::Mul(%6814, %6815)
  %6817 : Bool(2, strides=[1], device=cpu) = onnx::Equal(%6804, %6816)
  %6818 : Long(2, strides=[1], device=cpu) = onnx::Where(%6817, %6814, %6804)
  %6819 : Long(1, 1, device=cpu) = onnx::Expand(%6800, %6818)
  %6820 : Long(1, 1, 1, strides=[1, 1, 1], device=cpu) = onnx::Unsqueeze[axes=[-1]](%6819)
  %6821 : Long(1, 1, 2, strides=[2, 2, 1], device=cpu) = onnx::Concat[axis=-1](%6812, %6820)
  %6822 : Long(2, strides=[1], device=cpu) = onnx::Shape(%6750)
  %6823 : Long(1, strides=[1], device=cpu) = onnx::Constant[value={0}]()
  %6824 : Long(1, strides=[1], device=cpu) = onnx::Constant[value={2}]()
  %6825 : Long(1, strides=[1], device=cpu) = onnx::Constant[value={9223372036854775807}]()
  %6826 : Long(0, strides=[1], device=cpu) = onnx::Slice(%6822, %6824, %6825, %6823)
  %6827 : Long(2, strides=[1], device=cpu) = onnx::Concat[axis=0](%6804, %6826)
  %6828 : Float(1, 1, device=cpu) = onnx::Reshape(%6799, %6827)
  %6829 : Float(1, 5, strides=[5, 1], requires_grad=1, device=cuda:0) = onnx::ScatterND(%6750, %6821, %6828) # C:\Users\sberti\PycharmProjects\ISBFSAR\modules\ar\trx\utils\model.py:130:0
  %6830 : Long(1, strides=[1], device=cpu) = onnx::Constant[value={-1}]()
  %6831 : Int(*, strides=[1], requires_grad=0, device=cuda:0) = onnx::Reshape(%6669, %6830) # C:\Users\sberti\PycharmProjects\ISBFSAR\modules\ar\trx\utils\model.py:144:0
  %6832 : Float(*, *, *, strides=[71680, 128, 1], requires_grad=1, device=cuda:0) = onnx::Gather[axis=0](%6648, %6831) # C:\Users\sberti\PycharmProjects\ISBFSAR\modules\ar\trx\utils\model.py:93:0
  %6833 : Long(1, strides=[1], device=cpu) = onnx::Constant[value={-1}]()
  %6834 : Int(*, strides=[1], requires_grad=0, device=cuda:0) = onnx::Reshape(%6669, %6833) # C:\Users\sberti\PycharmProjects\ISBFSAR\modules\ar\trx\utils\model.py:144:0
  %6835 : Float(*, *, *, strides=[71680, 128, 1], requires_grad=1, device=cuda:0) = onnx::Gather[axis=0](%6633, %6834) # C:\Users\sberti\PycharmProjects\ISBFSAR\modules\ar\trx\utils\model.py:94:0
  %6836 : Float(1, 1, 560, 128, strides=[71680, 71680, 128, 1], requires_grad=1, device=cuda:0) = onnx::Unsqueeze[axes=[1]](%6660) # C:\Users\sberti\PycharmProjects\ISBFSAR\modules\ar\trx\utils\model.py:97:0
  %6837 : Float(*, *, *, strides=[71680, 1, 128], requires_grad=1, device=cuda:0) = onnx::Transpose[perm=[0, 2, 1]](%6832) # C:\Users\sberti\PycharmProjects\ISBFSAR\modules\ar\trx\utils\model.py:97:0
  %6838 : Float(1, 1, 560, *, strides=[313600, 313600, 560, 1], requires_grad=1, device=cuda:0) = onnx::MatMul(%6836, %6837) # C:\Users\sberti\PycharmProjects\ISBFSAR\modules\ar\trx\utils\model.py:97:0
  %6839 : Float(requires_grad=0, device=cpu) = onnx::Constant[value={11.3137}]()
  %6840 : Float(1, 1, 560, *, strides=[313600, 313600, 560, 1], requires_grad=1, device=cuda:0) = onnx::Div(%6838, %6839)
  %6841 : Float(1, 560, 1, *, strides=[313600, 560, 313600, 1], requires_grad=1, device=cuda:0) = onnx::Transpose[perm=[0, 2, 1, 3]](%6840) # C:\Users\sberti\PycharmProjects\ISBFSAR\modules\ar\trx\utils\model.py:101:0
  %6842 : Long(3, strides=[1], device=cpu) = onnx::Constant[value=   1  560  560 [ CPULongType{3} ]]()
  %6843 : Float(1, 560, 560, strides=[313600, 560, 1], requires_grad=1, device=cuda:0) = onnx::Reshape(%6841, %6842) # C:\Users\sberti\PycharmProjects\ISBFSAR\modules\ar\trx\utils\model.py:102:0
  %6844 : Long(requires_grad=0, device=cpu) = onnx::Constant[value={0}]()
  %6845 : Float(560, 560, strides=[560, 1], requires_grad=1, device=cuda:0) = onnx::Gather[axis=0](%6843, %6844) # C:\Users\sberti\PycharmProjects\ISBFSAR\modules\ar\trx\utils\model.py:107:0
  %6846 : Float(560, 1, strides=[1, 1], requires_grad=1, device=cuda:0) = onnx::ReduceMax[axes=[1], keepdims=1](%6845) # C:\Users\sberti\PycharmProjects\ISBFSAR\modules\ar\trx\utils\model.py:107:0
  %6847 : Long(requires_grad=0, device=cpu) = onnx::Constant[value={0}]()
  %6848 : Float(560, 560, strides=[560, 1], requires_grad=1, device=cuda:0) = onnx::Gather[axis=0](%6843, %6847) # C:\Users\sberti\PycharmProjects\ISBFSAR\modules\ar\trx\utils\model.py:108:0
  %6849 : Float(560, 560, strides=[560, 1], requires_grad=1, device=cuda:0) = onnx::Sub(%6848, %6846) # C:\Users\sberti\PycharmProjects\ISBFSAR\modules\ar\trx\utils\model.py:108:0
  %6850 : Float(560, 560, strides=[560, 1], requires_grad=1, device=cuda:0) = onnx::Exp(%6849) # C:\Users\sberti\PycharmProjects\ISBFSAR\modules\ar\trx\utils\model.py:108:0
  %6851 : Float(560, 1, strides=[1, 1], requires_grad=1, device=cuda:0) = onnx::ReduceSum[axes=[1], keepdims=1](%6850) # C:\Users\sberti\PycharmProjects\ISBFSAR\modules\ar\trx\utils\model.py:109:0
  %6852 : Long(2, strides=[1], device=cpu) = onnx::Constant[value=   1  560 [ CPULongType{2} ]]()
  %6854 : Long(2, device=cpu) = onnx::ConstantOfShape[value={1}](%7116)
  %6855 : Float(560, 1, device=cpu) = onnx::Expand(%6851, %6854)
  %6856 : Float(560, 560, strides=[560, 1], requires_grad=1, device=cuda:0) = onnx::Tile(%6855, %6852) # C:\Users\sberti\PycharmProjects\ISBFSAR\modules\ar\trx\utils\model.py:110:0
  %6857 : Float(560, 560, strides=[560, 1], requires_grad=1, device=cuda:0) = onnx::Div(%6850, %6856) # C:\Users\sberti\PycharmProjects\ISBFSAR\modules\ar\trx\utils\model.py:111:0
  %6858 : Long(4, strides=[1], device=cpu) = onnx::Constant[value=   1  560    1  560 [ CPULongType{4} ]]()
  %6859 : Float(1, 560, 1, 560, strides=[313600, 560, 560, 1], requires_grad=1, device=cuda:0) = onnx::Reshape(%6857, %6858) # C:\Users\sberti\PycharmProjects\ISBFSAR\modules\ar\trx\utils\model.py:115:0
  %6860 : Float(1, 1, 560, 560, strides=[313600, 560, 560, 1], requires_grad=1, device=cuda:0) = onnx::Transpose[perm=[0, 2, 1, 3]](%6859) # C:\Users\sberti\PycharmProjects\ISBFSAR\modules\ar\trx\utils\model.py:116:0
  %6861 : Float(1, 1, 560, *, strides=[71680, 71680, 128, 1], requires_grad=1, device=cuda:0) = onnx::MatMul(%6860, %6835) # C:\Users\sberti\PycharmProjects\ISBFSAR\modules\ar\trx\utils\model.py:119:0
  %6862 : Float(1, 560, *, strides=[71680, 128, 1], requires_grad=1, device=cuda:0) = onnx::ReduceSum[axes=[1], keepdims=0](%6861) # C:\Users\sberti\PycharmProjects\ISBFSAR\modules\ar\trx\utils\model.py:120:0
  %6863 : Float(1, 560, *, strides=[71680, 128, 1], requires_grad=1, device=cuda:0) = onnx::Sub(%6636, %6862) # C:\Users\sberti\PycharmProjects\ISBFSAR\modules\ar\trx\utils\model.py:123:0
  %6864 : Float(1, 560, 128, device=cpu) = onnx::Mul(%6863, %6863)
  %6865 : Float(1, strides=[1], device=cpu) = onnx::ReduceSum[axes=[-2, -1], keepdims=0](%6864)
  %6866 : Float(1, strides=[1], requires_grad=1, device=cuda:0) = onnx::Sqrt(%6865) # C:\Users\sberti\AppData\Local\mambaforge\envs\robotologyenv\lib\site-packages\torch\functional.py:1442:0
  %6869 : Float(1, strides=[1], requires_grad=1, device=cuda:0) = onnx::Pow(%6866, %7117) # C:\Users\sberti\AppData\Local\mambaforge\envs\robotologyenv\lib\site-packages\torch\_tensor.py:30:0
  %6872 : Float(1, strides=[1], requires_grad=1, device=cuda:0) = onnx::Div(%6869, %7118)
  %6873 : Float(requires_grad=0, device=cpu) = onnx::Constant[value={-1}]()
  %6874 : Float(1, strides=[1], requires_grad=1, device=cuda:0) = onnx::Mul(%6872, %6873)
  %6875 : Long(requires_grad=0, device=cuda:0) = onnx::Cast[to=7](%6669) # C:\Users\sberti\PycharmProjects\ISBFSAR\modules\ar\trx\utils\model.py:129:0
  %6876 : Float(1, strides=[5], requires_grad=1, device=cuda:0) = onnx::Gather[axis=1](%6829, %6875) # C:\Users\sberti\PycharmProjects\ISBFSAR\modules\ar\trx\utils\model.py:130:0
  %6877 : Long(1, strides=[1], device=cpu) = onnx::Shape(%6876)
  %6878 : Float(1, strides=[1], requires_grad=1, device=cuda:0) = onnx::Expand(%6874, %6877) # C:\Users\sberti\PycharmProjects\ISBFSAR\modules\ar\trx\utils\model.py:130:0
  %6879 : Long(1, strides=[1], device=cpu) = onnx::Unsqueeze[axes=[0]](%6875)
  %6880 : Long(1, 1, strides=[1, 1], requires_grad=0, device=cpu) = onnx::Constant[value={0}]()
  %6881 : Long(1, 1, strides=[1, 1], requires_grad=0, device=cpu) = onnx::Constant[value={0}]()
  %6882 : Long(1, 1, strides=[1, 1], device=cpu) = onnx::Add(%6881, %6879)
  %6883 : Long(2, strides=[1], device=cpu) = onnx::Shape(%6882)
  %6884 : Long(1, strides=[1], device=cpu) = onnx::Shape(%6883)
  %6885 : Long(2, device=cpu) = onnx::ConstantOfShape[value={1}](%6884)
  %6886 : Long(requires_grad=0, device=cpu) = onnx::Constant[value={-1}]()
  %6887 : Long(2, strides=[1], device=cpu) = onnx::Mul(%6885, %6886)
  %6888 : Bool(2, strides=[1], device=cpu) = onnx::Equal(%6883, %6887)
  %6889 : Long(2, strides=[1], device=cpu) = onnx::Where(%6888, %6885, %6883)
  %6890 : Long(1, 1, device=cpu) = onnx::Expand(%6880, %6889)
  %6891 : Long(1, 1, 1, strides=[1, 1, 1], device=cpu) = onnx::Unsqueeze[axes=[-1]](%6890)
  %6892 : Long(1, strides=[1], device=cpu) = onnx::Shape(%6883)
  %6893 : Long(2, device=cpu) = onnx::ConstantOfShape[value={1}](%6892)
  %6894 : Long(requires_grad=0, device=cpu) = onnx::Constant[value={-1}]()
  %6895 : Long(2, strides=[1], device=cpu) = onnx::Mul(%6893, %6894)
  %6896 : Bool(2, strides=[1], device=cpu) = onnx::Equal(%6883, %6895)
  %6897 : Long(2, strides=[1], device=cpu) = onnx::Where(%6896, %6893, %6883)
  %6898 : Long(1, 1, device=cpu) = onnx::Expand(%6879, %6897)
  %6899 : Long(1, 1, 1, strides=[1, 1, 1], device=cpu) = onnx::Unsqueeze[axes=[-1]](%6898)
  %6900 : Long(1, 1, 2, strides=[2, 2, 1], device=cpu) = onnx::Concat[axis=-1](%6891, %6899)
  %6901 : Long(2, strides=[1], device=cpu) = onnx::Shape(%6829)
  %6902 : Long(1, strides=[1], device=cpu) = onnx::Constant[value={0}]()
  %6903 : Long(1, strides=[1], device=cpu) = onnx::Constant[value={2}]()
  %6904 : Long(1, strides=[1], device=cpu) = onnx::Constant[value={9223372036854775807}]()
  %6905 : Long(0, strides=[1], device=cpu) = onnx::Slice(%6901, %6903, %6904, %6902)
  %6906 : Long(2, strides=[1], device=cpu) = onnx::Concat[axis=0](%6883, %6905)
  %6907 : Float(1, 1, device=cpu) = onnx::Reshape(%6878, %6906)
  %6908 : Float(1, 5, strides=[5, 1], requires_grad=1, device=cuda:0) = onnx::ScatterND(%6829, %6900, %6907) # C:\Users\sberti\PycharmProjects\ISBFSAR\modules\ar\trx\utils\model.py:130:0
  %6909 : Long(1, strides=[1], device=cpu) = onnx::Constant[value={-1}]()
  %6910 : Int(*, strides=[1], requires_grad=0, device=cuda:0) = onnx::Reshape(%6670, %6909) # C:\Users\sberti\PycharmProjects\ISBFSAR\modules\ar\trx\utils\model.py:144:0
  %6911 : Float(*, *, *, strides=[71680, 128, 1], requires_grad=1, device=cuda:0) = onnx::Gather[axis=0](%6648, %6910) # C:\Users\sberti\PycharmProjects\ISBFSAR\modules\ar\trx\utils\model.py:93:0
  %6912 : Long(1, strides=[1], device=cpu) = onnx::Constant[value={-1}]()
  %6913 : Int(*, strides=[1], requires_grad=0, device=cuda:0) = onnx::Reshape(%6670, %6912) # C:\Users\sberti\PycharmProjects\ISBFSAR\modules\ar\trx\utils\model.py:144:0
  %6914 : Float(*, *, *, strides=[71680, 128, 1], requires_grad=1, device=cuda:0) = onnx::Gather[axis=0](%6633, %6913) # C:\Users\sberti\PycharmProjects\ISBFSAR\modules\ar\trx\utils\model.py:94:0
  %6915 : Float(1, 1, 560, 128, strides=[71680, 71680, 128, 1], requires_grad=1, device=cuda:0) = onnx::Unsqueeze[axes=[1]](%6660) # C:\Users\sberti\PycharmProjects\ISBFSAR\modules\ar\trx\utils\model.py:97:0
  %6916 : Float(*, *, *, strides=[71680, 1, 128], requires_grad=1, device=cuda:0) = onnx::Transpose[perm=[0, 2, 1]](%6911) # C:\Users\sberti\PycharmProjects\ISBFSAR\modules\ar\trx\utils\model.py:97:0
  %6917 : Float(1, 1, 560, *, strides=[313600, 313600, 560, 1], requires_grad=1, device=cuda:0) = onnx::MatMul(%6915, %6916) # C:\Users\sberti\PycharmProjects\ISBFSAR\modules\ar\trx\utils\model.py:97:0
  %6918 : Float(requires_grad=0, device=cpu) = onnx::Constant[value={11.3137}]()
  %6919 : Float(1, 1, 560, *, strides=[313600, 313600, 560, 1], requires_grad=1, device=cuda:0) = onnx::Div(%6917, %6918)
  %6920 : Float(1, 560, 1, *, strides=[313600, 560, 313600, 1], requires_grad=1, device=cuda:0) = onnx::Transpose[perm=[0, 2, 1, 3]](%6919) # C:\Users\sberti\PycharmProjects\ISBFSAR\modules\ar\trx\utils\model.py:101:0
  %6921 : Long(3, strides=[1], device=cpu) = onnx::Constant[value=   1  560  560 [ CPULongType{3} ]]()
  %6922 : Float(1, 560, 560, strides=[313600, 560, 1], requires_grad=1, device=cuda:0) = onnx::Reshape(%6920, %6921) # C:\Users\sberti\PycharmProjects\ISBFSAR\modules\ar\trx\utils\model.py:102:0
  %6923 : Long(requires_grad=0, device=cpu) = onnx::Constant[value={0}]()
  %6924 : Float(560, 560, strides=[560, 1], requires_grad=1, device=cuda:0) = onnx::Gather[axis=0](%6922, %6923) # C:\Users\sberti\PycharmProjects\ISBFSAR\modules\ar\trx\utils\model.py:107:0
  %6925 : Float(560, 1, strides=[1, 1], requires_grad=1, device=cuda:0) = onnx::ReduceMax[axes=[1], keepdims=1](%6924) # C:\Users\sberti\PycharmProjects\ISBFSAR\modules\ar\trx\utils\model.py:107:0
  %6926 : Long(requires_grad=0, device=cpu) = onnx::Constant[value={0}]()
  %6927 : Float(560, 560, strides=[560, 1], requires_grad=1, device=cuda:0) = onnx::Gather[axis=0](%6922, %6926) # C:\Users\sberti\PycharmProjects\ISBFSAR\modules\ar\trx\utils\model.py:108:0
  %6928 : Float(560, 560, strides=[560, 1], requires_grad=1, device=cuda:0) = onnx::Sub(%6927, %6925) # C:\Users\sberti\PycharmProjects\ISBFSAR\modules\ar\trx\utils\model.py:108:0
  %6929 : Float(560, 560, strides=[560, 1], requires_grad=1, device=cuda:0) = onnx::Exp(%6928) # C:\Users\sberti\PycharmProjects\ISBFSAR\modules\ar\trx\utils\model.py:108:0
  %6930 : Float(560, 1, strides=[1, 1], requires_grad=1, device=cuda:0) = onnx::ReduceSum[axes=[1], keepdims=1](%6929) # C:\Users\sberti\PycharmProjects\ISBFSAR\modules\ar\trx\utils\model.py:109:0
  %6931 : Long(2, strides=[1], device=cpu) = onnx::Constant[value=   1  560 [ CPULongType{2} ]]()
  %6933 : Long(2, device=cpu) = onnx::ConstantOfShape[value={1}](%7119)
  %6934 : Float(560, 1, device=cpu) = onnx::Expand(%6930, %6933)
  %6935 : Float(560, 560, strides=[560, 1], requires_grad=1, device=cuda:0) = onnx::Tile(%6934, %6931) # C:\Users\sberti\PycharmProjects\ISBFSAR\modules\ar\trx\utils\model.py:110:0
  %6936 : Float(560, 560, strides=[560, 1], requires_grad=1, device=cuda:0) = onnx::Div(%6929, %6935) # C:\Users\sberti\PycharmProjects\ISBFSAR\modules\ar\trx\utils\model.py:111:0
  %6937 : Long(4, strides=[1], device=cpu) = onnx::Constant[value=   1  560    1  560 [ CPULongType{4} ]]()
  %6938 : Float(1, 560, 1, 560, strides=[313600, 560, 560, 1], requires_grad=1, device=cuda:0) = onnx::Reshape(%6936, %6937) # C:\Users\sberti\PycharmProjects\ISBFSAR\modules\ar\trx\utils\model.py:115:0
  %6939 : Float(1, 1, 560, 560, strides=[313600, 560, 560, 1], requires_grad=1, device=cuda:0) = onnx::Transpose[perm=[0, 2, 1, 3]](%6938) # C:\Users\sberti\PycharmProjects\ISBFSAR\modules\ar\trx\utils\model.py:116:0
  %6940 : Float(1, 1, 560, *, strides=[71680, 71680, 128, 1], requires_grad=1, device=cuda:0) = onnx::MatMul(%6939, %6914) # C:\Users\sberti\PycharmProjects\ISBFSAR\modules\ar\trx\utils\model.py:119:0
  %6941 : Float(1, 560, *, strides=[71680, 128, 1], requires_grad=1, device=cuda:0) = onnx::ReduceSum[axes=[1], keepdims=0](%6940) # C:\Users\sberti\PycharmProjects\ISBFSAR\modules\ar\trx\utils\model.py:120:0
  %6942 : Float(1, 560, *, strides=[71680, 128, 1], requires_grad=1, device=cuda:0) = onnx::Sub(%6636, %6941) # C:\Users\sberti\PycharmProjects\ISBFSAR\modules\ar\trx\utils\model.py:123:0
  %6943 : Float(1, 560, 128, device=cpu) = onnx::Mul(%6942, %6942)
  %6944 : Float(1, strides=[1], device=cpu) = onnx::ReduceSum[axes=[-2, -1], keepdims=0](%6943)
  %6945 : Float(1, strides=[1], requires_grad=1, device=cuda:0) = onnx::Sqrt(%6944) # C:\Users\sberti\AppData\Local\mambaforge\envs\robotologyenv\lib\site-packages\torch\functional.py:1442:0
  %6948 : Float(1, strides=[1], requires_grad=1, device=cuda:0) = onnx::Pow(%6945, %7120) # C:\Users\sberti\AppData\Local\mambaforge\envs\robotologyenv\lib\site-packages\torch\_tensor.py:30:0
  %6951 : Float(1, strides=[1], requires_grad=1, device=cuda:0) = onnx::Div(%6948, %7121)
  %6952 : Float(requires_grad=0, device=cpu) = onnx::Constant[value={-1}]()
  %6953 : Float(1, strides=[1], requires_grad=1, device=cuda:0) = onnx::Mul(%6951, %6952)
  %6954 : Long(requires_grad=0, device=cuda:0) = onnx::Cast[to=7](%6670) # C:\Users\sberti\PycharmProjects\ISBFSAR\modules\ar\trx\utils\model.py:129:0
  %6955 : Float(1, strides=[5], requires_grad=1, device=cuda:0) = onnx::Gather[axis=1](%6908, %6954) # C:\Users\sberti\PycharmProjects\ISBFSAR\modules\ar\trx\utils\model.py:130:0
  %6956 : Long(1, strides=[1], device=cpu) = onnx::Shape(%6955)
  %6957 : Float(1, strides=[1], requires_grad=1, device=cuda:0) = onnx::Expand(%6953, %6956) # C:\Users\sberti\PycharmProjects\ISBFSAR\modules\ar\trx\utils\model.py:130:0
  %6958 : Long(1, strides=[1], device=cpu) = onnx::Unsqueeze[axes=[0]](%6954)
  %6959 : Long(1, 1, strides=[1, 1], requires_grad=0, device=cpu) = onnx::Constant[value={0}]()
  %6960 : Long(1, 1, strides=[1, 1], requires_grad=0, device=cpu) = onnx::Constant[value={0}]()
  %6961 : Long(1, 1, strides=[1, 1], device=cpu) = onnx::Add(%6960, %6958)
  %6962 : Long(2, strides=[1], device=cpu) = onnx::Shape(%6961)
  %6963 : Long(1, strides=[1], device=cpu) = onnx::Shape(%6962)
  %6964 : Long(2, device=cpu) = onnx::ConstantOfShape[value={1}](%6963)
  %6965 : Long(requires_grad=0, device=cpu) = onnx::Constant[value={-1}]()
  %6966 : Long(2, strides=[1], device=cpu) = onnx::Mul(%6964, %6965)
  %6967 : Bool(2, strides=[1], device=cpu) = onnx::Equal(%6962, %6966)
  %6968 : Long(2, strides=[1], device=cpu) = onnx::Where(%6967, %6964, %6962)
  %6969 : Long(1, 1, device=cpu) = onnx::Expand(%6959, %6968)
  %6970 : Long(1, 1, 1, strides=[1, 1, 1], device=cpu) = onnx::Unsqueeze[axes=[-1]](%6969)
  %6971 : Long(1, strides=[1], device=cpu) = onnx::Shape(%6962)
  %6972 : Long(2, device=cpu) = onnx::ConstantOfShape[value={1}](%6971)
  %6973 : Long(requires_grad=0, device=cpu) = onnx::Constant[value={-1}]()
  %6974 : Long(2, strides=[1], device=cpu) = onnx::Mul(%6972, %6973)
  %6975 : Bool(2, strides=[1], device=cpu) = onnx::Equal(%6962, %6974)
  %6976 : Long(2, strides=[1], device=cpu) = onnx::Where(%6975, %6972, %6962)
  %6977 : Long(1, 1, device=cpu) = onnx::Expand(%6958, %6976)
  %6978 : Long(1, 1, 1, strides=[1, 1, 1], device=cpu) = onnx::Unsqueeze[axes=[-1]](%6977)
  %6979 : Long(1, 1, 2, strides=[2, 2, 1], device=cpu) = onnx::Concat[axis=-1](%6970, %6978)
  %6980 : Long(2, strides=[1], device=cpu) = onnx::Shape(%6908)
  %6981 : Long(1, strides=[1], device=cpu) = onnx::Constant[value={0}]()
  %6982 : Long(1, strides=[1], device=cpu) = onnx::Constant[value={2}]()
  %6983 : Long(1, strides=[1], device=cpu) = onnx::Constant[value={9223372036854775807}]()
  %6984 : Long(0, strides=[1], device=cpu) = onnx::Slice(%6980, %6982, %6983, %6981)
  %6985 : Long(2, strides=[1], device=cpu) = onnx::Concat[axis=0](%6962, %6984)
  %6986 : Float(1, 1, device=cpu) = onnx::Reshape(%6957, %6985)
  %6987 : Float(1, 5, strides=[5, 1], requires_grad=1, device=cuda:0) = onnx::ScatterND(%6908, %6979, %6986) # C:\Users\sberti\PycharmProjects\ISBFSAR\modules\ar\trx\utils\model.py:130:0
  %6988 : Long(1, strides=[1], device=cpu) = onnx::Constant[value={-1}]()
  %6989 : Int(*, strides=[1], requires_grad=0, device=cuda:0) = onnx::Reshape(%6671, %6988) # C:\Users\sberti\PycharmProjects\ISBFSAR\modules\ar\trx\utils\model.py:144:0
  %6990 : Float(*, *, *, strides=[71680, 128, 1], requires_grad=1, device=cuda:0) = onnx::Gather[axis=0](%6648, %6989) # C:\Users\sberti\PycharmProjects\ISBFSAR\modules\ar\trx\utils\model.py:93:0
  %6991 : Long(1, strides=[1], device=cpu) = onnx::Constant[value={-1}]()
  %6992 : Int(*, strides=[1], requires_grad=0, device=cuda:0) = onnx::Reshape(%6671, %6991) # C:\Users\sberti\PycharmProjects\ISBFSAR\modules\ar\trx\utils\model.py:144:0
  %6993 : Float(*, *, *, strides=[71680, 128, 1], requires_grad=1, device=cuda:0) = onnx::Gather[axis=0](%6633, %6992) # C:\Users\sberti\PycharmProjects\ISBFSAR\modules\ar\trx\utils\model.py:94:0
  %6994 : Float(1, 1, 560, 128, strides=[71680, 71680, 128, 1], requires_grad=1, device=cuda:0) = onnx::Unsqueeze[axes=[1]](%6660) # C:\Users\sberti\PycharmProjects\ISBFSAR\modules\ar\trx\utils\model.py:97:0
  %6995 : Float(*, *, *, strides=[71680, 1, 128], requires_grad=1, device=cuda:0) = onnx::Transpose[perm=[0, 2, 1]](%6990) # C:\Users\sberti\PycharmProjects\ISBFSAR\modules\ar\trx\utils\model.py:97:0
  %6996 : Float(1, 1, 560, *, strides=[313600, 313600, 560, 1], requires_grad=1, device=cuda:0) = onnx::MatMul(%6994, %6995) # C:\Users\sberti\PycharmProjects\ISBFSAR\modules\ar\trx\utils\model.py:97:0
  %6997 : Float(requires_grad=0, device=cpu) = onnx::Constant[value={11.3137}]()
  %6998 : Float(1, 1, 560, *, strides=[313600, 313600, 560, 1], requires_grad=1, device=cuda:0) = onnx::Div(%6996, %6997)
  %6999 : Float(1, 560, 1, *, strides=[313600, 560, 313600, 1], requires_grad=1, device=cuda:0) = onnx::Transpose[perm=[0, 2, 1, 3]](%6998) # C:\Users\sberti\PycharmProjects\ISBFSAR\modules\ar\trx\utils\model.py:101:0
  %7000 : Long(3, strides=[1], device=cpu) = onnx::Constant[value=   1  560  560 [ CPULongType{3} ]]()
  %7001 : Float(1, 560, 560, strides=[313600, 560, 1], requires_grad=1, device=cuda:0) = onnx::Reshape(%6999, %7000) # C:\Users\sberti\PycharmProjects\ISBFSAR\modules\ar\trx\utils\model.py:102:0
  %7002 : Long(requires_grad=0, device=cpu) = onnx::Constant[value={0}]()
  %7003 : Float(560, 560, strides=[560, 1], requires_grad=1, device=cuda:0) = onnx::Gather[axis=0](%7001, %7002) # C:\Users\sberti\PycharmProjects\ISBFSAR\modules\ar\trx\utils\model.py:107:0
  %7004 : Float(560, 1, strides=[1, 1], requires_grad=1, device=cuda:0) = onnx::ReduceMax[axes=[1], keepdims=1](%7003) # C:\Users\sberti\PycharmProjects\ISBFSAR\modules\ar\trx\utils\model.py:107:0
  %7005 : Long(requires_grad=0, device=cpu) = onnx::Constant[value={0}]()
  %7006 : Float(560, 560, strides=[560, 1], requires_grad=1, device=cuda:0) = onnx::Gather[axis=0](%7001, %7005) # C:\Users\sberti\PycharmProjects\ISBFSAR\modules\ar\trx\utils\model.py:108:0
  %7007 : Float(560, 560, strides=[560, 1], requires_grad=1, device=cuda:0) = onnx::Sub(%7006, %7004) # C:\Users\sberti\PycharmProjects\ISBFSAR\modules\ar\trx\utils\model.py:108:0
  %7008 : Float(560, 560, strides=[560, 1], requires_grad=1, device=cuda:0) = onnx::Exp(%7007) # C:\Users\sberti\PycharmProjects\ISBFSAR\modules\ar\trx\utils\model.py:108:0
  %7009 : Float(560, 1, strides=[1, 1], requires_grad=1, device=cuda:0) = onnx::ReduceSum[axes=[1], keepdims=1](%7008) # C:\Users\sberti\PycharmProjects\ISBFSAR\modules\ar\trx\utils\model.py:109:0
  %7010 : Long(2, strides=[1], device=cpu) = onnx::Constant[value=   1  560 [ CPULongType{2} ]]()
  %7012 : Long(2, device=cpu) = onnx::ConstantOfShape[value={1}](%7122)
  %7013 : Float(560, 1, device=cpu) = onnx::Expand(%7009, %7012)
  %7014 : Float(560, 560, strides=[560, 1], requires_grad=1, device=cuda:0) = onnx::Tile(%7013, %7010) # C:\Users\sberti\PycharmProjects\ISBFSAR\modules\ar\trx\utils\model.py:110:0
  %7015 : Float(560, 560, strides=[560, 1], requires_grad=1, device=cuda:0) = onnx::Div(%7008, %7014) # C:\Users\sberti\PycharmProjects\ISBFSAR\modules\ar\trx\utils\model.py:111:0
  %7016 : Long(4, strides=[1], device=cpu) = onnx::Constant[value=   1  560    1  560 [ CPULongType{4} ]]()
  %7017 : Float(1, 560, 1, 560, strides=[313600, 560, 560, 1], requires_grad=1, device=cuda:0) = onnx::Reshape(%7015, %7016) # C:\Users\sberti\PycharmProjects\ISBFSAR\modules\ar\trx\utils\model.py:115:0
  %7018 : Float(1, 1, 560, 560, strides=[313600, 560, 560, 1], requires_grad=1, device=cuda:0) = onnx::Transpose[perm=[0, 2, 1, 3]](%7017) # C:\Users\sberti\PycharmProjects\ISBFSAR\modules\ar\trx\utils\model.py:116:0
  %7019 : Float(1, 1, 560, *, strides=[71680, 71680, 128, 1], requires_grad=1, device=cuda:0) = onnx::MatMul(%7018, %6993) # C:\Users\sberti\PycharmProjects\ISBFSAR\modules\ar\trx\utils\model.py:119:0
  %7020 : Float(1, 560, *, strides=[71680, 128, 1], requires_grad=1, device=cuda:0) = onnx::ReduceSum[axes=[1], keepdims=0](%7019) # C:\Users\sberti\PycharmProjects\ISBFSAR\modules\ar\trx\utils\model.py:120:0
  %7021 : Float(1, 560, *, strides=[71680, 128, 1], requires_grad=1, device=cuda:0) = onnx::Sub(%6636, %7020) # C:\Users\sberti\PycharmProjects\ISBFSAR\modules\ar\trx\utils\model.py:123:0
  %7022 : Float(1, 560, 128, device=cpu) = onnx::Mul(%7021, %7021)
  %7023 : Float(1, strides=[1], device=cpu) = onnx::ReduceSum[axes=[-2, -1], keepdims=0](%7022)
  %7024 : Float(1, strides=[1], requires_grad=1, device=cuda:0) = onnx::Sqrt(%7023) # C:\Users\sberti\AppData\Local\mambaforge\envs\robotologyenv\lib\site-packages\torch\functional.py:1442:0
  %7027 : Float(1, strides=[1], requires_grad=1, device=cuda:0) = onnx::Pow(%7024, %7123) # C:\Users\sberti\AppData\Local\mambaforge\envs\robotologyenv\lib\site-packages\torch\_tensor.py:30:0
  %7030 : Float(1, strides=[1], requires_grad=1, device=cuda:0) = onnx::Div(%7027, %7124)
  %7031 : Float(requires_grad=0, device=cpu) = onnx::Constant[value={-1}]()
  %7032 : Float(1, strides=[1], requires_grad=1, device=cuda:0) = onnx::Mul(%7030, %7031)
  %7033 : Long(requires_grad=0, device=cuda:0) = onnx::Cast[to=7](%6671) # C:\Users\sberti\PycharmProjects\ISBFSAR\modules\ar\trx\utils\model.py:129:0
  %7034 : Float(1, strides=[5], requires_grad=1, device=cuda:0) = onnx::Gather[axis=1](%6987, %7033) # C:\Users\sberti\PycharmProjects\ISBFSAR\modules\ar\trx\utils\model.py:130:0
  %7035 : Long(1, strides=[1], device=cpu) = onnx::Shape(%7034)
  %7036 : Float(1, strides=[1], requires_grad=1, device=cuda:0) = onnx::Expand(%7032, %7035) # C:\Users\sberti\PycharmProjects\ISBFSAR\modules\ar\trx\utils\model.py:130:0
  %7037 : Long(1, strides=[1], device=cpu) = onnx::Unsqueeze[axes=[0]](%7033)
  %7038 : Long(1, 1, strides=[1, 1], requires_grad=0, device=cpu) = onnx::Constant[value={0}]()
  %7039 : Long(1, 1, strides=[1, 1], requires_grad=0, device=cpu) = onnx::Constant[value={0}]()
  %7040 : Long(1, 1, strides=[1, 1], device=cpu) = onnx::Add(%7039, %7037)
  %7041 : Long(2, strides=[1], device=cpu) = onnx::Shape(%7040)
  %7042 : Long(1, strides=[1], device=cpu) = onnx::Shape(%7041)
  %7043 : Long(2, device=cpu) = onnx::ConstantOfShape[value={1}](%7042)
  %7044 : Long(requires_grad=0, device=cpu) = onnx::Constant[value={-1}]()
  %7045 : Long(2, strides=[1], device=cpu) = onnx::Mul(%7043, %7044)
  %7046 : Bool(2, strides=[1], device=cpu) = onnx::Equal(%7041, %7045)
  %7047 : Long(2, strides=[1], device=cpu) = onnx::Where(%7046, %7043, %7041)
  %7048 : Long(1, 1, device=cpu) = onnx::Expand(%7038, %7047)
  %7049 : Long(1, 1, 1, strides=[1, 1, 1], device=cpu) = onnx::Unsqueeze[axes=[-1]](%7048)
  %7050 : Long(1, strides=[1], device=cpu) = onnx::Shape(%7041)
  %7051 : Long(2, device=cpu) = onnx::ConstantOfShape[value={1}](%7050)
  %7052 : Long(requires_grad=0, device=cpu) = onnx::Constant[value={-1}]()
  %7053 : Long(2, strides=[1], device=cpu) = onnx::Mul(%7051, %7052)
  %7054 : Bool(2, strides=[1], device=cpu) = onnx::Equal(%7041, %7053)
  %7055 : Long(2, strides=[1], device=cpu) = onnx::Where(%7054, %7051, %7041)
  %7056 : Long(1, 1, device=cpu) = onnx::Expand(%7037, %7055)
  %7057 : Long(1, 1, 1, strides=[1, 1, 1], device=cpu) = onnx::Unsqueeze[axes=[-1]](%7056)
  %7058 : Long(1, 1, 2, strides=[2, 2, 1], device=cpu) = onnx::Concat[axis=-1](%7049, %7057)
  %7059 : Long(2, strides=[1], device=cpu) = onnx::Shape(%6987)
  %7060 : Long(1, strides=[1], device=cpu) = onnx::Constant[value={0}]()
  %7061 : Long(1, strides=[1], device=cpu) = onnx::Constant[value={2}]()
  %7062 : Long(1, strides=[1], device=cpu) = onnx::Constant[value={9223372036854775807}]()
  %7063 : Long(0, strides=[1], device=cpu) = onnx::Slice(%7059, %7061, %7062, %7060)
  %7064 : Long(2, strides=[1], device=cpu) = onnx::Concat[axis=0](%7041, %7063)
  %7065 : Float(1, 1, device=cpu) = onnx::Reshape(%7036, %7064)
  %7066 : Float(1, 5, requires_grad=1, device=cuda:0) = onnx::ScatterND(%6987, %7058, %7065) # C:\Users\sberti\PycharmProjects\ISBFSAR\modules\ar\trx\utils\model.py:130:0
  %7067 : Float(1, 5, 1, strides=[5, 1, 1], device=cpu) = onnx::Unsqueeze[axes=[-1]](%1570)
  %7068 : Float(1, 5, 1, strides=[5, 1, 1], device=cpu) = onnx::Unsqueeze[axes=[-1]](%7066)
  %7069 : Float(1, 5, 2, strides=[10, 2, 1], requires_grad=1, device=cuda:0) = onnx::Concat[axis=-1](%7067, %7068) # C:\Users\sberti\PycharmProjects\ISBFSAR\modules\ar\trx\utils\model.py:197:0
  %7070 : Float(1, 5, strides=[5, 1], requires_grad=1, device=cuda:0) = onnx::ReduceMean[axes=[-1], keepdims=0](%7069) # C:\Users\sberti\PycharmProjects\ISBFSAR\modules\ar\trx\utils\model.py:199:0
  %pred : Float(1, 1, 5, strides=[5, 5, 1], requires_grad=1, device=cuda:0) = onnx::Reshape(%7070, %7128) # C:\Users\sberti\PycharmProjects\ISBFSAR\modules\ar\trx\utils\misc.py:120:0
  return (%pred)
